…
I0313 18:07:49.837075  6466 net.cpp:253] The NetState phase (0) differed from the phase (1) specified by a rule in layer accuracy
I0313 18:07:49.837340  6466 net.cpp:42] Initializing net from parameters: 
name: "nin_imagenet11"
state {
  phase: TRAIN
}
layer {
  name: "data"
  type: "Data"
  top: "data"
  top: "label"
  include {
    phase: TRAIN
  }
  transform_param {
    mirror: true
    crop_size: 224
    mean_file: "/root/cs231n-project/data/image_means/ilsvrc12/imagenet_mean.binaryproto"
  }
  data_param {
    source: "/root/cs231n-project/data/images/train/no_augmentations/imagenet/256/train_lmdb"
    batch_size: 64
    backend: LMDB
  }
}
layer {
  name: "conv1"
  type: "Convolution"
  bottom: "data"
  top: "conv1"
  param {
    lr_mult: 0
    decay_mult: 0
  }
  param {
    lr_mult: 0
    decay_mult: 0
  }
  convolution_param {
    num_output: 96
    kernel_size: 11
    stride: 4
    weight_filler {
      type: "gaussian"
      mean: 0
      std: 0.01
    }
    bias_filler {
      type: "constant"
      value: 0
    }
  }
}
layer {
  name: "relu0"
  type: "ReLU"
  bottom: "conv1"
  top: "conv1"
}
layer {
  name: "cccp1"
  type: "Convolution"
  bottom: "conv1"
  top: "cccp1"
  param {
    lr_mult: 0
    decay_mult: 0
  }
  param {
    lr_mult: 0
    decay_mult: 0
  }
  convolution_param {
    num_output: 96
    kernel_size: 1
    stride: 1
    weight_filler {
      type: "gaussian"
      mean: 0
      std: 0.05
    }
    bias_filler {
      type: "constant"
      value: 0
    }
  }
}
layer {
  name: "relu1"
  type: "ReLU"
  bottom: "cccp1"
  top: "cccp1"
}
layer {
  name: "cccp2"
  type: "Convolution"
  bottom: "cccp1"
  top: "cccp2"
  param {
    lr_mult: 0
    decay_mult: 0
  }
  param {
    lr_mult: 0
    decay_mult: 0
  }
  convolution_param {
    num_output: 96
    kernel_size: 1
    stride: 1
    weight_filler {
      type: "gaussian"
      mean: 0
      std: 0.05
    }
    bias_filler {
      type: "constant"
      value: 0
    }
  }
}
layer {
  name: "relu2"
  type: "ReLU"
  bottom: "cccp2"
  top: "cccp2"
}
layer {
  name: "pool0"
  type: "Pooling"
  bottom: "cccp2"
  top: "pool0"
  pooling_param {
    pool: MAX
    kernel_size: 3
    stride: 2
  }
}
layer {
  name: "conv2"
  type: "Convolution"
  bottom: "pool0"
  top: "conv2"
  param {
    lr_mult: 0
    decay_mult: 0
  }
  param {
    lr_mult: 0
    decay_mult: 0
  }
  convolution_param {
    num_output: 256
    pad: 2
    kernel_size: 5
    stride: 1
    weight_filler {
      type: "gaussian"
      mean: 0
      std: 0.05
    }
    bias_filler {
      type: "constant"
      value: 0
    }
  }
}
layer {
  name: "relu3"
  type: "ReLU"
  bottom: "conv2"
  top: "conv2"
}
layer {
  name: "cccp3"
  type: "Convolution"
  bottom: "conv2"
  top: "cccp3"
  param {
    lr_mult: 0
    decay_mult: 0
  }
  param {
    lr_mult: 0
    decay_mult: 0
  }
  convolution_param {
    num_output: 256
    kernel_size: 1
    stride: 1
    weight_filler {
      type: "gaussian"
      mean: 0
      std: 0.05
    }
    bias_filler {
      type: "constant"
      value: 0
    }
  }
}
layer {
  name: "relu5"
  type: "ReLU"
  bottom: "cccp3"
  top: "cccp3"
}
layer {
  name: "cccp4"
  type: "Convolution"
  bottom: "cccp3"
  top: "cccp4"
  param {
    lr_mult: 0
    decay_mult: 0
  }
  param {
    lr_mult: 0
    decay_mult: 0
  }
  convolution_param {
    num_output: 256
    kernel_size: 1
    stride: 1
    weight_filler {
      type: "gaussian"
      mean: 0
      std: 0.05
    }
    bias_filler {
      type: "constant"
      value: 0
    }
  }
}
layer {
  name: "relu6"
  type: "ReLU"
  bottom: "cccp4"
  top: "cccp4"
}
layer {
  name: "pool2"
  type: "Pooling"
  bottom: "cccp4"
  top: "pool2"
  pooling_param {
    pool: MAX
    kernel_size: 3
    stride: 2
  }
}
layer {
  name: "conv3"
  type: "Convolution"
  bottom: "pool2"
  top: "conv3"
  param {
    lr_mult: 0
    decay_mult: 0
  }
  param {
    lr_mult: 0
    decay_mult: 0
  }
  convolution_param {
    num_output: 384
    pad: 1
    kernel_size: 3
    stride: 1
    weight_filler {
      type: "gaussian"
      mean: 0
      std: 0.01
    }
    bias_filler {
      type: "constant"
      value: 0
    }
  }
}
layer {
  name: "relu7"
  type: "ReLU"
  bottom: "conv3"
  top: "conv3"
}
layer {
  name: "cccp5"
  type: "Convolution"
  bottom: "conv3"
  top: "cccp5"
  param {
    lr_mult: 0
    decay_mult: 0
  }
  param {
    lr_mult: 0
    decay_mult: 0
  }
  convolution_param {
    num_output: 384
    kernel_size: 1
    stride: 1
    weight_filler {
      type: "gaussian"
      mean: 0
      std: 0.05
    }
    bias_filler {
      type: "constant"
      value: 0
    }
  }
}
layer {
  name: "relu8"
  type: "ReLU"
  bottom: "cccp5"
  top: "cccp5"
}
layer {
  name: "cccp6"
  type: "Convolution"
  bottom: "cccp5"
  top: "cccp6"
  param {
    lr_mult: 0
    decay_mult: 0
  }
  param {
    lr_mult: 0
    decay_mult: 0
  }
  convolution_param {
    num_output: 384
    kernel_size: 1
    stride: 1
    weight_filler {
      type: "gaussian"
      mean: 0
      std: 0.05
    }
    bias_filler {
      type: "constant"
      value: 0
    }
  }
}
layer {
  name: "relu9"
  type: "ReLU"
  bottom: "cccp6"
  top: "cccp6"
}
layer {
  name: "pool3"
  type: "Pooling"
  bottom: "cccp6"
  top: "pool3"
  pooling_param {
    pool: MAX
    kernel_size: 3
    stride: 2
  }
}
layer {
  name: "drop"
  type: "Dropout"
  bottom: "pool3"
  top: "pool3"
  dropout_param {
    dropout_ratio: 0.5
  }
}
layer {
  name: "conv4-1024"
  type: "Convolution"
  bottom: "pool3"
  top: "conv4"
  param {
    lr_mult: 0
    decay_mult: 0
  }
  param {
    lr_mult: 0
    decay_mult: 0
  }
  convolution_param {
    num_output: 1024
    pad: 1
    kernel_size: 3
    stride: 1
    weight_filler {
      type: "gaussian"
      mean: 0
      std: 0.05
    }
    bias_filler {
      type: "constant"
      value: 0
    }
  }
}
layer {
  name: "relu10"
  type: "ReLU"
  bottom: "conv4"
  top: "conv4"
}
layer {
  name: "cccp7-1024"
  type: "Convolution"
  bottom: "conv4"
  top: "cccp7"
  param {
    lr_mult: 0
    decay_mult: 0
  }
  param {
    lr_mult: 0
    decay_mult: 0
  }
  convolution_param {
    num_output: 1024
    kernel_size: 1
    stride: 1
    weight_filler {
      type: "gaussian"
      mean: 0
      std: 0.05
    }
    bias_filler {
      type: "constant"
      value: 0
    }
  }
}
layer {
  name: "relu11"
  type: "ReLU"
  bottom: "cccp7"
  top: "cccp7"
}
layer {
  name: "cccp8-1024-11"
  type: "Convolution"
  bottom: "cccp7"
  top: "cccp8-11"
  param {
    lr_mult: 1
    decay_mult: 1
  }
  param {
    lr_mult: 2
    decay_mult: 0
  }
  convolution_param {
    num_output: 11
    kernel_size: 1
    stride: 1
    weight_filler {
      type: "gaussian"
      mean: 0
      std: 0.01
    }
    bias_filler {
      type: "constant"
      value: 0
    }
  }
}
layer {
  name: "relu12"
  type: "ReLU"
  bottom: "cccp8-11"
  top: "cccp8-11"
}
layer {
  name: "pool4"
  type: "Pooling"
  bottom: "cccp8-11"
  top: "pool4"
  pooling_param {
    pool: AVE
    kernel_size: 6
    stride: 1
  }
}
layer {
  name: "loss"
  type: "SoftmaxWithLoss"
  bottom: "pool4"
  bottom: "label"
  include {
    phase: TRAIN
  }
}
I0313 18:07:49.837548  6466 layer_factory.hpp:74] Creating layer data
I0313 18:07:49.837589  6466 net.cpp:76] Creating Layer data
I0313 18:07:49.837615  6466 net.cpp:334] data -> data
I0313 18:07:49.837646  6466 net.cpp:334] data -> label
I0313 18:07:49.837668  6466 net.cpp:105] Setting up data
I0313 18:07:49.837779  6466 db.cpp:34] Opened lmdb /root/cs231n-project/data/images/train/no_augmentations/imagenet/256/train_lmdb
I0313 18:07:49.838085  6466 data_layer.cpp:67] output data size: 64,3,224,224
I0313 18:07:49.838114  6466 data_transformer.cpp:22] Loading mean file from: /root/cs231n-project/data/image_means/ilsvrc12/imagenet_mean.binaryproto
I0313 18:07:49.863898  6466 net.cpp:112] Top shape: 64 3 224 224 (9633792)
I0313 18:07:49.863977  6466 net.cpp:112] Top shape: 64 1 1 1 (64)
I0313 18:07:49.863998  6466 layer_factory.hpp:74] Creating layer conv1
I0313 18:07:49.864028  6466 net.cpp:76] Creating Layer conv1
I0313 18:07:49.864040  6466 net.cpp:372] conv1 <- data
I0313 18:07:49.864065  6466 net.cpp:334] conv1 -> conv1
I0313 18:07:49.864084  6466 net.cpp:105] Setting up conv1
I0313 18:07:49.865476  6466 net.cpp:112] Top shape: 64 96 54 54 (17915904)
I0313 18:07:49.865524  6466 layer_factory.hpp:74] Creating layer relu0
I0313 18:07:49.865542  6466 net.cpp:76] Creating Layer relu0
I0313 18:07:49.865557  6466 net.cpp:372] relu0 <- conv1
I0313 18:07:49.865569  6466 net.cpp:323] relu0 -> conv1 (in-place)
I0313 18:07:49.865579  6466 net.cpp:105] Setting up relu0
I0313 18:07:49.865589  6466 net.cpp:112] Top shape: 64 96 54 54 (17915904)
I0313 18:07:49.865597  6466 layer_factory.hpp:74] Creating layer cccp1
I0313 18:07:49.865617  6466 net.cpp:76] Creating Layer cccp1
I0313 18:07:49.865627  6466 net.cpp:372] cccp1 <- conv1
I0313 18:07:49.865638  6466 net.cpp:334] cccp1 -> cccp1
I0313 18:07:49.865648  6466 net.cpp:105] Setting up cccp1
I0313 18:07:49.866009  6466 net.cpp:112] Top shape: 64 96 54 54 (17915904)
I0313 18:07:49.866040  6466 layer_factory.hpp:74] Creating layer relu1
I0313 18:07:49.866060  6466 net.cpp:76] Creating Layer relu1
I0313 18:07:49.866070  6466 net.cpp:372] relu1 <- cccp1
I0313 18:07:49.866080  6466 net.cpp:323] relu1 -> cccp1 (in-place)
I0313 18:07:49.866096  6466 net.cpp:105] Setting up relu1
I0313 18:07:49.866107  6466 net.cpp:112] Top shape: 64 96 54 54 (17915904)
I0313 18:07:49.866116  6466 layer_factory.hpp:74] Creating layer cccp2
I0313 18:07:49.866132  6466 net.cpp:76] Creating Layer cccp2
I0313 18:07:49.866158  6466 net.cpp:372] cccp2 <- cccp1
I0313 18:07:49.866174  6466 net.cpp:334] cccp2 -> cccp2
I0313 18:07:49.866186  6466 net.cpp:105] Setting up cccp2
I0313 18:07:49.866554  6466 net.cpp:112] Top shape: 64 96 54 54 (17915904)
I0313 18:07:49.866585  6466 layer_factory.hpp:74] Creating layer relu2
I0313 18:07:49.866596  6466 net.cpp:76] Creating Layer relu2
I0313 18:07:49.866605  6466 net.cpp:372] relu2 <- cccp2
I0313 18:07:49.866614  6466 net.cpp:323] relu2 -> cccp2 (in-place)
I0313 18:07:49.866623  6466 net.cpp:105] Setting up relu2
I0313 18:07:49.866633  6466 net.cpp:112] Top shape: 64 96 54 54 (17915904)
I0313 18:07:49.866641  6466 layer_factory.hpp:74] Creating layer pool0
I0313 18:07:49.866657  6466 net.cpp:76] Creating Layer pool0
I0313 18:07:49.866667  6466 net.cpp:372] pool0 <- cccp2
I0313 18:07:49.866677  6466 net.cpp:334] pool0 -> pool0
I0313 18:07:49.866688  6466 net.cpp:105] Setting up pool0
I0313 18:07:49.866751  6466 net.cpp:112] Top shape: 64 96 27 27 (4478976)
I0313 18:07:49.866773  6466 layer_factory.hpp:74] Creating layer conv2
I0313 18:07:49.866789  6466 net.cpp:76] Creating Layer conv2
I0313 18:07:49.866811  6466 net.cpp:372] conv2 <- pool0
I0313 18:07:49.866825  6466 net.cpp:334] conv2 -> conv2
I0313 18:07:49.866838  6466 net.cpp:105] Setting up conv2
I0313 18:07:49.894469  6466 net.cpp:112] Top shape: 64 256 27 27 (11943936)
I0313 18:07:49.894541  6466 layer_factory.hpp:74] Creating layer relu3
I0313 18:07:49.894559  6466 net.cpp:76] Creating Layer relu3
I0313 18:07:49.894579  6466 net.cpp:372] relu3 <- conv2
I0313 18:07:49.894606  6466 net.cpp:323] relu3 -> conv2 (in-place)
I0313 18:07:49.894619  6466 net.cpp:105] Setting up relu3
I0313 18:07:49.894641  6466 net.cpp:112] Top shape: 64 256 27 27 (11943936)
I0313 18:07:49.894650  6466 layer_factory.hpp:74] Creating layer cccp3
I0313 18:07:49.894665  6466 net.cpp:76] Creating Layer cccp3
I0313 18:07:49.894680  6466 net.cpp:372] cccp3 <- conv2
I0313 18:07:49.894692  6466 net.cpp:334] cccp3 -> cccp3
I0313 18:07:49.894707  6466 net.cpp:105] Setting up cccp3
I0313 18:07:49.896850  6466 net.cpp:112] Top shape: 64 256 27 27 (11943936)
I0313 18:07:49.896881  6466 layer_factory.hpp:74] Creating layer relu5
I0313 18:07:49.896894  6466 net.cpp:76] Creating Layer relu5
I0313 18:07:49.896903  6466 net.cpp:372] relu5 <- cccp3
I0313 18:07:49.896914  6466 net.cpp:323] relu5 -> cccp3 (in-place)
I0313 18:07:49.896924  6466 net.cpp:105] Setting up relu5
I0313 18:07:49.896932  6466 net.cpp:112] Top shape: 64 256 27 27 (11943936)
I0313 18:07:49.896939  6466 layer_factory.hpp:74] Creating layer cccp4
I0313 18:07:49.896950  6466 net.cpp:76] Creating Layer cccp4
I0313 18:07:49.896958  6466 net.cpp:372] cccp4 <- cccp3
I0313 18:07:49.896968  6466 net.cpp:334] cccp4 -> cccp4
I0313 18:07:49.896981  6466 net.cpp:105] Setting up cccp4
I0313 18:07:49.899132  6466 net.cpp:112] Top shape: 64 256 27 27 (11943936)
I0313 18:07:49.899157  6466 layer_factory.hpp:74] Creating layer relu6
I0313 18:07:49.899169  6466 net.cpp:76] Creating Layer relu6
I0313 18:07:49.899178  6466 net.cpp:372] relu6 <- cccp4
I0313 18:07:49.899188  6466 net.cpp:323] relu6 -> cccp4 (in-place)
I0313 18:07:49.899196  6466 net.cpp:105] Setting up relu6
I0313 18:07:49.899204  6466 net.cpp:112] Top shape: 64 256 27 27 (11943936)
I0313 18:07:49.899210  6466 layer_factory.hpp:74] Creating layer pool2
I0313 18:07:49.899221  6466 net.cpp:76] Creating Layer pool2
I0313 18:07:49.899229  6466 net.cpp:372] pool2 <- cccp4
I0313 18:07:49.899238  6466 net.cpp:334] pool2 -> pool2
I0313 18:07:49.899262  6466 net.cpp:105] Setting up pool2
I0313 18:07:49.899276  6466 net.cpp:112] Top shape: 64 256 13 13 (2768896)
I0313 18:07:49.899282  6466 layer_factory.hpp:74] Creating layer conv3
I0313 18:07:49.899294  6466 net.cpp:76] Creating Layer conv3
I0313 18:07:49.899312  6466 net.cpp:372] conv3 <- pool2
I0313 18:07:49.899323  6466 net.cpp:334] conv3 -> conv3
I0313 18:07:49.899334  6466 net.cpp:105] Setting up conv3
I0313 18:07:49.929016  6466 net.cpp:112] Top shape: 64 384 13 13 (4153344)
I0313 18:07:49.929088  6466 layer_factory.hpp:74] Creating layer relu7
I0313 18:07:49.929111  6466 net.cpp:76] Creating Layer relu7
I0313 18:07:49.929121  6466 net.cpp:372] relu7 <- conv3
I0313 18:07:49.929134  6466 net.cpp:323] relu7 -> conv3 (in-place)
I0313 18:07:49.929148  6466 net.cpp:105] Setting up relu7
I0313 18:07:49.929158  6466 net.cpp:112] Top shape: 64 384 13 13 (4153344)
I0313 18:07:49.929167  6466 layer_factory.hpp:74] Creating layer cccp5
I0313 18:07:49.929179  6466 net.cpp:76] Creating Layer cccp5
I0313 18:07:49.929193  6466 net.cpp:372] cccp5 <- conv3
I0313 18:07:49.929204  6466 net.cpp:334] cccp5 -> cccp5
I0313 18:07:49.929218  6466 net.cpp:105] Setting up cccp5
I0313 18:07:49.934140  6466 net.cpp:112] Top shape: 64 384 13 13 (4153344)
I0313 18:07:49.934170  6466 layer_factory.hpp:74] Creating layer relu8
I0313 18:07:49.934181  6466 net.cpp:76] Creating Layer relu8
I0313 18:07:49.934190  6466 net.cpp:372] relu8 <- cccp5
I0313 18:07:49.934198  6466 net.cpp:323] relu8 -> cccp5 (in-place)
I0313 18:07:49.934211  6466 net.cpp:105] Setting up relu8
I0313 18:07:49.934219  6466 net.cpp:112] Top shape: 64 384 13 13 (4153344)
I0313 18:07:49.934226  6466 layer_factory.hpp:74] Creating layer cccp6
I0313 18:07:49.934238  6466 net.cpp:76] Creating Layer cccp6
I0313 18:07:49.934253  6466 net.cpp:372] cccp6 <- cccp5
I0313 18:07:49.934264  6466 net.cpp:334] cccp6 -> cccp6
I0313 18:07:49.934274  6466 net.cpp:105] Setting up cccp6
I0313 18:07:49.939321  6466 net.cpp:112] Top shape: 64 384 13 13 (4153344)
I0313 18:07:49.939368  6466 layer_factory.hpp:74] Creating layer relu9
I0313 18:07:49.939393  6466 net.cpp:76] Creating Layer relu9
I0313 18:07:49.939427  6466 net.cpp:372] relu9 <- cccp6
I0313 18:07:49.939447  6466 net.cpp:323] relu9 -> cccp6 (in-place)
I0313 18:07:49.939465  6466 net.cpp:105] Setting up relu9
I0313 18:07:49.939474  6466 net.cpp:112] Top shape: 64 384 13 13 (4153344)
I0313 18:07:49.939481  6466 layer_factory.hpp:74] Creating layer pool3
I0313 18:07:49.939491  6466 net.cpp:76] Creating Layer pool3
I0313 18:07:49.939498  6466 net.cpp:372] pool3 <- cccp6
I0313 18:07:49.939508  6466 net.cpp:334] pool3 -> pool3
I0313 18:07:49.939517  6466 net.cpp:105] Setting up pool3
I0313 18:07:49.939543  6466 net.cpp:112] Top shape: 64 384 6 6 (884736)
I0313 18:07:49.939553  6466 layer_factory.hpp:74] Creating layer drop
I0313 18:07:49.939568  6466 net.cpp:76] Creating Layer drop
I0313 18:07:49.939581  6466 net.cpp:372] drop <- pool3
I0313 18:07:49.939591  6466 net.cpp:323] drop -> pool3 (in-place)
I0313 18:07:49.939601  6466 net.cpp:105] Setting up drop
I0313 18:07:49.939626  6466 net.cpp:112] Top shape: 64 384 6 6 (884736)
I0313 18:07:49.939636  6466 layer_factory.hpp:74] Creating layer conv4-1024
I0313 18:07:49.939651  6466 net.cpp:76] Creating Layer conv4-1024
I0313 18:07:49.939664  6466 net.cpp:372] conv4-1024 <- pool3
I0313 18:07:49.939676  6466 net.cpp:334] conv4-1024 -> conv4
I0313 18:07:49.939687  6466 net.cpp:105] Setting up conv4-1024
I0313 18:07:50.059913  6466 net.cpp:112] Top shape: 64 1024 6 6 (2359296)
I0313 18:07:50.059975  6466 layer_factory.hpp:74] Creating layer relu10
I0313 18:07:50.059994  6466 net.cpp:76] Creating Layer relu10
I0313 18:07:50.060003  6466 net.cpp:372] relu10 <- conv4
I0313 18:07:50.060016  6466 net.cpp:323] relu10 -> conv4 (in-place)
I0313 18:07:50.060029  6466 net.cpp:105] Setting up relu10
I0313 18:07:50.060039  6466 net.cpp:112] Top shape: 64 1024 6 6 (2359296)
I0313 18:07:50.060045  6466 layer_factory.hpp:74] Creating layer cccp7-1024
I0313 18:07:50.060061  6466 net.cpp:76] Creating Layer cccp7-1024
I0313 18:07:50.060070  6466 net.cpp:372] cccp7-1024 <- conv4
I0313 18:07:50.060081  6466 net.cpp:334] cccp7-1024 -> cccp7
I0313 18:07:50.060091  6466 net.cpp:105] Setting up cccp7-1024
I0313 18:07:50.095036  6466 net.cpp:112] Top shape: 64 1024 6 6 (2359296)
I0313 18:07:50.095067  6466 layer_factory.hpp:74] Creating layer relu11
I0313 18:07:50.095077  6466 net.cpp:76] Creating Layer relu11
I0313 18:07:50.095085  6466 net.cpp:372] relu11 <- cccp7
I0313 18:07:50.095094  6466 net.cpp:323] relu11 -> cccp7 (in-place)
I0313 18:07:50.095103  6466 net.cpp:105] Setting up relu11
I0313 18:07:50.095111  6466 net.cpp:112] Top shape: 64 1024 6 6 (2359296)
I0313 18:07:50.095118  6466 layer_factory.hpp:74] Creating layer cccp8-1024-11
I0313 18:07:50.095131  6466 net.cpp:76] Creating Layer cccp8-1024-11
I0313 18:07:50.095139  6466 net.cpp:372] cccp8-1024-11 <- cccp7
I0313 18:07:50.095149  6466 net.cpp:334] cccp8-1024-11 -> cccp8-11
I0313 18:07:50.095165  6466 net.cpp:105] Setting up cccp8-1024-11
I0313 18:07:50.095563  6466 net.cpp:112] Top shape: 64 11 6 6 (25344)
I0313 18:07:50.095587  6466 layer_factory.hpp:74] Creating layer relu12
I0313 18:07:50.095598  6466 net.cpp:76] Creating Layer relu12
I0313 18:07:50.095607  6466 net.cpp:372] relu12 <- cccp8-11
I0313 18:07:50.095614  6466 net.cpp:323] relu12 -> cccp8-11 (in-place)
I0313 18:07:50.095623  6466 net.cpp:105] Setting up relu12
I0313 18:07:50.095630  6466 net.cpp:112] Top shape: 64 11 6 6 (25344)
I0313 18:07:50.095638  6466 layer_factory.hpp:74] Creating layer pool4
I0313 18:07:50.095652  6466 net.cpp:76] Creating Layer pool4
I0313 18:07:50.095659  6466 net.cpp:372] pool4 <- cccp8-11
I0313 18:07:50.095669  6466 net.cpp:334] pool4 -> pool4
I0313 18:07:50.095680  6466 net.cpp:105] Setting up pool4
I0313 18:07:50.095690  6466 net.cpp:112] Top shape: 64 11 1 1 (704)
I0313 18:07:50.095697  6466 layer_factory.hpp:74] Creating layer loss
I0313 18:07:50.095717  6466 net.cpp:76] Creating Layer loss
I0313 18:07:50.095729  6466 net.cpp:372] loss <- pool4
I0313 18:07:50.095746  6466 net.cpp:372] loss <- label
I0313 18:07:50.095791  6466 net.cpp:334] loss -> (automatic)
I0313 18:07:50.095805  6466 net.cpp:105] Setting up loss
I0313 18:07:50.095823  6466 layer_factory.hpp:74] Creating layer loss
I0313 18:07:50.095849  6466 net.cpp:112] Top shape: 1 1 1 1 (1)
I0313 18:07:50.095857  6466 net.cpp:118]     with loss weight 1
I0313 18:07:50.095896  6466 net.cpp:163] loss needs backward computation.
I0313 18:07:50.095903  6466 net.cpp:163] pool4 needs backward computation.
I0313 18:07:50.095909  6466 net.cpp:163] relu12 needs backward computation.
I0313 18:07:50.095916  6466 net.cpp:163] cccp8-1024-11 needs backward computation.
I0313 18:07:50.095922  6466 net.cpp:165] relu11 does not need backward computation.
…
