…
I0313 19:17:02.822938 12045 net.cpp:253] The NetState phase (0) differed from the phase (1) specified by a rule in layer accuracy
I0313 19:17:02.823127 12045 net.cpp:42] Initializing net from parameters: 
name: "alexnet11"
state {
  phase: TRAIN
}
layer {
  name: "data"
  type: "Data"
  top: "data"
  top: "label"
  include {
    phase: TRAIN
  }
  transform_param {
    mirror: true
    crop_size: 227
    mean_file: "/root/cs231n-project/data/image_means/ilsvrc12/imagenet_mean.binaryproto"
  }
  data_param {
    source: "/root/cs231n-project/data/images/train/no_augmentations/imagenet/256/train_lmdb"
    batch_size: 100
    backend: LMDB
  }
}
layer {
  name: "conv1"
  type: "Convolution"
  bottom: "data"
  top: "conv1"
  param {
    lr_mult: 0
    decay_mult: 0
  }
  param {
    lr_mult: 0
    decay_mult: 0
  }
  convolution_param {
    num_output: 96
    kernel_size: 11
    stride: 4
    weight_filler {
      type: "gaussian"
      std: 0.01
    }
    bias_filler {
      type: "constant"
      value: 0
    }
  }
}
layer {
  name: "relu1"
  type: "ReLU"
  bottom: "conv1"
  top: "conv1"
}
layer {
  name: "pool1"
  type: "Pooling"
  bottom: "conv1"
  top: "pool1"
  pooling_param {
    pool: MAX
    kernel_size: 3
    stride: 2
  }
}
layer {
  name: "norm1"
  type: "LRN"
  bottom: "pool1"
  top: "norm1"
  lrn_param {
    local_size: 5
    alpha: 0.0001
    beta: 0.75
  }
}
layer {
  name: "conv2"
  type: "Convolution"
  bottom: "norm1"
  top: "conv2"
  param {
    lr_mult: 0
    decay_mult: 0
  }
  param {
    lr_mult: 0
    decay_mult: 0
  }
  convolution_param {
    num_output: 256
    pad: 2
    kernel_size: 5
    group: 2
    weight_filler {
      type: "gaussian"
      std: 0.01
    }
    bias_filler {
      type: "constant"
      value: 1
    }
  }
}
layer {
  name: "relu2"
  type: "ReLU"
  bottom: "conv2"
  top: "conv2"
}
layer {
  name: "pool2"
  type: "Pooling"
  bottom: "conv2"
  top: "pool2"
  pooling_param {
    pool: MAX
    kernel_size: 3
    stride: 2
  }
}
layer {
  name: "norm2"
  type: "LRN"
  bottom: "pool2"
  top: "norm2"
  lrn_param {
    local_size: 5
    alpha: 0.0001
    beta: 0.75
  }
}
layer {
  name: "conv3"
  type: "Convolution"
  bottom: "norm2"
  top: "conv3"
  param {
    lr_mult: 0
    decay_mult: 0
  }
  param {
    lr_mult: 0
    decay_mult: 0
  }
  convolution_param {
    num_output: 384
    pad: 1
    kernel_size: 3
    weight_filler {
      type: "gaussian"
      std: 0.01
    }
    bias_filler {
      type: "constant"
      value: 0
    }
  }
}
layer {
  name: "relu3"
  type: "ReLU"
  bottom: "conv3"
  top: "conv3"
}
layer {
  name: "conv4"
  type: "Convolution"
  bottom: "conv3"
  top: "conv4"
  param {
    lr_mult: 0
    decay_mult: 0
  }
  param {
    lr_mult: 0
    decay_mult: 0
  }
  convolution_param {
    num_output: 384
    pad: 1
    kernel_size: 3
    group: 2
    weight_filler {
      type: "gaussian"
      std: 0.01
    }
    bias_filler {
      type: "constant"
      value: 1
    }
  }
}
layer {
  name: "relu4"
  type: "ReLU"
  bottom: "conv4"
  top: "conv4"
}
layer {
  name: "conv5"
  type: "Convolution"
  bottom: "conv4"
  top: "conv5"
  param {
    lr_mult: 0
    decay_mult: 0
  }
  param {
    lr_mult: 0
    decay_mult: 0
  }
  convolution_param {
    num_output: 256
    pad: 1
    kernel_size: 3
    group: 2
    weight_filler {
      type: "gaussian"
      std: 0.01
    }
    bias_filler {
      type: "constant"
      value: 1
    }
  }
}
layer {
  name: "relu5"
  type: "ReLU"
  bottom: "conv5"
  top: "conv5"
}
layer {
  name: "pool5"
  type: "Pooling"
  bottom: "conv5"
  top: "pool5"
  pooling_param {
    pool: MAX
    kernel_size: 3
    stride: 2
  }
}
layer {
  name: "fc6"
  type: "InnerProduct"
  bottom: "pool5"
  top: "fc6"
  param {
    lr_mult: 0
    decay_mult: 0
  }
  param {
    lr_mult: 0
    decay_mult: 0
  }
  inner_product_param {
    num_output: 4096
    weight_filler {
      type: "gaussian"
      std: 0.005
    }
    bias_filler {
      type: "constant"
      value: 1
    }
  }
}
layer {
  name: "relu6"
  type: "ReLU"
  bottom: "fc6"
  top: "fc6"
}
layer {
  name: "drop6"
  type: "Dropout"
  bottom: "fc6"
  top: "fc6"
  dropout_param {
    dropout_ratio: 0.5
  }
}
layer {
  name: "fc7"
  type: "InnerProduct"
  bottom: "fc6"
  top: "fc7"
  param {
    lr_mult: 0
    decay_mult: 0
  }
  param {
    lr_mult: 0
    decay_mult: 0
  }
  inner_product_param {
    num_output: 4096
    weight_filler {
      type: "gaussian"
      std: 0.005
    }
    bias_filler {
      type: "constant"
      value: 1
    }
  }
}
layer {
  name: "relu7"
  type: "ReLU"
  bottom: "fc7"
  top: "fc7"
}
layer {
  name: "drop7"
  type: "Dropout"
  bottom: "fc7"
  top: "fc7"
  dropout_param {
    dropout_ratio: 0.5
  }
}
layer {
  name: "fc8-alexnet11"
  type: "InnerProduct"
  bottom: "fc7"
  top: "fc8-alexnet11"
  param {
    lr_mult: 1
    decay_mult: 1
  }
  param {
    lr_mult: 2
    decay_mult: 0
  }
  inner_product_param {
    num_output: 11
    weight_filler {
      type: "gaussian"
      std: 0.01
    }
    bias_filler {
      type: "constant"
      value: 0
    }
  }
}
layer {
  name: "loss"
  type: "SoftmaxWithLoss"
  bottom: "fc8-alexnet11"
  bottom: "label"
  top: "loss"
}
I0313 19:17:02.823318 12045 layer_factory.hpp:74] Creating layer data
I0313 19:17:02.823351 12045 net.cpp:76] Creating Layer data
I0313 19:17:02.823374 12045 net.cpp:334] data -> data
I0313 19:17:02.823429 12045 net.cpp:334] data -> label
I0313 19:17:02.823451 12045 net.cpp:105] Setting up data
I0313 19:17:02.823568 12045 db.cpp:34] Opened lmdb /root/cs231n-project/data/images/train/no_augmentations/imagenet/256/train_lmdb
I0313 19:17:02.823943 12045 data_layer.cpp:67] output data size: 100,3,227,227
I0313 19:17:02.823978 12045 data_transformer.cpp:22] Loading mean file from: /root/cs231n-project/data/image_means/ilsvrc12/imagenet_mean.binaryproto
I0313 19:17:02.854473 12045 net.cpp:112] Top shape: 100 3 227 227 (15458700)
I0313 19:17:02.854548 12045 net.cpp:112] Top shape: 100 1 1 1 (100)
I0313 19:17:02.854573 12045 layer_factory.hpp:74] Creating layer conv1
I0313 19:17:02.854605 12045 net.cpp:76] Creating Layer conv1
I0313 19:17:02.854624 12045 net.cpp:372] conv1 <- data
I0313 19:17:02.854660 12045 net.cpp:334] conv1 -> conv1
I0313 19:17:02.854691 12045 net.cpp:105] Setting up conv1
I0313 19:17:02.856130 12045 net.cpp:112] Top shape: 100 96 55 55 (29040000)
I0313 19:17:02.856178 12045 layer_factory.hpp:74] Creating layer relu1
I0313 19:17:02.856196 12045 net.cpp:76] Creating Layer relu1
I0313 19:17:02.856211 12045 net.cpp:372] relu1 <- conv1
I0313 19:17:02.856230 12045 net.cpp:323] relu1 -> conv1 (in-place)
I0313 19:17:02.856245 12045 net.cpp:105] Setting up relu1
I0313 19:17:02.856261 12045 net.cpp:112] Top shape: 100 96 55 55 (29040000)
I0313 19:17:02.856271 12045 layer_factory.hpp:74] Creating layer pool1
I0313 19:17:02.856287 12045 net.cpp:76] Creating Layer pool1
I0313 19:17:02.856294 12045 net.cpp:372] pool1 <- conv1
I0313 19:17:02.856304 12045 net.cpp:334] pool1 -> pool1
I0313 19:17:02.856317 12045 net.cpp:105] Setting up pool1
I0313 19:17:02.856379 12045 net.cpp:112] Top shape: 100 96 27 27 (6998400)
I0313 19:17:02.856400 12045 layer_factory.hpp:74] Creating layer norm1
I0313 19:17:02.856425 12045 net.cpp:76] Creating Layer norm1
I0313 19:17:02.856446 12045 net.cpp:372] norm1 <- pool1
I0313 19:17:02.856457 12045 net.cpp:334] norm1 -> norm1
I0313 19:17:02.856489 12045 net.cpp:105] Setting up norm1
I0313 19:17:02.856559 12045 net.cpp:112] Top shape: 100 96 27 27 (6998400)
I0313 19:17:02.856580 12045 layer_factory.hpp:74] Creating layer conv2
I0313 19:17:02.856593 12045 net.cpp:76] Creating Layer conv2
I0313 19:17:02.856601 12045 net.cpp:372] conv2 <- norm1
I0313 19:17:02.856612 12045 net.cpp:334] conv2 -> conv2
I0313 19:17:02.856623 12045 net.cpp:105] Setting up conv2
I0313 19:17:02.869279 12045 net.cpp:112] Top shape: 100 256 27 27 (18662400)
I0313 19:17:02.869313 12045 layer_factory.hpp:74] Creating layer relu2
I0313 19:17:02.869326 12045 net.cpp:76] Creating Layer relu2
I0313 19:17:02.869334 12045 net.cpp:372] relu2 <- conv2
I0313 19:17:02.869346 12045 net.cpp:323] relu2 -> conv2 (in-place)
I0313 19:17:02.869364 12045 net.cpp:105] Setting up relu2
I0313 19:17:02.869408 12045 net.cpp:112] Top shape: 100 256 27 27 (18662400)
I0313 19:17:02.869426 12045 layer_factory.hpp:74] Creating layer pool2
I0313 19:17:02.869449 12045 net.cpp:76] Creating Layer pool2
I0313 19:17:02.869462 12045 net.cpp:372] pool2 <- conv2
I0313 19:17:02.869472 12045 net.cpp:334] pool2 -> pool2
I0313 19:17:02.869482 12045 net.cpp:105] Setting up pool2
I0313 19:17:02.869494 12045 net.cpp:112] Top shape: 100 256 13 13 (4326400)
I0313 19:17:02.869503 12045 layer_factory.hpp:74] Creating layer norm2
I0313 19:17:02.869518 12045 net.cpp:76] Creating Layer norm2
I0313 19:17:02.869529 12045 net.cpp:372] norm2 <- pool2
I0313 19:17:02.869537 12045 net.cpp:334] norm2 -> norm2
I0313 19:17:02.869592 12045 net.cpp:105] Setting up norm2
I0313 19:17:02.869608 12045 net.cpp:112] Top shape: 100 256 13 13 (4326400)
I0313 19:17:02.869618 12045 layer_factory.hpp:74] Creating layer conv3
I0313 19:17:02.869633 12045 net.cpp:76] Creating Layer conv3
I0313 19:17:02.869642 12045 net.cpp:372] conv3 <- norm2
I0313 19:17:02.869652 12045 net.cpp:334] conv3 -> conv3
I0313 19:17:02.869664 12045 net.cpp:105] Setting up conv3
I0313 19:17:02.899554 12045 net.cpp:112] Top shape: 100 384 13 13 (6489600)
I0313 19:17:02.899642 12045 layer_factory.hpp:74] Creating layer relu3
I0313 19:17:02.899662 12045 net.cpp:76] Creating Layer relu3
I0313 19:17:02.899672 12045 net.cpp:372] relu3 <- conv3
I0313 19:17:02.899682 12045 net.cpp:323] relu3 -> conv3 (in-place)
I0313 19:17:02.899698 12045 net.cpp:105] Setting up relu3
I0313 19:17:02.899711 12045 net.cpp:112] Top shape: 100 384 13 13 (6489600)
I0313 19:17:02.899725 12045 layer_factory.hpp:74] Creating layer conv4
I0313 19:17:02.899750 12045 net.cpp:76] Creating Layer conv4
I0313 19:17:02.899775 12045 net.cpp:372] conv4 <- conv3
I0313 19:17:02.899791 12045 net.cpp:334] conv4 -> conv4
I0313 19:17:02.899802 12045 net.cpp:105] Setting up conv4
I0313 19:17:02.922291 12045 net.cpp:112] Top shape: 100 384 13 13 (6489600)
I0313 19:17:02.922359 12045 layer_factory.hpp:74] Creating layer relu4
I0313 19:17:02.922376 12045 net.cpp:76] Creating Layer relu4
I0313 19:17:02.922385 12045 net.cpp:372] relu4 <- conv4
I0313 19:17:02.922416 12045 net.cpp:323] relu4 -> conv4 (in-place)
I0313 19:17:02.922433 12045 net.cpp:105] Setting up relu4
I0313 19:17:02.922448 12045 net.cpp:112] Top shape: 100 384 13 13 (6489600)
I0313 19:17:02.922463 12045 layer_factory.hpp:74] Creating layer conv5
I0313 19:17:02.922484 12045 net.cpp:76] Creating Layer conv5
I0313 19:17:02.922500 12045 net.cpp:372] conv5 <- conv4
I0313 19:17:02.922520 12045 net.cpp:334] conv5 -> conv5
I0313 19:17:02.922534 12045 net.cpp:105] Setting up conv5
I0313 19:17:02.937712 12045 net.cpp:112] Top shape: 100 256 13 13 (4326400)
I0313 19:17:02.937788 12045 layer_factory.hpp:74] Creating layer relu5
I0313 19:17:02.937811 12045 net.cpp:76] Creating Layer relu5
I0313 19:17:02.937829 12045 net.cpp:372] relu5 <- conv5
I0313 19:17:02.937850 12045 net.cpp:323] relu5 -> conv5 (in-place)
I0313 19:17:02.937876 12045 net.cpp:105] Setting up relu5
I0313 19:17:02.937886 12045 net.cpp:112] Top shape: 100 256 13 13 (4326400)
I0313 19:17:02.937894 12045 layer_factory.hpp:74] Creating layer pool5
I0313 19:17:02.937921 12045 net.cpp:76] Creating Layer pool5
I0313 19:17:02.937945 12045 net.cpp:372] pool5 <- conv5
I0313 19:17:02.937958 12045 net.cpp:334] pool5 -> pool5
I0313 19:17:02.937968 12045 net.cpp:105] Setting up pool5
I0313 19:17:02.937979 12045 net.cpp:112] Top shape: 100 256 6 6 (921600)
I0313 19:17:02.937986 12045 layer_factory.hpp:74] Creating layer fc6
I0313 19:17:02.938011 12045 net.cpp:76] Creating Layer fc6
I0313 19:17:02.938019 12045 net.cpp:372] fc6 <- pool5
I0313 19:17:02.938029 12045 net.cpp:334] fc6 -> fc6
I0313 19:17:02.938045 12045 net.cpp:105] Setting up fc6
I0313 19:17:04.210664 12045 net.cpp:112] Top shape: 100 4096 1 1 (409600)
I0313 19:17:04.210754 12045 layer_factory.hpp:74] Creating layer relu6
I0313 19:17:04.210774 12045 net.cpp:76] Creating Layer relu6
I0313 19:17:04.210784 12045 net.cpp:372] relu6 <- fc6
I0313 19:17:04.210813 12045 net.cpp:323] relu6 -> fc6 (in-place)
I0313 19:17:04.210836 12045 net.cpp:105] Setting up relu6
I0313 19:17:04.210850 12045 net.cpp:112] Top shape: 100 4096 1 1 (409600)
I0313 19:17:04.210857 12045 layer_factory.hpp:74] Creating layer drop6
I0313 19:17:04.210875 12045 net.cpp:76] Creating Layer drop6
I0313 19:17:04.210883 12045 net.cpp:372] drop6 <- fc6
I0313 19:17:04.210892 12045 net.cpp:323] drop6 -> fc6 (in-place)
I0313 19:17:04.210907 12045 net.cpp:105] Setting up drop6
I0313 19:17:04.210927 12045 net.cpp:112] Top shape: 100 4096 1 1 (409600)
I0313 19:17:04.210943 12045 layer_factory.hpp:74] Creating layer fc7
I0313 19:17:04.210963 12045 net.cpp:76] Creating Layer fc7
I0313 19:17:04.210976 12045 net.cpp:372] fc7 <- fc6
I0313 19:17:04.210999 12045 net.cpp:334] fc7 -> fc7
I0313 19:17:04.211020 12045 net.cpp:105] Setting up fc7
I0313 19:17:04.786247 12045 net.cpp:112] Top shape: 100 4096 1 1 (409600)
I0313 19:17:04.786334 12045 layer_factory.hpp:74] Creating layer relu7
I0313 19:17:04.786360 12045 net.cpp:76] Creating Layer relu7
I0313 19:17:04.786381 12045 net.cpp:372] relu7 <- fc7
I0313 19:17:04.786412 12045 net.cpp:323] relu7 -> fc7 (in-place)
I0313 19:17:04.786429 12045 net.cpp:105] Setting up relu7
I0313 19:17:04.786437 12045 net.cpp:112] Top shape: 100 4096 1 1 (409600)
I0313 19:17:04.786445 12045 layer_factory.hpp:74] Creating layer drop7
I0313 19:17:04.786455 12045 net.cpp:76] Creating Layer drop7
I0313 19:17:04.786463 12045 net.cpp:372] drop7 <- fc7
I0313 19:17:04.786475 12045 net.cpp:323] drop7 -> fc7 (in-place)
I0313 19:17:04.786485 12045 net.cpp:105] Setting up drop7
I0313 19:17:04.786494 12045 net.cpp:112] Top shape: 100 4096 1 1 (409600)
I0313 19:17:04.786501 12045 layer_factory.hpp:74] Creating layer fc8-alexnet11
I0313 19:17:04.786515 12045 net.cpp:76] Creating Layer fc8-alexnet11
I0313 19:17:04.786526 12045 net.cpp:372] fc8-alexnet11 <- fc7
I0313 19:17:04.786540 12045 net.cpp:334] fc8-alexnet11 -> fc8-alexnet11
I0313 19:17:04.786553 12045 net.cpp:105] Setting up fc8-alexnet11
I0313 19:17:04.788168 12045 net.cpp:112] Top shape: 100 11 1 1 (1100)
I0313 19:17:04.788200 12045 layer_factory.hpp:74] Creating layer loss
I0313 19:17:04.788221 12045 net.cpp:76] Creating Layer loss
I0313 19:17:04.788235 12045 net.cpp:372] loss <- fc8-alexnet11
I0313 19:17:04.788245 12045 net.cpp:372] loss <- label
I0313 19:17:04.788264 12045 net.cpp:334] loss -> loss
I0313 19:17:04.788285 12045 net.cpp:105] Setting up loss
I0313 19:17:04.788302 12045 layer_factory.hpp:74] Creating layer loss
I0313 19:17:04.788336 12045 net.cpp:112] Top shape: 1 1 1 1 (1)
I0313 19:17:04.788357 12045 net.cpp:118]     with loss weight 1
I0313 19:17:04.788419 12045 net.cpp:163] loss needs backward computation.
I0313 19:17:04.788445 12045 net.cpp:163] fc8-alexnet11 needs backward computation.
I0313 19:17:04.788471 12045 net.cpp:165] drop7 does not need backward computation.
I0313 19:17:04.788483 12045 net.cpp:165] relu7 does not need backward computation.
I0313 19:17:04.788491 12045 net.cpp:165] fc7 does not need backward computation.
…
I0313 19:17:04.789458 12045 net.cpp:253] The NetState phase (1) differed from the phase (0) specified by a rule in layer data
I0313 19:17:04.789686 12045 net.cpp:42] Initializing net from parameters: 
name: "alexnet11"
state {
  phase: TEST
}
layer {
  name: "data"
  type: "Data"
  top: "data"
  top: "label"
  include {
    phase: TEST
  }
  transform_param {
    mirror: false
    crop_size: 227
    mean_file: "/root/cs231n-project/data/image_means/ilsvrc12/imagenet_mean.binaryproto"
  }
  data_param {
    source: "/root/cs231n-project/data/images/val/instagram/227/val_lmdb"
    batch_size: 50
    backend: LMDB
  }
}
layer {
  name: "conv1"
  type: "Convolution"
  bottom: "data"
  top: "conv1"
  param {
    lr_mult: 0
    decay_mult: 0
  }
  param {
    lr_mult: 0
    decay_mult: 0
  }
  convolution_param {
    num_output: 96
    kernel_size: 11
    stride: 4
    weight_filler {
      type: "gaussian"
      std: 0.01
    }
    bias_filler {
      type: "constant"
      value: 0
    }
  }
}
layer {
  name: "relu1"
  type: "ReLU"
  bottom: "conv1"
  top: "conv1"
}
layer {
  name: "pool1"
  type: "Pooling"
  bottom: "conv1"
  top: "pool1"
  pooling_param {
    pool: MAX
    kernel_size: 3
    stride: 2
  }
}
layer {
  name: "norm1"
  type: "LRN"
  bottom: "pool1"
  top: "norm1"
  lrn_param {
    local_size: 5
    alpha: 0.0001
    beta: 0.75
  }
}
layer {
  name: "conv2"
  type: "Convolution"
  bottom: "norm1"
  top: "conv2"
  param {
    lr_mult: 0
    decay_mult: 0
  }
  param {
    lr_mult: 0
    decay_mult: 0
  }
  convolution_param {
    num_output: 256
    pad: 2
    kernel_size: 5
    group: 2
    weight_filler {
      type: "gaussian"
      std: 0.01
    }
    bias_filler {
      type: "constant"
      value: 1
    }
  }
}
layer {
  name: "relu2"
  type: "ReLU"
  bottom: "conv2"
  top: "conv2"
}
layer {
  name: "pool2"
  type: "Pooling"
  bottom: "conv2"
  top: "pool2"
  pooling_param {
    pool: MAX
    kernel_size: 3
    stride: 2
  }
}
layer {
  name: "norm2"
  type: "LRN"
  bottom: "pool2"
  top: "norm2"
  lrn_param {
    local_size: 5
    alpha: 0.0001
    beta: 0.75
  }
}
layer {
  name: "conv3"
  type: "Convolution"
  bottom: "norm2"
  top: "conv3"
  param {
    lr_mult: 0
    decay_mult: 0
  }
  param {
    lr_mult: 0
    decay_mult: 0
  }
  convolution_param {
    num_output: 384
    pad: 1
    kernel_size: 3
    weight_filler {
      type: "gaussian"
      std: 0.01
    }
    bias_filler {
      type: "constant"
      value: 0
    }
  }
}
layer {
  name: "relu3"
  type: "ReLU"
  bottom: "conv3"
  top: "conv3"
}
layer {
  name: "conv4"
  type: "Convolution"
  bottom: "conv3"
  top: "conv4"
  param {
    lr_mult: 0
    decay_mult: 0
  }
  param {
    lr_mult: 0
    decay_mult: 0
  }
  convolution_param {
    num_output: 384
    pad: 1
    kernel_size: 3
    group: 2
    weight_filler {
      type: "gaussian"
      std: 0.01
    }
    bias_filler {
      type: "constant"
      value: 1
    }
  }
}
layer {
  name: "relu4"
  type: "ReLU"
  bottom: "conv4"
  top: "conv4"
}
layer {
  name: "conv5"
  type: "Convolution"
  bottom: "conv4"
  top: "conv5"
  param {
    lr_mult: 0
    decay_mult: 0
  }
  param {
    lr_mult: 0
    decay_mult: 0
  }
  convolution_param {
    num_output: 256
    pad: 1
    kernel_size: 3
    group: 2
    weight_filler {
      type: "gaussian"
      std: 0.01
    }
    bias_filler {
      type: "constant"
      value: 1
    }
  }
}
layer {
  name: "relu5"
  type: "ReLU"
  bottom: "conv5"
  top: "conv5"
}
layer {
  name: "pool5"
  type: "Pooling"
  bottom: "conv5"
  top: "pool5"
  pooling_param {
    pool: MAX
    kernel_size: 3
    stride: 2
  }
}
layer {
  name: "fc6"
  type: "InnerProduct"
  bottom: "pool5"
  top: "fc6"
  param {
    lr_mult: 0
    decay_mult: 0
  }
  param {
    lr_mult: 0
    decay_mult: 0
  }
  inner_product_param {
    num_output: 4096
    weight_filler {
      type: "gaussian"
      std: 0.005
    }
    bias_filler {
      type: "constant"
      value: 1
    }
  }
}
layer {
  name: "relu6"
  type: "ReLU"
  bottom: "fc6"
  top: "fc6"
}
layer {
  name: "drop6"
  type: "Dropout"
  bottom: "fc6"
  top: "fc6"
  dropout_param {
    dropout_ratio: 0.5
  }
}
layer {
  name: "fc7"
  type: "InnerProduct"
  bottom: "fc6"
  top: "fc7"
  param {
    lr_mult: 0
    decay_mult: 0
  }
  param {
    lr_mult: 0
    decay_mult: 0
  }
  inner_product_param {
    num_output: 4096
    weight_filler {
      type: "gaussian"
      std: 0.005
    }
    bias_filler {
      type: "constant"
      value: 1
    }
  }
}
layer {
  name: "relu7"
  type: "ReLU"
  bottom: "fc7"
  top: "fc7"
}
layer {
  name: "drop7"
  type: "Dropout"
  bottom: "fc7"
  top: "fc7"
  dropout_param {
    dropout_ratio: 0.5
  }
}
layer {
  name: "fc8-alexnet11"
  type: "InnerProduct"
  bottom: "fc7"
  top: "fc8-alexnet11"
  param {
    lr_mult: 1
    decay_mult: 1
  }
  param {
    lr_mult: 2
    decay_mult: 0
  }
  inner_product_param {
    num_output: 11
    weight_filler {
      type: "gaussian"
      std: 0.01
    }
    bias_filler {
      type: "constant"
      value: 0
    }
  }
}
layer {
  name: "accuracy"
  type: "Accuracy"
  bottom: "fc8-alexnet11"
  bottom: "label"
  top: "accuracy"
  include {
    phase: TEST
  }
}
layer {
  name: "loss"
  type: "SoftmaxWithLoss"
  bottom: "fc8-alexnet11"
  bottom: "label"
  top: "loss"
}
I0313 19:17:04.789836 12045 layer_factory.hpp:74] Creating layer data
I0313 19:17:04.789862 12045 net.cpp:76] Creating Layer data
I0313 19:17:04.789878 12045 net.cpp:334] data -> data
I0313 19:17:04.789892 12045 net.cpp:334] data -> label
I0313 19:17:04.789911 12045 net.cpp:105] Setting up data
I0313 19:17:04.789984 12045 db.cpp:34] Opened lmdb /root/cs231n-project/data/images/val/instagram/227/val_lmdb
I0313 19:17:04.790280 12045 data_layer.cpp:67] output data size: 50,3,227,227
I0313 19:17:04.790305 12045 data_transformer.cpp:22] Loading mean file from: /root/cs231n-project/data/image_means/ilsvrc12/imagenet_mean.binaryproto
I0313 19:17:04.805650 12045 net.cpp:112] Top shape: 50 3 227 227 (7729350)
I0313 19:17:04.805727 12045 net.cpp:112] Top shape: 50 1 1 1 (50)
I0313 19:17:04.805742 12045 layer_factory.hpp:74] Creating layer label_data_1_split
I0313 19:17:04.805764 12045 net.cpp:76] Creating Layer label_data_1_split
I0313 19:17:04.805784 12045 net.cpp:372] label_data_1_split <- label
I0313 19:17:04.805824 12045 net.cpp:334] label_data_1_split -> label_data_1_split_0
I0313 19:17:04.805851 12045 net.cpp:334] label_data_1_split -> label_data_1_split_1
I0313 19:17:04.805866 12045 net.cpp:105] Setting up label_data_1_split
I0313 19:17:04.805883 12045 net.cpp:112] Top shape: 50 1 1 1 (50)
I0313 19:17:04.805892 12045 net.cpp:112] Top shape: 50 1 1 1 (50)
I0313 19:17:04.805901 12045 layer_factory.hpp:74] Creating layer conv1
I0313 19:17:04.805917 12045 net.cpp:76] Creating Layer conv1
I0313 19:17:04.805925 12045 net.cpp:372] conv1 <- data
I0313 19:17:04.805938 12045 net.cpp:334] conv1 -> conv1
I0313 19:17:04.805950 12045 net.cpp:105] Setting up conv1
I0313 19:17:04.807129 12045 net.cpp:112] Top shape: 50 96 55 55 (14520000)
I0313 19:17:04.807165 12045 layer_factory.hpp:74] Creating layer relu1
I0313 19:17:04.807179 12045 net.cpp:76] Creating Layer relu1
I0313 19:17:04.807191 12045 net.cpp:372] relu1 <- conv1
I0313 19:17:04.807207 12045 net.cpp:323] relu1 -> conv1 (in-place)
I0313 19:17:04.807240 12045 net.cpp:105] Setting up relu1
I0313 19:17:04.807251 12045 net.cpp:112] Top shape: 50 96 55 55 (14520000)
I0313 19:17:04.807260 12045 layer_factory.hpp:74] Creating layer pool1
I0313 19:17:04.807272 12045 net.cpp:76] Creating Layer pool1
I0313 19:17:04.807279 12045 net.cpp:372] pool1 <- conv1
I0313 19:17:04.807291 12045 net.cpp:334] pool1 -> pool1
I0313 19:17:04.807309 12045 net.cpp:105] Setting up pool1
I0313 19:17:04.807340 12045 net.cpp:112] Top shape: 50 96 27 27 (3499200)
I0313 19:17:04.807353 12045 layer_factory.hpp:74] Creating layer norm1
I0313 19:17:04.807366 12045 net.cpp:76] Creating Layer norm1
I0313 19:17:04.807409 12045 net.cpp:372] norm1 <- pool1
I0313 19:17:04.807438 12045 net.cpp:334] norm1 -> norm1
I0313 19:17:04.807451 12045 net.cpp:105] Setting up norm1
I0313 19:17:04.807459 12045 net.cpp:112] Top shape: 50 96 27 27 (3499200)
I0313 19:17:04.807467 12045 layer_factory.hpp:74] Creating layer conv2
I0313 19:17:04.807479 12045 net.cpp:76] Creating Layer conv2
I0313 19:17:04.807487 12045 net.cpp:372] conv2 <- norm1
I0313 19:17:04.807497 12045 net.cpp:334] conv2 -> conv2
I0313 19:17:04.807517 12045 net.cpp:105] Setting up conv2
I0313 19:17:04.817775 12045 net.cpp:112] Top shape: 50 256 27 27 (9331200)
I0313 19:17:04.817826 12045 layer_factory.hpp:74] Creating layer relu2
I0313 19:17:04.817841 12045 net.cpp:76] Creating Layer relu2
I0313 19:17:04.817848 12045 net.cpp:372] relu2 <- conv2
I0313 19:17:04.817862 12045 net.cpp:323] relu2 -> conv2 (in-place)
I0313 19:17:04.817880 12045 net.cpp:105] Setting up relu2
I0313 19:17:04.817911 12045 net.cpp:112] Top shape: 50 256 27 27 (9331200)
I0313 19:17:04.817924 12045 layer_factory.hpp:74] Creating layer pool2
I0313 19:17:04.817942 12045 net.cpp:76] Creating Layer pool2
I0313 19:17:04.817962 12045 net.cpp:372] pool2 <- conv2
I0313 19:17:04.817973 12045 net.cpp:334] pool2 -> pool2
I0313 19:17:04.817986 12045 net.cpp:105] Setting up pool2
I0313 19:17:04.817996 12045 net.cpp:112] Top shape: 50 256 13 13 (2163200)
I0313 19:17:04.818003 12045 layer_factory.hpp:74] Creating layer norm2
I0313 19:17:04.818018 12045 net.cpp:76] Creating Layer norm2
I0313 19:17:04.818028 12045 net.cpp:372] norm2 <- pool2
I0313 19:17:04.818037 12045 net.cpp:334] norm2 -> norm2
I0313 19:17:04.818053 12045 net.cpp:105] Setting up norm2
I0313 19:17:04.818063 12045 net.cpp:112] Top shape: 50 256 13 13 (2163200)
I0313 19:17:04.818070 12045 layer_factory.hpp:74] Creating layer conv3
I0313 19:17:04.818084 12045 net.cpp:76] Creating Layer conv3
I0313 19:17:04.818107 12045 net.cpp:372] conv3 <- norm2
I0313 19:17:04.818121 12045 net.cpp:334] conv3 -> conv3
I0313 19:17:04.818132 12045 net.cpp:105] Setting up conv3
I0313 19:17:04.847995 12045 net.cpp:112] Top shape: 50 384 13 13 (3244800)
I0313 19:17:04.848075 12045 layer_factory.hpp:74] Creating layer relu3
I0313 19:17:04.848093 12045 net.cpp:76] Creating Layer relu3
I0313 19:17:04.848104 12045 net.cpp:372] relu3 <- conv3
I0313 19:17:04.848124 12045 net.cpp:323] relu3 -> conv3 (in-place)
I0313 19:17:04.848160 12045 net.cpp:105] Setting up relu3
I0313 19:17:04.848211 12045 net.cpp:112] Top shape: 50 384 13 13 (3244800)
I0313 19:17:04.848223 12045 layer_factory.hpp:74] Creating layer conv4
I0313 19:17:04.848238 12045 net.cpp:76] Creating Layer conv4
I0313 19:17:04.848255 12045 net.cpp:372] conv4 <- conv3
I0313 19:17:04.848280 12045 net.cpp:334] conv4 -> conv4
I0313 19:17:04.848312 12045 net.cpp:105] Setting up conv4
I0313 19:17:04.870620 12045 net.cpp:112] Top shape: 50 384 13 13 (3244800)
I0313 19:17:04.870654 12045 layer_factory.hpp:74] Creating layer relu4
I0313 19:17:04.870668 12045 net.cpp:76] Creating Layer relu4
I0313 19:17:04.870682 12045 net.cpp:372] relu4 <- conv4
I0313 19:17:04.870717 12045 net.cpp:323] relu4 -> conv4 (in-place)
I0313 19:17:04.870734 12045 net.cpp:105] Setting up relu4
I0313 19:17:04.870761 12045 net.cpp:112] Top shape: 50 384 13 13 (3244800)
I0313 19:17:04.870774 12045 layer_factory.hpp:74] Creating layer conv5
I0313 19:17:04.870791 12045 net.cpp:76] Creating Layer conv5
I0313 19:17:04.870808 12045 net.cpp:372] conv5 <- conv4
I0313 19:17:04.870829 12045 net.cpp:334] conv5 -> conv5
I0313 19:17:04.870846 12045 net.cpp:105] Setting up conv5
I0313 19:17:04.885726 12045 net.cpp:112] Top shape: 50 256 13 13 (2163200)
I0313 19:17:04.885761 12045 layer_factory.hpp:74] Creating layer relu5
I0313 19:17:04.885774 12045 net.cpp:76] Creating Layer relu5
I0313 19:17:04.885788 12045 net.cpp:372] relu5 <- conv5
I0313 19:17:04.885808 12045 net.cpp:323] relu5 -> conv5 (in-place)
I0313 19:17:04.885825 12045 net.cpp:105] Setting up relu5
I0313 19:17:04.885834 12045 net.cpp:112] Top shape: 50 256 13 13 (2163200)
I0313 19:17:04.885843 12045 layer_factory.hpp:74] Creating layer pool5
I0313 19:17:04.885856 12045 net.cpp:76] Creating Layer pool5
I0313 19:17:04.885871 12045 net.cpp:372] pool5 <- conv5
I0313 19:17:04.885882 12045 net.cpp:334] pool5 -> pool5
I0313 19:17:04.885893 12045 net.cpp:105] Setting up pool5
I0313 19:17:04.885910 12045 net.cpp:112] Top shape: 50 256 6 6 (460800)
I0313 19:17:04.885920 12045 layer_factory.hpp:74] Creating layer fc6
I0313 19:17:04.885937 12045 net.cpp:76] Creating Layer fc6
I0313 19:17:04.885952 12045 net.cpp:372] fc6 <- pool5
I0313 19:17:04.885965 12045 net.cpp:334] fc6 -> fc6
I0313 19:17:04.885979 12045 net.cpp:105] Setting up fc6
I0313 19:17:06.158078 12045 net.cpp:112] Top shape: 50 4096 1 1 (204800)
I0313 19:17:06.158184 12045 layer_factory.hpp:74] Creating layer relu6
I0313 19:17:06.164479 12045 net.cpp:76] Creating Layer relu6
I0313 19:17:06.164523 12045 net.cpp:372] relu6 <- fc6
I0313 19:17:06.164551 12045 net.cpp:323] relu6 -> fc6 (in-place)
I0313 19:17:06.164577 12045 net.cpp:105] Setting up relu6
I0313 19:17:06.164597 12045 net.cpp:112] Top shape: 50 4096 1 1 (204800)
I0313 19:17:06.164609 12045 layer_factory.hpp:74] Creating layer drop6
I0313 19:17:06.164635 12045 net.cpp:76] Creating Layer drop6
I0313 19:17:06.164654 12045 net.cpp:372] drop6 <- fc6
I0313 19:17:06.164674 12045 net.cpp:323] drop6 -> fc6 (in-place)
I0313 19:17:06.164696 12045 net.cpp:105] Setting up drop6
I0313 19:17:06.164717 12045 net.cpp:112] Top shape: 50 4096 1 1 (204800)
I0313 19:17:06.164736 12045 layer_factory.hpp:74] Creating layer fc7
I0313 19:17:06.164760 12045 net.cpp:76] Creating Layer fc7
I0313 19:17:06.164779 12045 net.cpp:372] fc7 <- fc6
I0313 19:17:06.164803 12045 net.cpp:334] fc7 -> fc7
I0313 19:17:06.164830 12045 net.cpp:105] Setting up fc7
I0313 19:17:06.735321 12045 net.cpp:112] Top shape: 50 4096 1 1 (204800)
I0313 19:17:06.735412 12045 layer_factory.hpp:74] Creating layer relu7
I0313 19:17:06.735471 12045 net.cpp:76] Creating Layer relu7
I0313 19:17:06.735492 12045 net.cpp:372] relu7 <- fc7
I0313 19:17:06.735513 12045 net.cpp:323] relu7 -> fc7 (in-place)
I0313 19:17:06.735538 12045 net.cpp:105] Setting up relu7
I0313 19:17:06.735553 12045 net.cpp:112] Top shape: 50 4096 1 1 (204800)
I0313 19:17:06.735566 12045 layer_factory.hpp:74] Creating layer drop7
I0313 19:17:06.735586 12045 net.cpp:76] Creating Layer drop7
I0313 19:17:06.735601 12045 net.cpp:372] drop7 <- fc7
I0313 19:17:06.735637 12045 net.cpp:323] drop7 -> fc7 (in-place)
I0313 19:17:06.735687 12045 net.cpp:105] Setting up drop7
I0313 19:17:06.735704 12045 net.cpp:112] Top shape: 50 4096 1 1 (204800)
I0313 19:17:06.735719 12045 layer_factory.hpp:74] Creating layer fc8-alexnet11
I0313 19:17:06.735743 12045 net.cpp:76] Creating Layer fc8-alexnet11
I0313 19:17:06.735759 12045 net.cpp:372] fc8-alexnet11 <- fc7
I0313 19:17:06.735781 12045 net.cpp:334] fc8-alexnet11 -> fc8-alexnet11
I0313 19:17:06.735812 12045 net.cpp:105] Setting up fc8-alexnet11
I0313 19:17:06.737680 12045 net.cpp:112] Top shape: 50 11 1 1 (550)
I0313 19:17:06.737718 12045 layer_factory.hpp:74] Creating layer fc8-alexnet11_fc8-alexnet11_0_split
I0313 19:17:06.737747 12045 net.cpp:76] Creating Layer fc8-alexnet11_fc8-alexnet11_0_split
I0313 19:17:06.737767 12045 net.cpp:372] fc8-alexnet11_fc8-alexnet11_0_split <- fc8-alexnet11
I0313 19:17:06.737789 12045 net.cpp:334] fc8-alexnet11_fc8-alexnet11_0_split -> fc8-alexnet11_fc8-alexnet11_0_split_0
I0313 19:17:06.737812 12045 net.cpp:334] fc8-alexnet11_fc8-alexnet11_0_split -> fc8-alexnet11_fc8-alexnet11_0_split_1
I0313 19:17:06.737833 12045 net.cpp:105] Setting up fc8-alexnet11_fc8-alexnet11_0_split
I0313 19:17:06.737854 12045 net.cpp:112] Top shape: 50 11 1 1 (550)
I0313 19:17:06.737874 12045 net.cpp:112] Top shape: 50 11 1 1 (550)
I0313 19:17:06.737891 12045 layer_factory.hpp:74] Creating layer accuracy
I0313 19:17:06.737922 12045 net.cpp:76] Creating Layer accuracy
I0313 19:17:06.737949 12045 net.cpp:372] accuracy <- fc8-alexnet11_fc8-alexnet11_0_split_0
I0313 19:17:06.737969 12045 net.cpp:372] accuracy <- label_data_1_split_0
I0313 19:17:06.737996 12045 net.cpp:334] accuracy -> accuracy
I0313 19:17:06.738028 12045 net.cpp:105] Setting up accuracy
I0313 19:17:06.738052 12045 net.cpp:112] Top shape: 1 1 1 1 (1)
I0313 19:17:06.738077 12045 layer_factory.hpp:74] Creating layer loss
I0313 19:17:06.738101 12045 net.cpp:76] Creating Layer loss
I0313 19:17:06.738118 12045 net.cpp:372] loss <- fc8-alexnet11_fc8-alexnet11_0_split_1
I0313 19:17:06.738149 12045 net.cpp:372] loss <- label_data_1_split_1
I0313 19:17:06.738173 12045 net.cpp:334] loss -> loss
I0313 19:17:06.738205 12045 net.cpp:105] Setting up loss
I0313 19:17:06.738229 12045 layer_factory.hpp:74] Creating layer loss
I0313 19:17:06.738273 12045 net.cpp:112] Top shape: 1 1 1 1 (1)
I0313 19:17:06.738303 12045 net.cpp:118]     with loss weight 1
I0313 19:17:06.738354 12045 net.cpp:163] loss needs backward computation.
I0313 19:17:06.738373 12045 net.cpp:165] accuracy does not need backward computation.
I0313 19:17:06.738389 12045 net.cpp:163] fc8-alexnet11_fc8-alexnet11_0_split needs backward computation.
I0313 19:17:06.738436 12045 net.cpp:163] fc8-alexnet11 needs backward computation.
…
