…
I0313 20:13:57.296370 15508 net.cpp:253] The NetState phase (0) differed from the phase (1) specified by a rule in layer loss3/top-5
I0313 20:13:57.297350 15508 net.cpp:42] Initializing net from parameters: 
name: "GoogleNet-11"
state {
  phase: TRAIN
}
layer {
  name: "data"
  type: "Data"
  top: "data"
  top: "label"
  include {
    phase: TRAIN
  }
  transform_param {
    mirror: true
    crop_size: 224
    mean_file: "/root/cs231n-project/data/image_means/ilsvrc12/imagenet_mean.binaryproto"
  }
  data_param {
    source: "/root/cs231n-project/data/images/train/no_augmentations/imagenet/256/train_lmdb"
    batch_size: 32
    backend: LMDB
  }
}
layer {
  name: "conv1/7x7_s2"
  type: "Convolution"
  bottom: "data"
  top: "conv1/7x7_s2"
  param {
    lr_mult: 0
    decay_mult: 0
  }
  param {
    lr_mult: 0
    decay_mult: 0
  }
  convolution_param {
    num_output: 64
    pad: 3
    kernel_size: 7
    stride: 2
    weight_filler {
      type: "xavier"
      std: 0.1
    }
    bias_filler {
      type: "constant"
      value: 0.2
    }
  }
}
layer {
  name: "conv1/relu_7x7"
  type: "ReLU"
  bottom: "conv1/7x7_s2"
  top: "conv1/7x7_s2"
}
layer {
  name: "pool1/3x3_s2"
  type: "Pooling"
  bottom: "conv1/7x7_s2"
  top: "pool1/3x3_s2"
  pooling_param {
    pool: MAX
    kernel_size: 3
    stride: 2
  }
}
layer {
  name: "pool1/norm1"
  type: "LRN"
  bottom: "pool1/3x3_s2"
  top: "pool1/norm1"
  lrn_param {
    local_size: 5
    alpha: 0.0001
    beta: 0.75
  }
}
layer {
  name: "conv2/3x3_reduce"
  type: "Convolution"
  bottom: "pool1/norm1"
  top: "conv2/3x3_reduce"
  param {
    lr_mult: 0
    decay_mult: 0
  }
  param {
    lr_mult: 0
    decay_mult: 0
  }
  convolution_param {
    num_output: 64
    kernel_size: 1
    weight_filler {
      type: "xavier"
      std: 0.1
    }
    bias_filler {
      type: "constant"
      value: 0.2
    }
  }
}
layer {
  name: "conv2/relu_3x3_reduce"
  type: "ReLU"
  bottom: "conv2/3x3_reduce"
  top: "conv2/3x3_reduce"
}
layer {
  name: "conv2/3x3"
  type: "Convolution"
  bottom: "conv2/3x3_reduce"
  top: "conv2/3x3"
  param {
    lr_mult: 0
    decay_mult: 0
  }
  param {
    lr_mult: 0
    decay_mult: 0
  }
  convolution_param {
    num_output: 192
    pad: 1
    kernel_size: 3
    weight_filler {
      type: "xavier"
      std: 0.03
    }
    bias_filler {
      type: "constant"
      value: 0.2
    }
  }
}
layer {
  name: "conv2/relu_3x3"
  type: "ReLU"
  bottom: "conv2/3x3"
  top: "conv2/3x3"
}
layer {
  name: "conv2/norm2"
  type: "LRN"
  bottom: "conv2/3x3"
  top: "conv2/norm2"
  lrn_param {
    local_size: 5
    alpha: 0.0001
    beta: 0.75
  }
}
layer {
  name: "pool2/3x3_s2"
  type: "Pooling"
  bottom: "conv2/norm2"
  top: "pool2/3x3_s2"
  pooling_param {
    pool: MAX
    kernel_size: 3
    stride: 2
  }
}
layer {
  name: "inception_3a/1x1"
  type: "Convolution"
  bottom: "pool2/3x3_s2"
  top: "inception_3a/1x1"
  param {
    lr_mult: 0
    decay_mult: 0
  }
  param {
    lr_mult: 0
    decay_mult: 0
  }
  convolution_param {
    num_output: 64
    kernel_size: 1
    weight_filler {
      type: "xavier"
      std: 0.03
    }
    bias_filler {
      type: "constant"
      value: 0.2
    }
  }
}
layer {
  name: "inception_3a/relu_1x1"
  type: "ReLU"
  bottom: "inception_3a/1x1"
  top: "inception_3a/1x1"
}
layer {
  name: "inception_3a/3x3_reduce"
  type: "Convolution"
  bottom: "pool2/3x3_s2"
  top: "inception_3a/3x3_reduce"
  param {
    lr_mult: 0
    decay_mult: 0
  }
  param {
    lr_mult: 0
    decay_mult: 0
  }
  convolution_param {
    num_output: 96
    kernel_size: 1
    weight_filler {
      type: "xavier"
      std: 0.09
    }
    bias_filler {
      type: "constant"
      value: 0.2
    }
  }
}
layer {
  name: "inception_3a/relu_3x3_reduce"
  type: "ReLU"
  bottom: "inception_3a/3x3_reduce"
  top: "inception_3a/3x3_reduce"
}
layer {
  name: "inception_3a/3x3"
  type: "Convolution"
  bottom: "inception_3a/3x3_reduce"
  top: "inception_3a/3x3"
  param {
    lr_mult: 0
    decay_mult: 0
  }
  param {
    lr_mult: 0
    decay_mult: 0
  }
  convolution_param {
    num_output: 128
    pad: 1
    kernel_size: 3
    weight_filler {
      type: "xavier"
      std: 0.03
    }
    bias_filler {
      type: "constant"
      value: 0.2
    }
  }
}
layer {
  name: "inception_3a/relu_3x3"
  type: "ReLU"
  bottom: "inception_3a/3x3"
  top: "inception_3a/3x3"
}
layer {
  name: "inception_3a/5x5_reduce"
  type: "Convolution"
  bottom: "pool2/3x3_s2"
  top: "inception_3a/5x5_reduce"
  param {
    lr_mult: 0
    decay_mult: 0
  }
  param {
    lr_mult: 0
    decay_mult: 0
  }
  convolution_param {
    num_output: 16
    kernel_size: 1
    weight_filler {
      type: "xavier"
      std: 0.2
    }
    bias_filler {
      type: "constant"
      value: 0.2
    }
  }
}
layer {
  name: "inception_3a/relu_5x5_reduce"
  type: "ReLU"
  bottom: "inception_3a/5x5_reduce"
  top: "inception_3a/5x5_reduce"
}
layer {
  name: "inception_3a/5x5"
  type: "Convolution"
  bottom: "inception_3a/5x5_reduce"
  top: "inception_3a/5x5"
  param {
    lr_mult: 0
    decay_mult: 0
  }
  param {
    lr_mult: 0
    decay_mult: 0
  }
  convolution_param {
    num_output: 32
    pad: 2
    kernel_size: 5
    weight_filler {
      type: "xavier"
      std: 0.03
    }
    bias_filler {
      type: "constant"
      value: 0.2
    }
  }
}
layer {
  name: "inception_3a/relu_5x5"
  type: "ReLU"
  bottom: "inception_3a/5x5"
  top: "inception_3a/5x5"
}
layer {
  name: "inception_3a/pool"
  type: "Pooling"
  bottom: "pool2/3x3_s2"
  top: "inception_3a/pool"
  pooling_param {
    pool: MAX
    kernel_size: 3
    stride: 1
    pad: 1
  }
}
layer {
  name: "inception_3a/pool_proj"
  type: "Convolution"
  bottom: "inception_3a/pool"
  top: "inception_3a/pool_proj"
  param {
    lr_mult: 0
    decay_mult: 0
  }
  param {
    lr_mult: 0
    decay_mult: 0
  }
  convolution_param {
    num_output: 32
    kernel_size: 1
    weight_filler {
      type: "xavier"
      std: 0.1
    }
    bias_filler {
      type: "constant"
      value: 0.2
    }
  }
}
layer {
  name: "inception_3a/relu_pool_proj"
  type: "ReLU"
  bottom: "inception_3a/pool_proj"
  top: "inception_3a/pool_proj"
}
layer {
  name: "inception_3a/output"
  type: "Concat"
  bottom: "inception_3a/1x1"
  bottom: "inception_3a/3x3"
  bottom: "inception_3a/5x5"
  bottom: "inception_3a/pool_proj"
  top: "inception_3a/output"
}
layer {
  name: "inception_3b/1x1"
  type: "Convolution"
  bottom: "inception_3a/output"
  top: "inception_3b/1x1"
  param {
    lr_mult: 0
    decay_mult: 0
  }
  param {
    lr_mult: 0
    decay_mult: 0
  }
  convolution_param {
    num_output: 128
    kernel_size: 1
    weight_filler {
      type: "xavier"
      std: 0.03
    }
    bias_filler {
      type: "constant"
      value: 0.2
    }
  }
}
layer {
  name: "inception_3b/relu_1x1"
  type: "ReLU"
  bottom: "inception_3b/1x1"
  top: "inception_3b/1x1"
}
layer {
  name: "inception_3b/3x3_reduce"
  type: "Convolution"
  bottom: "inception_3a/output"
  top: "inception_3b/3x3_reduce"
  param {
    lr_mult: 0
    decay_mult: 0
  }
  param {
    lr_mult: 0
    decay_mult: 0
  }
  convolution_param {
    num_output: 128
    kernel_size: 1
    weight_filler {
      type: "xavier"
      std: 0.09
    }
    bias_filler {
      type: "constant"
      value: 0.2
    }
  }
}
layer {
  name: "inception_3b/relu_3x3_reduce"
  type: "ReLU"
  bottom: "inception_3b/3x3_reduce"
  top: "inception_3b/3x3_reduce"
}
layer {
  name: "inception_3b/3x3"
  type: "Convolution"
  bottom: "inception_3b/3x3_reduce"
  top: "inception_3b/3x3"
  param {
    lr_mult: 0
    decay_mult: 0
  }
  param {
    lr_mult: 0
    decay_mult: 0
  }
  convolution_param {
    num_output: 192
    pad: 1
    kernel_size: 3
    weight_filler {
      type: "xavier"
      std: 0.03
    }
    bias_filler {
      type: "constant"
      value: 0.2
    }
  }
}
layer {
  name: "inception_3b/relu_3x3"
  type: "ReLU"
  bottom: "inception_3b/3x3"
  top: "inception_3b/3x3"
}
layer {
  name: "inception_3b/5x5_reduce"
  type: "Convolution"
  bottom: "inception_3a/output"
  top: "inception_3b/5x5_reduce"
  param {
    lr_mult: 0
    decay_mult: 0
  }
  param {
    lr_mult: 0
    decay_mult: 0
  }
  convolution_param {
    num_output: 32
    kernel_size: 1
    weight_filler {
      type: "xavier"
      std: 0.2
    }
    bias_filler {
      type: "constant"
      value: 0.2
    }
  }
}
layer {
  name: "inception_3b/relu_5x5_reduce"
  type: "ReLU"
  bottom: "inception_3b/5x5_reduce"
  top: "inception_3b/5x5_reduce"
}
layer {
  name: "inception_3b/5x5"
  type: "Convolution"
  bottom: "inception_3b/5x5_reduce"
  top: "inception_3b/5x5"
  param {
    lr_mult: 0
    decay_mult: 0
  }
  param {
    lr_mult: 0
    decay_mult: 0
  }
  convolution_param {
    num_output: 96
    pad: 2
    kernel_size: 5
    weight_filler {
      type: "xavier"
      std: 0.03
    }
    bias_filler {
      type: "constant"
      value: 0.2
    }
  }
}
layer {
  name: "inception_3b/relu_5x5"
  type: "ReLU"
  bottom: "inception_3b/5x5"
  top: "inception_3b/5x5"
}
layer {
  name: "inception_3b/pool"
  type: "Pooling"
  bottom: "inception_3a/output"
  top: "inception_3b/pool"
  pooling_param {
    pool: MAX
    kernel_size: 3
    stride: 1
    pad: 1
  }
}
layer {
  name: "inception_3b/pool_proj"
  type: "Convolution"
  bottom: "inception_3b/pool"
  top: "inception_3b/pool_proj"
  param {
    lr_mult: 0
    decay_mult: 0
  }
  param {
    lr_mult: 0
    decay_mult: 0
  }
  convolution_param {
    num_output: 64
    kernel_size: 1
    weight_filler {
      type: "xavier"
      std: 0.1
    }
    bias_filler {
      type: "constant"
      value: 0.2
    }
  }
}
layer {
  name: "inception_3b/relu_pool_proj"
  type: "ReLU"
  bottom: "inception_3b/pool_proj"
  top: "inception_3b/pool_proj"
}
layer {
  name: "inception_3b/output"
  type: "Concat"
  bottom: "inception_3b/1x1"
  bottom: "inception_3b/3x3"
  bottom: "inception_3b/5x5"
  bottom: "inception_3b/pool_proj"
  top: "inception_3b/output"
}
layer {
  name: "pool3/3x3_s2"
  type: "Pooling"
  bottom: "inception_3b/output"
  top: "pool3/3x3_s2"
  pooling_param {
    pool: MAX
    kernel_size: 3
    stride: 2
  }
}
layer {
  name: "inception_4a/1x1"
  type: "Convolution"
  bottom: "pool3/3x3_s2"
  top: "inception_4a/1x1"
  param {
    lr_mult: 0
    decay_mult: 0
  }
  param {
    lr_mult: 0
    decay_mult: 0
  }
  convolution_param {
    num_output: 192
    kernel_size: 1
    weight_filler {
      type: "xavier"
      std: 0.03
    }
    bias_filler {
      type: "constant"
      value: 0.2
    }
  }
}
layer {
  name: "inception_4a/relu_1x1"
  type: "ReLU"
  bottom: "inception_4a/1x1"
  top: "inception_4a/1x1"
}
layer {
  name: "inception_4a/3x3_reduce"
  type: "Convolution"
  bottom: "pool3/3x3_s2"
  top: "inception_4a/3x3_reduce"
  param {
    lr_mult: 0
    decay_mult: 0
  }
  param {
    lr_mult: 0
    decay_mult: 0
  }
  convolution_param {
    num_output: 96
    kernel_size: 1
    weight_filler {
      type: "xavier"
      std: 0.09
    }
    bias_filler {
      type: "constant"
      value: 0.2
    }
  }
}
layer {
  name: "inception_4a/relu_3x3_reduce"
  type: "ReLU"
  bottom: "inception_4a/3x3_reduce"
  top: "inception_4a/3x3_reduce"
}
layer {
  name: "inception_4a/3x3"
  type: "Convolution"
  bottom: "inception_4a/3x3_reduce"
  top: "inception_4a/3x3"
  param {
    lr_mult: 0
    decay_mult: 0
  }
  param {
    lr_mult: 0
    decay_mult: 0
  }
  convolution_param {
    num_output: 208
    pad: 1
    kernel_size: 3
    weight_filler {
      type: "xavier"
      std: 0.03
    }
    bias_filler {
      type: "constant"
      value: 0.2
    }
  }
}
layer {
  name: "inception_4a/relu_3x3"
  type: "ReLU"
  bottom: "inception_4a/3x3"
  top: "inception_4a/3x3"
}
layer {
  name: "inception_4a/5x5_reduce"
  type: "Convolution"
  bottom: "pool3/3x3_s2"
  top: "inception_4a/5x5_reduce"
  param {
    lr_mult: 0
    decay_mult: 0
  }
  param {
    lr_mult: 0
    decay_mult: 0
  }
  convolution_param {
    num_output: 16
    kernel_size: 1
    weight_filler {
      type: "xavier"
      std: 0.2
    }
    bias_filler {
      type: "constant"
      value: 0.2
    }
  }
}
layer {
  name: "inception_4a/relu_5x5_reduce"
  type: "ReLU"
  bottom: "inception_4a/5x5_reduce"
  top: "inception_4a/5x5_reduce"
}
layer {
  name: "inception_4a/5x5"
  type: "Convolution"
  bottom: "inception_4a/5x5_reduce"
  top: "inception_4a/5x5"
  param {
    lr_mult: 0
    decay_mult: 0
  }
  param {
    lr_mult: 0
    decay_mult: 0
  }
  convolution_param {
    num_output: 48
    pad: 2
    kernel_size: 5
    weight_filler {
      type: "xavier"
      std: 0.03
    }
    bias_filler {
      type: "constant"
      value: 0.2
    }
  }
}
layer {
  name: "inception_4a/relu_5x5"
  type: "ReLU"
  bottom: "inception_4a/5x5"
  top: "inception_4a/5x5"
}
layer {
  name: "inception_4a/pool"
  type: "Pooling"
  bottom: "pool3/3x3_s2"
  top: "inception_4a/pool"
  pooling_param {
    pool: MAX
    kernel_size: 3
    stride: 1
    pad: 1
  }
}
layer {
  name: "inception_4a/pool_proj"
  type: "Convolution"
  bottom: "inception_4a/pool"
  top: "inception_4a/pool_proj"
  param {
    lr_mult: 0
    decay_mult: 0
  }
  param {
    lr_mult: 0
    decay_mult: 0
  }
  convolution_param {
    num_output: 64
    kernel_size: 1
    weight_filler {
      type: "xavier"
      std: 0.1
    }
    bias_filler {
      type: "constant"
      value: 0.2
    }
  }
}
layer {
  name: "inception_4a/relu_pool_proj"
  type: "ReLU"
  bottom: "inception_4a/pool_proj"
  top: "inception_4a/pool_proj"
}
layer {
  name: "inception_4a/output"
  type: "Concat"
  bottom: "inception_4a/1x1"
  bottom: "inception_4a/3x3"
  bottom: "inception_4a/5x5"
  bottom: "inception_4a/pool_proj"
  top: "inception_4a/output"
}
layer {
  name: "loss1/ave_pool"
  type: "Pooling"
  bottom: "inception_4a/output"
  top: "loss1/ave_pool"
  pooling_param {
    pool: AVE
    kernel_size: 5
    stride: 3
  }
}
layer {
  name: "loss1/conv"
  type: "Convolution"
  bottom: "loss1/ave_pool"
  top: "loss1/conv"
  param {
    lr_mult: 0
    decay_mult: 0
  }
  param {
    lr_mult: 0
    decay_mult: 0
  }
  convolution_param {
    num_output: 128
    kernel_size: 1
    weight_filler {
      type: "xavier"
      std: 0.08
    }
    bias_filler {
      type: "constant"
      value: 0.2
    }
  }
}
layer {
  name: "loss1/relu_conv"
  type: "ReLU"
  bottom: "loss1/conv"
  top: "loss1/conv"
}
layer {
  name: "loss1/fc"
  type: "InnerProduct"
  bottom: "loss1/conv"
  top: "loss1/fc"
  param {
    lr_mult: 0
    decay_mult: 0
  }
  param {
    lr_mult: 0
    decay_mult: 0
  }
  inner_product_param {
    num_output: 1024
    weight_filler {
      type: "xavier"
      std: 0.02
    }
    bias_filler {
      type: "constant"
      value: 0.2
    }
  }
}
layer {
  name: "loss1/relu_fc"
  type: "ReLU"
  bottom: "loss1/fc"
  top: "loss1/fc"
}
layer {
  name: "loss1/drop_fc"
  type: "Dropout"
  bottom: "loss1/fc"
  top: "loss1/fc"
  dropout_param {
    dropout_ratio: 0.7
  }
}
layer {
  name: "loss1/classifier"
  type: "InnerProduct"
  bottom: "loss1/fc"
  top: "loss1/classifier"
  param {
    lr_mult: 0
    decay_mult: 0
  }
  param {
    lr_mult: 0
    decay_mult: 0
  }
  inner_product_param {
    num_output: 1000
    weight_filler {
      type: "xavier"
      std: 0.0009765625
    }
    bias_filler {
      type: "constant"
      value: 0
    }
  }
}
layer {
  name: "loss1/loss"
  type: "SoftmaxWithLoss"
  bottom: "loss1/classifier"
  bottom: "label"
  top: "loss1/loss1"
  loss_weight: 0.3
}
layer {
  name: "inception_4b/1x1"
  type: "Convolution"
  bottom: "inception_4a/output"
  top: "inception_4b/1x1"
  param {
    lr_mult: 0
    decay_mult: 0
  }
  param {
    lr_mult: 0
    decay_mult: 0
  }
  convolution_param {
    num_output: 160
    kernel_size: 1
    weight_filler {
      type: "xavier"
      std: 0.03
    }
    bias_filler {
      type: "constant"
      value: 0.2
    }
  }
}
layer {
  name: "inception_4b/relu_1x1"
  type: "ReLU"
  bottom: "inception_4b/1x1"
  top: "inception_4b/1x1"
}
layer {
  name: "inception_4b/3x3_reduce"
  type: "Convolution"
  bottom: "inception_4a/output"
  top: "inception_4b/3x3_reduce"
  param {
    lr_mult: 0
    decay_mult: 0
  }
  param {
    lr_mult: 0
    decay_mult: 0
  }
  convolution_param {
    num_output: 112
    kernel_size: 1
    weight_filler {
      type: "xavier"
      std: 0.09
    }
    bias_filler {
      type: "constant"
      value: 0.2
    }
  }
}
layer {
  name: "inception_4b/relu_3x3_reduce"
  type: "ReLU"
  bottom: "inception_4b/3x3_reduce"
  top: "inception_4b/3x3_reduce"
}
layer {
  name: "inception_4b/3x3"
  type: "Convolution"
  bottom: "inception_4b/3x3_reduce"
  top: "inception_4b/3x3"
  param {
    lr_mult: 0
    decay_mult: 0
  }
  param {
    lr_mult: 0
    decay_mult: 0
  }
  convolution_param {
    num_output: 224
    pad: 1
    kernel_size: 3
    weight_filler {
      type: "xavier"
      std: 0.03
    }
    bias_filler {
      type: "constant"
      value: 0.2
    }
  }
}
layer {
  name: "inception_4b/relu_3x3"
  type: "ReLU"
  bottom: "inception_4b/3x3"
  top: "inception_4b/3x3"
}
layer {
  name: "inception_4b/5x5_reduce"
  type: "Convolution"
  bottom: "inception_4a/output"
  top: "inception_4b/5x5_reduce"
  param {
    lr_mult: 0
    decay_mult: 0
  }
  param {
    lr_mult: 0
    decay_mult: 0
  }
  convolution_param {
    num_output: 24
    kernel_size: 1
    weight_filler {
      type: "xavier"
      std: 0.2
    }
    bias_filler {
      type: "constant"
      value: 0.2
    }
  }
}
layer {
  name: "inception_4b/relu_5x5_reduce"
  type: "ReLU"
  bottom: "inception_4b/5x5_reduce"
  top: "inception_4b/5x5_reduce"
}
layer {
  name: "inception_4b/5x5"
  type: "Convolution"
  bottom: "inception_4b/5x5_reduce"
  top: "inception_4b/5x5"
  param {
    lr_mult: 0
    decay_mult: 0
  }
  param {
    lr_mult: 0
    decay_mult: 0
  }
  convolution_param {
    num_output: 64
    pad: 2
    kernel_size: 5
    weight_filler {
      type: "xavier"
      std: 0.03
    }
    bias_filler {
      type: "constant"
      value: 0.2
    }
  }
}
layer {
  name: "inception_4b/relu_5x5"
  type: "ReLU"
  bottom: "inception_4b/5x5"
  top: "inception_4b/5x5"
}
layer {
  name: "inception_4b/pool"
  type: "Pooling"
  bottom: "inception_4a/output"
  top: "inception_4b/pool"
  pooling_param {
    pool: MAX
    kernel_size: 3
    stride: 1
    pad: 1
  }
}
layer {
  name: "inception_4b/pool_proj"
  type: "Convolution"
  bottom: "inception_4b/pool"
  top: "inception_4b/pool_proj"
  param {
    lr_mult: 0
    decay_mult: 0
  }
  param {
    lr_mult: 0
    decay_mult: 0
  }
  convolution_param {
    num_output: 64
    kernel_size: 1
    weight_filler {
      type: "xavier"
      std: 0.1
    }
    bias_filler {
      type: "constant"
      value: 0.2
    }
  }
}
layer {
  name: "inception_4b/relu_pool_proj"
  type: "ReLU"
  bottom: "inception_4b/pool_proj"
  top: "inception_4b/pool_proj"
}
layer {
  name: "inception_4b/output"
  type: "Concat"
  bottom: "inception_4b/1x1"
  bottom: "inception_4b/3x3"
  bottom: "inception_4b/5x5"
  bottom: "inception_4b/pool_proj"
  top: "inception_4b/output"
}
layer {
  name: "inception_4c/1x1"
  type: "Convolution"
  bottom: "inception_4b/output"
  top: "inception_4c/1x1"
  param {
    lr_mult: 0
    decay_mult: 0
  }
  param {
    lr_mult: 0
    decay_mult: 0
  }
  convolution_param {
    num_output: 128
    kernel_size: 1
    weight_filler {
      type: "xavier"
      std: 0.03
    }
    bias_filler {
      type: "constant"
      value: 0.2
    }
  }
}
layer {
  name: "inception_4c/relu_1x1"
  type: "ReLU"
  bottom: "inception_4c/1x1"
  top: "inception_4c/1x1"
}
layer {
  name: "inception_4c/3x3_reduce"
  type: "Convolution"
  bottom: "inception_4b/output"
  top: "inception_4c/3x3_reduce"
  param {
    lr_mult: 0
    decay_mult: 0
  }
  param {
    lr_mult: 0
    decay_mult: 0
  }
  convolution_param {
    num_output: 128
    kernel_size: 1
    weight_filler {
      type: "xavier"
      std: 0.09
    }
    bias_filler {
      type: "constant"
      value: 0.2
    }
  }
}
layer {
  name: "inception_4c/relu_3x3_reduce"
  type: "ReLU"
  bottom: "inception_4c/3x3_reduce"
  top: "inception_4c/3x3_reduce"
}
layer {
  name: "inception_4c/3x3"
  type: "Convolution"
  bottom: "inception_4c/3x3_reduce"
  top: "inception_4c/3x3"
  param {
    lr_mult: 0
    decay_mult: 0
  }
  param {
    lr_mult: 0
    decay_mult: 0
  }
  convolution_param {
    num_output: 256
    pad: 1
    kernel_size: 3
    weight_filler {
      type: "xavier"
      std: 0.03
    }
    bias_filler {
      type: "constant"
      value: 0.2
    }
  }
}
layer {
  name: "inception_4c/relu_3x3"
  type: "ReLU"
  bottom: "inception_4c/3x3"
  top: "inception_4c/3x3"
}
layer {
  name: "inception_4c/5x5_reduce"
  type: "Convolution"
  bottom: "inception_4b/output"
  top: "inception_4c/5x5_reduce"
  param {
    lr_mult: 0
    decay_mult: 0
  }
  param {
    lr_mult: 0
    decay_mult: 0
  }
  convolution_param {
    num_output: 24
    kernel_size: 1
    weight_filler {
      type: "xavier"
      std: 0.2
    }
    bias_filler {
      type: "constant"
      value: 0.2
    }
  }
}
layer {
  name: "inception_4c/relu_5x5_reduce"
  type: "ReLU"
  bottom: "inception_4c/5x5_reduce"
  top: "inception_4c/5x5_reduce"
}
layer {
  name: "inception_4c/5x5"
  type: "Convolution"
  bottom: "inception_4c/5x5_reduce"
  top: "inception_4c/5x5"
  param {
    lr_mult: 0
    decay_mult: 0
  }
  param {
    lr_mult: 0
    decay_mult: 0
  }
  convolution_param {
    num_output: 64
    pad: 2
    kernel_size: 5
    weight_filler {
      type: "xavier"
      std: 0.03
    }
    bias_filler {
      type: "constant"
      value: 0.2
    }
  }
}
layer {
  name: "inception_4c/relu_5x5"
  type: "ReLU"
  bottom: "inception_4c/5x5"
  top: "inception_4c/5x5"
}
layer {
  name: "inception_4c/pool"
  type: "Pooling"
  bottom: "inception_4b/output"
  top: "inception_4c/pool"
  pooling_param {
    pool: MAX
    kernel_size: 3
    stride: 1
    pad: 1
  }
}
layer {
  name: "inception_4c/pool_proj"
  type: "Convolution"
  bottom: "inception_4c/pool"
  top: "inception_4c/pool_proj"
  param {
    lr_mult: 0
    decay_mult: 0
  }
  param {
    lr_mult: 0
    decay_mult: 0
  }
  convolution_param {
    num_output: 64
    kernel_size: 1
    weight_filler {
      type: "xavier"
      std: 0.1
    }
    bias_filler {
      type: "constant"
      value: 0.2
    }
  }
}
layer {
  name: "inception_4c/relu_pool_proj"
  type: "ReLU"
  bottom: "inception_4c/pool_proj"
  top: "inception_4c/pool_proj"
}
layer {
  name: "inception_4c/output"
  type: "Concat"
  bottom: "inception_4c/1x1"
  bottom: "inception_4c/3x3"
  bottom: "inception_4c/5x5"
  bottom: "inception_4c/pool_proj"
  top: "inception_4c/output"
}
layer {
  name: "inception_4d/1x1"
  type: "Convolution"
  bottom: "inception_4c/output"
  top: "inception_4d/1x1"
  param {
    lr_mult: 0
    decay_mult: 0
  }
  param {
    lr_mult: 0
    decay_mult: 0
  }
  convolution_param {
    num_output: 112
    kernel_size: 1
    weight_filler {
      type: "xavier"
      std: 0.03
    }
    bias_filler {
      type: "constant"
      value: 0.2
    }
  }
}
layer {
  name: "inception_4d/relu_1x1"
  type: "ReLU"
  bottom: "inception_4d/1x1"
  top: "inception_4d/1x1"
}
layer {
  name: "inception_4d/3x3_reduce"
  type: "Convolution"
  bottom: "inception_4c/output"
  top: "inception_4d/3x3_reduce"
  param {
    lr_mult: 0
    decay_mult: 0
  }
  param {
    lr_mult: 0
    decay_mult: 0
  }
  convolution_param {
    num_output: 144
    kernel_size: 1
    weight_filler {
      type: "xavier"
      std: 0.09
    }
    bias_filler {
      type: "constant"
      value: 0.2
    }
  }
}
layer {
  name: "inception_4d/relu_3x3_reduce"
  type: "ReLU"
  bottom: "inception_4d/3x3_reduce"
  top: "inception_4d/3x3_reduce"
}
layer {
  name: "inception_4d/3x3"
  type: "Convolution"
  bottom: "inception_4d/3x3_reduce"
  top: "inception_4d/3x3"
  param {
    lr_mult: 0
    decay_mult: 0
  }
  param {
    lr_mult: 0
    decay_mult: 0
  }
  convolution_param {
    num_output: 288
    pad: 1
    kernel_size: 3
    weight_filler {
      type: "xavier"
      std: 0.03
    }
    bias_filler {
      type: "constant"
      value: 0.2
    }
  }
}
layer {
  name: "inception_4d/relu_3x3"
  type: "ReLU"
  bottom: "inception_4d/3x3"
  top: "inception_4d/3x3"
}
layer {
  name: "inception_4d/5x5_reduce"
  type: "Convolution"
  bottom: "inception_4c/output"
  top: "inception_4d/5x5_reduce"
  param {
    lr_mult: 0
    decay_mult: 0
  }
  param {
    lr_mult: 0
    decay_mult: 0
  }
  convolution_param {
    num_output: 32
    kernel_size: 1
    weight_filler {
      type: "xavier"
      std: 0.2
    }
    bias_filler {
      type: "constant"
      value: 0.2
    }
  }
}
layer {
  name: "inception_4d/relu_5x5_reduce"
  type: "ReLU"
  bottom: "inception_4d/5x5_reduce"
  top: "inception_4d/5x5_reduce"
}
layer {
  name: "inception_4d/5x5"
  type: "Convolution"
  bottom: "inception_4d/5x5_reduce"
  top: "inception_4d/5x5"
  param {
    lr_mult: 0
    decay_mult: 0
  }
  param {
    lr_mult: 0
    decay_mult: 0
  }
  convolution_param {
    num_output: 64
    pad: 2
    kernel_size: 5
    weight_filler {
      type: "xavier"
      std: 0.03
    }
    bias_filler {
      type: "constant"
      value: 0.2
    }
  }
}
layer {
  name: "inception_4d/relu_5x5"
  type: "ReLU"
  bottom: "inception_4d/5x5"
  top: "inception_4d/5x5"
}
layer {
  name: "inception_4d/pool"
  type: "Pooling"
  bottom: "inception_4c/output"
  top: "inception_4d/pool"
  pooling_param {
    pool: MAX
    kernel_size: 3
    stride: 1
    pad: 1
  }
}
layer {
  name: "inception_4d/pool_proj"
  type: "Convolution"
  bottom: "inception_4d/pool"
  top: "inception_4d/pool_proj"
  param {
    lr_mult: 0
    decay_mult: 0
  }
  param {
    lr_mult: 0
    decay_mult: 0
  }
  convolution_param {
    num_output: 64
    kernel_size: 1
    weight_filler {
      type: "xavier"
      std: 0.1
    }
    bias_filler {
      type: "constant"
      value: 0.2
    }
  }
}
layer {
  name: "inception_4d/relu_pool_proj"
  type: "ReLU"
  bottom: "inception_4d/pool_proj"
  top: "inception_4d/pool_proj"
}
layer {
  name: "inception_4d/output"
  type: "Concat"
  bottom: "inception_4d/1x1"
  bottom: "inception_4d/3x3"
  bottom: "inception_4d/5x5"
  bottom: "inception_4d/pool_proj"
  top: "inception_4d/output"
}
layer {
  name: "loss2/ave_pool"
  type: "Pooling"
  bottom: "inception_4d/output"
  top: "loss2/ave_pool"
  pooling_param {
    pool: AVE
    kernel_size: 5
    stride: 3
  }
}
layer {
  name: "loss2/conv"
  type: "Convolution"
  bottom: "loss2/ave_pool"
  top: "loss2/conv"
  param {
    lr_mult: 0
    decay_mult: 0
  }
  param {
    lr_mult: 0
    decay_mult: 0
  }
  convolution_param {
    num_output: 128
    kernel_size: 1
    weight_filler {
      type: "xavier"
      std: 0.08
    }
    bias_filler {
      type: "constant"
      value: 0.2
    }
  }
}
layer {
  name: "loss2/relu_conv"
  type: "ReLU"
  bottom: "loss2/conv"
  top: "loss2/conv"
}
layer {
  name: "loss2/fc"
  type: "InnerProduct"
  bottom: "loss2/conv"
  top: "loss2/fc"
  param {
    lr_mult: 0
    decay_mult: 0
  }
  param {
    lr_mult: 0
    decay_mult: 0
  }
  inner_product_param {
    num_output: 1024
    weight_filler {
      type: "xavier"
      std: 0.02
    }
    bias_filler {
      type: "constant"
      value: 0.2
    }
  }
}
layer {
  name: "loss2/relu_fc"
  type: "ReLU"
  bottom: "loss2/fc"
  top: "loss2/fc"
}
layer {
  name: "loss2/drop_fc"
  type: "Dropout"
  bottom: "loss2/fc"
  top: "loss2/fc"
  dropout_param {
    dropout_ratio: 0.7
  }
}
layer {
  name: "loss2/classifier"
  type: "InnerProduct"
  bottom: "loss2/fc"
  top: "loss2/classifier"
  param {
    lr_mult: 0
    decay_mult: 0
  }
  param {
    lr_mult: 0
    decay_mult: 0
  }
  inner_product_param {
    num_output: 1000
    weight_filler {
      type: "xavier"
      std: 0.0009765625
    }
    bias_filler {
      type: "constant"
      value: 0
    }
  }
}
layer {
  name: "loss2/loss"
  type: "SoftmaxWithLoss"
  bottom: "loss2/classifier"
  bottom: "label"
  top: "loss2/loss1"
  loss_weight: 0.3
}
layer {
  name: "inception_4e/1x1"
  type: "Convolution"
  bottom: "inception_4d/output"
  top: "inception_4e/1x1"
  param {
    lr_mult: 0
    decay_mult: 0
  }
  param {
    lr_mult: 0
    decay_mult: 0
  }
  convolution_param {
    num_output: 256
    kernel_size: 1
    weight_filler {
      type: "xavier"
      std: 0.03
    }
    bias_filler {
      type: "constant"
      value: 0.2
    }
  }
}
layer {
  name: "inception_4e/relu_1x1"
  type: "ReLU"
  bottom: "inception_4e/1x1"
  top: "inception_4e/1x1"
}
layer {
  name: "inception_4e/3x3_reduce"
  type: "Convolution"
  bottom: "inception_4d/output"
  top: "inception_4e/3x3_reduce"
  param {
    lr_mult: 0
    decay_mult: 0
  }
  param {
    lr_mult: 0
    decay_mult: 0
  }
  convolution_param {
    num_output: 160
    kernel_size: 1
    weight_filler {
      type: "xavier"
      std: 0.09
    }
    bias_filler {
      type: "constant"
      value: 0.2
    }
  }
}
layer {
  name: "inception_4e/relu_3x3_reduce"
  type: "ReLU"
  bottom: "inception_4e/3x3_reduce"
  top: "inception_4e/3x3_reduce"
}
layer {
  name: "inception_4e/3x3"
  type: "Convolution"
  bottom: "inception_4e/3x3_reduce"
  top: "inception_4e/3x3"
  param {
    lr_mult: 0
    decay_mult: 0
  }
  param {
    lr_mult: 0
    decay_mult: 0
  }
  convolution_param {
    num_output: 320
    pad: 1
    kernel_size: 3
    weight_filler {
      type: "xavier"
      std: 0.03
    }
    bias_filler {
      type: "constant"
      value: 0.2
    }
  }
}
layer {
  name: "inception_4e/relu_3x3"
  type: "ReLU"
  bottom: "inception_4e/3x3"
  top: "inception_4e/3x3"
}
layer {
  name: "inception_4e/5x5_reduce"
  type: "Convolution"
  bottom: "inception_4d/output"
  top: "inception_4e/5x5_reduce"
  param {
    lr_mult: 0
    decay_mult: 0
  }
  param {
    lr_mult: 0
    decay_mult: 0
  }
  convolution_param {
    num_output: 32
    kernel_size: 1
    weight_filler {
      type: "xavier"
      std: 0.2
    }
    bias_filler {
      type: "cons
I0313 20:13:57.298177 15508 layer_factory.hpp:74] Creating layer data
I0313 20:13:57.298231 15508 net.cpp:76] Creating Layer data
I0313 20:13:57.298271 15508 net.cpp:334] data -> data
I0313 20:13:57.298332 15508 net.cpp:334] data -> label
I0313 20:13:57.298377 15508 net.cpp:105] Setting up data
I0313 20:13:57.298548 15508 db.cpp:34] Opened lmdb /root/cs231n-project/data/images/train/no_augmentations/imagenet/256/train_lmdb
I0313 20:13:57.298898 15508 data_layer.cpp:67] output data size: 32,3,224,224
I0313 20:13:57.298935 15508 data_transformer.cpp:22] Loading mean file from: /root/cs231n-project/data/image_means/ilsvrc12/imagenet_mean.binaryproto
I0313 20:13:57.310379 15508 net.cpp:112] Top shape: 32 3 224 224 (4816896)
I0313 20:13:57.310461 15508 net.cpp:112] Top shape: 32 1 1 1 (32)
I0313 20:13:57.310497 15508 layer_factory.hpp:74] Creating layer label_data_1_split
I0313 20:13:57.310534 15508 net.cpp:76] Creating Layer label_data_1_split
I0313 20:13:57.310556 15508 net.cpp:372] label_data_1_split <- label
I0313 20:13:57.310590 15508 net.cpp:334] label_data_1_split -> label_data_1_split_0
I0313 20:13:57.310631 15508 net.cpp:334] label_data_1_split -> label_data_1_split_1
I0313 20:13:57.310689 15508 net.cpp:334] label_data_1_split -> label_data_1_split_2
I0313 20:13:57.310714 15508 net.cpp:105] Setting up label_data_1_split
I0313 20:13:57.310747 15508 net.cpp:112] Top shape: 32 1 1 1 (32)
I0313 20:13:57.310770 15508 net.cpp:112] Top shape: 32 1 1 1 (32)
I0313 20:13:57.310786 15508 net.cpp:112] Top shape: 32 1 1 1 (32)
I0313 20:13:57.310803 15508 layer_factory.hpp:74] Creating layer conv1/7x7_s2
I0313 20:13:57.310853 15508 net.cpp:76] Creating Layer conv1/7x7_s2
I0313 20:13:57.310879 15508 net.cpp:372] conv1/7x7_s2 <- data
I0313 20:13:57.310902 15508 net.cpp:334] conv1/7x7_s2 -> conv1/7x7_s2
I0313 20:13:57.310935 15508 net.cpp:105] Setting up conv1/7x7_s2
I0313 20:13:57.311094 15508 net.cpp:112] Top shape: 32 64 112 112 (25690112)
I0313 20:13:57.311139 15508 layer_factory.hpp:74] Creating layer conv1/relu_7x7
I0313 20:13:57.311172 15508 net.cpp:76] Creating Layer conv1/relu_7x7
I0313 20:13:57.311192 15508 net.cpp:372] conv1/relu_7x7 <- conv1/7x7_s2
I0313 20:13:57.311214 15508 net.cpp:323] conv1/relu_7x7 -> conv1/7x7_s2 (in-place)
I0313 20:13:57.311251 15508 net.cpp:105] Setting up conv1/relu_7x7
I0313 20:13:57.311339 15508 net.cpp:112] Top shape: 32 64 112 112 (25690112)
I0313 20:13:57.311369 15508 layer_factory.hpp:74] Creating layer pool1/3x3_s2
I0313 20:13:57.311421 15508 net.cpp:76] Creating Layer pool1/3x3_s2
I0313 20:13:57.311445 15508 net.cpp:372] pool1/3x3_s2 <- conv1/7x7_s2
I0313 20:13:57.311477 15508 net.cpp:334] pool1/3x3_s2 -> pool1/3x3_s2
I0313 20:13:57.311517 15508 net.cpp:105] Setting up pool1/3x3_s2
I0313 20:13:57.311586 15508 net.cpp:112] Top shape: 32 64 56 56 (6422528)
I0313 20:13:57.311611 15508 layer_factory.hpp:74] Creating layer pool1/norm1
I0313 20:13:57.311645 15508 net.cpp:76] Creating Layer pool1/norm1
I0313 20:13:57.311664 15508 net.cpp:372] pool1/norm1 <- pool1/3x3_s2
I0313 20:13:57.311683 15508 net.cpp:334] pool1/norm1 -> pool1/norm1
I0313 20:13:57.311717 15508 net.cpp:105] Setting up pool1/norm1
I0313 20:13:57.311784 15508 net.cpp:112] Top shape: 32 64 56 56 (6422528)
I0313 20:13:57.311808 15508 layer_factory.hpp:74] Creating layer conv2/3x3_reduce
I0313 20:13:57.311832 15508 net.cpp:76] Creating Layer conv2/3x3_reduce
I0313 20:13:57.311856 15508 net.cpp:372] conv2/3x3_reduce <- pool1/norm1
I0313 20:13:57.311894 15508 net.cpp:334] conv2/3x3_reduce -> conv2/3x3_reduce
I0313 20:13:57.311938 15508 net.cpp:105] Setting up conv2/3x3_reduce
I0313 20:13:57.312019 15508 net.cpp:112] Top shape: 32 64 56 56 (6422528)
I0313 20:13:57.312053 15508 layer_factory.hpp:74] Creating layer conv2/relu_3x3_reduce
I0313 20:13:57.312089 15508 net.cpp:76] Creating Layer conv2/relu_3x3_reduce
I0313 20:13:57.312118 15508 net.cpp:372] conv2/relu_3x3_reduce <- conv2/3x3_reduce
I0313 20:13:57.312140 15508 net.cpp:323] conv2/relu_3x3_reduce -> conv2/3x3_reduce (in-place)
I0313 20:13:57.312170 15508 net.cpp:105] Setting up conv2/relu_3x3_reduce
I0313 20:13:57.312188 15508 net.cpp:112] Top shape: 32 64 56 56 (6422528)
I0313 20:13:57.312214 15508 layer_factory.hpp:74] Creating layer conv2/3x3
I0313 20:13:57.312249 15508 net.cpp:76] Creating Layer conv2/3x3
I0313 20:13:57.312278 15508 net.cpp:372] conv2/3x3 <- conv2/3x3_reduce
I0313 20:13:57.312312 15508 net.cpp:334] conv2/3x3 -> conv2/3x3
I0313 20:13:57.312350 15508 net.cpp:105] Setting up conv2/3x3
I0313 20:13:57.313375 15508 net.cpp:112] Top shape: 32 192 56 56 (19267584)
I0313 20:13:57.313438 15508 layer_factory.hpp:74] Creating layer conv2/relu_3x3
I0313 20:13:57.313477 15508 net.cpp:76] Creating Layer conv2/relu_3x3
I0313 20:13:57.313505 15508 net.cpp:372] conv2/relu_3x3 <- conv2/3x3
I0313 20:13:57.313534 15508 net.cpp:323] conv2/relu_3x3 -> conv2/3x3 (in-place)
I0313 20:13:57.313562 15508 net.cpp:105] Setting up conv2/relu_3x3
I0313 20:13:57.313581 15508 net.cpp:112] Top shape: 32 192 56 56 (19267584)
I0313 20:13:57.313612 15508 layer_factory.hpp:74] Creating layer conv2/norm2
I0313 20:13:57.313635 15508 net.cpp:76] Creating Layer conv2/norm2
I0313 20:13:57.313673 15508 net.cpp:372] conv2/norm2 <- conv2/3x3
I0313 20:13:57.313727 15508 net.cpp:334] conv2/norm2 -> conv2/norm2
I0313 20:13:57.313769 15508 net.cpp:105] Setting up conv2/norm2
I0313 20:13:57.313802 15508 net.cpp:112] Top shape: 32 192 56 56 (19267584)
I0313 20:13:57.313828 15508 layer_factory.hpp:74] Creating layer pool2/3x3_s2
I0313 20:13:57.313868 15508 net.cpp:76] Creating Layer pool2/3x3_s2
I0313 20:13:57.313895 15508 net.cpp:372] pool2/3x3_s2 <- conv2/norm2
I0313 20:13:57.313933 15508 net.cpp:334] pool2/3x3_s2 -> pool2/3x3_s2
I0313 20:13:57.313974 15508 net.cpp:105] Setting up pool2/3x3_s2
I0313 20:13:57.314004 15508 net.cpp:112] Top shape: 32 192 28 28 (4816896)
I0313 20:13:57.314039 15508 layer_factory.hpp:74] Creating layer pool2/3x3_s2_pool2/3x3_s2_0_split
I0313 20:13:57.314090 15508 net.cpp:76] Creating Layer pool2/3x3_s2_pool2/3x3_s2_0_split
I0313 20:13:57.314110 15508 net.cpp:372] pool2/3x3_s2_pool2/3x3_s2_0_split <- pool2/3x3_s2
I0313 20:13:57.314141 15508 net.cpp:334] pool2/3x3_s2_pool2/3x3_s2_0_split -> pool2/3x3_s2_pool2/3x3_s2_0_split_0
I0313 20:13:57.314170 15508 net.cpp:334] pool2/3x3_s2_pool2/3x3_s2_0_split -> pool2/3x3_s2_pool2/3x3_s2_0_split_1
I0313 20:13:57.314199 15508 net.cpp:334] pool2/3x3_s2_pool2/3x3_s2_0_split -> pool2/3x3_s2_pool2/3x3_s2_0_split_2
I0313 20:13:57.314265 15508 net.cpp:334] pool2/3x3_s2_pool2/3x3_s2_0_split -> pool2/3x3_s2_pool2/3x3_s2_0_split_3
I0313 20:13:57.314311 15508 net.cpp:105] Setting up pool2/3x3_s2_pool2/3x3_s2_0_split
I0313 20:13:57.314352 15508 net.cpp:112] Top shape: 32 192 28 28 (4816896)
I0313 20:13:57.314378 15508 net.cpp:112] Top shape: 32 192 28 28 (4816896)
I0313 20:13:57.314429 15508 net.cpp:112] Top shape: 32 192 28 28 (4816896)
I0313 20:13:57.314447 15508 net.cpp:112] Top shape: 32 192 28 28 (4816896)
I0313 20:13:57.314508 15508 layer_factory.hpp:74] Creating layer inception_3a/1x1
I0313 20:13:57.314553 15508 net.cpp:76] Creating Layer inception_3a/1x1
I0313 20:13:57.314580 15508 net.cpp:372] inception_3a/1x1 <- pool2/3x3_s2_pool2/3x3_s2_0_split_0
I0313 20:13:57.314622 15508 net.cpp:334] inception_3a/1x1 -> inception_3a/1x1
I0313 20:13:57.314692 15508 net.cpp:105] Setting up inception_3a/1x1
I0313 20:13:57.314838 15508 net.cpp:112] Top shape: 32 64 28 28 (1605632)
I0313 20:13:57.314882 15508 layer_factory.hpp:74] Creating layer inception_3a/relu_1x1
I0313 20:13:57.314920 15508 net.cpp:76] Creating Layer inception_3a/relu_1x1
I0313 20:13:57.314949 15508 net.cpp:372] inception_3a/relu_1x1 <- inception_3a/1x1
I0313 20:13:57.314980 15508 net.cpp:323] inception_3a/relu_1x1 -> inception_3a/1x1 (in-place)
I0313 20:13:57.315026 15508 net.cpp:105] Setting up inception_3a/relu_1x1
I0313 20:13:57.315059 15508 net.cpp:112] Top shape: 32 64 28 28 (1605632)
I0313 20:13:57.315079 15508 layer_factory.hpp:74] Creating layer inception_3a/3x3_reduce
I0313 20:13:57.315099 15508 net.cpp:76] Creating Layer inception_3a/3x3_reduce
I0313 20:13:57.315115 15508 net.cpp:372] inception_3a/3x3_reduce <- pool2/3x3_s2_pool2/3x3_s2_0_split_1
I0313 20:13:57.315137 15508 net.cpp:334] inception_3a/3x3_reduce -> inception_3a/3x3_reduce
I0313 20:13:57.315168 15508 net.cpp:105] Setting up inception_3a/3x3_reduce
I0313 20:13:57.315347 15508 net.cpp:112] Top shape: 32 96 28 28 (2408448)
I0313 20:13:57.315387 15508 layer_factory.hpp:74] Creating layer inception_3a/relu_3x3_reduce
I0313 20:13:57.315443 15508 net.cpp:76] Creating Layer inception_3a/relu_3x3_reduce
I0313 20:13:57.315474 15508 net.cpp:372] inception_3a/relu_3x3_reduce <- inception_3a/3x3_reduce
I0313 20:13:57.315506 15508 net.cpp:323] inception_3a/relu_3x3_reduce -> inception_3a/3x3_reduce (in-place)
I0313 20:13:57.315541 15508 net.cpp:105] Setting up inception_3a/relu_3x3_reduce
I0313 20:13:57.315565 15508 net.cpp:112] Top shape: 32 96 28 28 (2408448)
I0313 20:13:57.315595 15508 layer_factory.hpp:74] Creating layer inception_3a/3x3
I0313 20:13:57.315629 15508 net.cpp:76] Creating Layer inception_3a/3x3
I0313 20:13:57.315659 15508 net.cpp:372] inception_3a/3x3 <- inception_3a/3x3_reduce
I0313 20:13:57.315697 15508 net.cpp:334] inception_3a/3x3 -> inception_3a/3x3
I0313 20:13:57.315744 15508 net.cpp:105] Setting up inception_3a/3x3
I0313 20:13:57.316794 15508 net.cpp:112] Top shape: 32 128 28 28 (3211264)
I0313 20:13:57.316838 15508 layer_factory.hpp:74] Creating layer inception_3a/relu_3x3
I0313 20:13:57.316861 15508 net.cpp:76] Creating Layer inception_3a/relu_3x3
I0313 20:13:57.316895 15508 net.cpp:372] inception_3a/relu_3x3 <- inception_3a/3x3
I0313 20:13:57.316925 15508 net.cpp:323] inception_3a/relu_3x3 -> inception_3a/3x3 (in-place)
I0313 20:13:57.316951 15508 net.cpp:105] Setting up inception_3a/relu_3x3
I0313 20:13:57.316982 15508 net.cpp:112] Top shape: 32 128 28 28 (3211264)
I0313 20:13:57.317003 15508 layer_factory.hpp:74] Creating layer inception_3a/5x5_reduce
I0313 20:13:57.317039 15508 net.cpp:76] Creating Layer inception_3a/5x5_reduce
I0313 20:13:57.317070 15508 net.cpp:372] inception_3a/5x5_reduce <- pool2/3x3_s2_pool2/3x3_s2_0_split_2
I0313 20:13:57.317098 15508 net.cpp:334] inception_3a/5x5_reduce -> inception_3a/5x5_reduce
I0313 20:13:57.317134 15508 net.cpp:105] Setting up inception_3a/5x5_reduce
I0313 20:13:57.317306 15508 net.cpp:112] Top shape: 32 16 28 28 (401408)
I0313 20:13:57.317345 15508 layer_factory.hpp:74] Creating layer inception_3a/relu_5x5_reduce
I0313 20:13:57.317383 15508 net.cpp:76] Creating Layer inception_3a/relu_5x5_reduce
I0313 20:13:57.317432 15508 net.cpp:372] inception_3a/relu_5x5_reduce <- inception_3a/5x5_reduce
I0313 20:13:57.317509 15508 net.cpp:323] inception_3a/relu_5x5_reduce -> inception_3a/5x5_reduce (in-place)
I0313 20:13:57.317545 15508 net.cpp:105] Setting up inception_3a/relu_5x5_reduce
I0313 20:13:57.317570 15508 net.cpp:112] Top shape: 32 16 28 28 (401408)
I0313 20:13:57.317590 15508 layer_factory.hpp:74] Creating layer inception_3a/5x5
I0313 20:13:57.317627 15508 net.cpp:76] Creating Layer inception_3a/5x5
I0313 20:13:57.317656 15508 net.cpp:372] inception_3a/5x5 <- inception_3a/5x5_reduce
I0313 20:13:57.317725 15508 net.cpp:334] inception_3a/5x5 -> inception_3a/5x5
I0313 20:13:57.317764 15508 net.cpp:105] Setting up inception_3a/5x5
I0313 20:13:57.317925 15508 net.cpp:112] Top shape: 32 32 28 28 (802816)
I0313 20:13:57.317956 15508 layer_factory.hpp:74] Creating layer inception_3a/relu_5x5
I0313 20:13:57.317986 15508 net.cpp:76] Creating Layer inception_3a/relu_5x5
I0313 20:13:57.318017 15508 net.cpp:372] inception_3a/relu_5x5 <- inception_3a/5x5
I0313 20:13:57.318045 15508 net.cpp:323] inception_3a/relu_5x5 -> inception_3a/5x5 (in-place)
I0313 20:13:57.318074 15508 net.cpp:105] Setting up inception_3a/relu_5x5
I0313 20:13:57.318099 15508 net.cpp:112] Top shape: 32 32 28 28 (802816)
I0313 20:13:57.318120 15508 layer_factory.hpp:74] Creating layer inception_3a/pool
I0313 20:13:57.318142 15508 net.cpp:76] Creating Layer inception_3a/pool
I0313 20:13:57.318176 15508 net.cpp:372] inception_3a/pool <- pool2/3x3_s2_pool2/3x3_s2_0_split_3
I0313 20:13:57.318263 15508 net.cpp:334] inception_3a/pool -> inception_3a/pool
I0313 20:13:57.318298 15508 net.cpp:105] Setting up inception_3a/pool
I0313 20:13:57.318331 15508 net.cpp:112] Top shape: 32 192 28 28 (4816896)
I0313 20:13:57.318356 15508 layer_factory.hpp:74] Creating layer inception_3a/pool_proj
I0313 20:13:57.318433 15508 net.cpp:76] Creating Layer inception_3a/pool_proj
I0313 20:13:57.318482 15508 net.cpp:372] inception_3a/pool_proj <- inception_3a/pool
I0313 20:13:57.318502 15508 net.cpp:334] inception_3a/pool_proj -> inception_3a/pool_proj
I0313 20:13:57.318521 15508 net.cpp:105] Setting up inception_3a/pool_proj
I0313 20:13:57.318773 15508 net.cpp:112] Top shape: 32 32 28 28 (802816)
I0313 20:13:57.318821 15508 layer_factory.hpp:74] Creating layer inception_3a/relu_pool_proj
I0313 20:13:57.318914 15508 net.cpp:76] Creating Layer inception_3a/relu_pool_proj
I0313 20:13:57.318951 15508 net.cpp:372] inception_3a/relu_pool_proj <- inception_3a/pool_proj
I0313 20:13:57.318975 15508 net.cpp:323] inception_3a/relu_pool_proj -> inception_3a/pool_proj (in-place)
I0313 20:13:57.319051 15508 net.cpp:105] Setting up inception_3a/relu_pool_proj
I0313 20:13:57.319098 15508 net.cpp:112] Top shape: 32 32 28 28 (802816)
I0313 20:13:57.319123 15508 layer_factory.hpp:74] Creating layer inception_3a/output
I0313 20:13:57.319254 15508 net.cpp:76] Creating Layer inception_3a/output
I0313 20:13:57.319286 15508 net.cpp:372] inception_3a/output <- inception_3a/1x1
I0313 20:13:57.319309 15508 net.cpp:372] inception_3a/output <- inception_3a/3x3
I0313 20:13:57.319339 15508 net.cpp:372] inception_3a/output <- inception_3a/5x5
I0313 20:13:57.319366 15508 net.cpp:372] inception_3a/output <- inception_3a/pool_proj
I0313 20:13:57.319506 15508 net.cpp:334] inception_3a/output -> inception_3a/output
I0313 20:13:57.319552 15508 net.cpp:105] Setting up inception_3a/output
I0313 20:13:57.319586 15508 net.cpp:112] Top shape: 32 256 28 28 (6422528)
I0313 20:13:57.319608 15508 layer_factory.hpp:74] Creating layer inception_3a/output_inception_3a/output_0_split
I0313 20:13:57.319629 15508 net.cpp:76] Creating Layer inception_3a/output_inception_3a/output_0_split
I0313 20:13:57.319643 15508 net.cpp:372] inception_3a/output_inception_3a/output_0_split <- inception_3a/output
I0313 20:13:57.319661 15508 net.cpp:334] inception_3a/output_inception_3a/output_0_split -> inception_3a/output_inception_3a/output_0_split_0
I0313 20:13:57.319684 15508 net.cpp:334] inception_3a/output_inception_3a/output_0_split -> inception_3a/output_inception_3a/output_0_split_1
I0313 20:13:57.319717 15508 net.cpp:334] inception_3a/output_inception_3a/output_0_split -> inception_3a/output_inception_3a/output_0_split_2
I0313 20:13:57.319751 15508 net.cpp:334] inception_3a/output_inception_3a/output_0_split -> inception_3a/output_inception_3a/output_0_split_3
I0313 20:13:57.319790 15508 net.cpp:105] Setting up inception_3a/output_inception_3a/output_0_split
I0313 20:13:57.319826 15508 net.cpp:112] Top shape: 32 256 28 28 (6422528)
I0313 20:13:57.319857 15508 net.cpp:112] Top shape: 32 256 28 28 (6422528)
I0313 20:13:57.319875 15508 net.cpp:112] Top shape: 32 256 28 28 (6422528)
I0313 20:13:57.319910 15508 net.cpp:112] Top shape: 32 256 28 28 (6422528)
I0313 20:13:57.319934 15508 layer_factory.hpp:74] Creating layer inception_3b/1x1
I0313 20:13:57.319983 15508 net.cpp:76] Creating Layer inception_3b/1x1
I0313 20:13:57.320014 15508 net.cpp:372] inception_3b/1x1 <- inception_3a/output_inception_3a/output_0_split_0
I0313 20:13:57.320104 15508 net.cpp:334] inception_3b/1x1 -> inception_3b/1x1
I0313 20:13:57.320147 15508 net.cpp:105] Setting up inception_3b/1x1
I0313 20:13:57.320853 15508 net.cpp:112] Top shape: 32 128 28 28 (3211264)
I0313 20:13:57.320888 15508 layer_factory.hpp:74] Creating layer inception_3b/relu_1x1
I0313 20:13:57.320912 15508 net.cpp:76] Creating Layer inception_3b/relu_1x1
I0313 20:13:57.320930 15508 net.cpp:372] inception_3b/relu_1x1 <- inception_3b/1x1
I0313 20:13:57.320947 15508 net.cpp:323] inception_3b/relu_1x1 -> inception_3b/1x1 (in-place)
I0313 20:13:57.320976 15508 net.cpp:105] Setting up inception_3b/relu_1x1
I0313 20:13:57.320993 15508 net.cpp:112] Top shape: 32 128 28 28 (3211264)
I0313 20:13:57.321008 15508 layer_factory.hpp:74] Creating layer inception_3b/3x3_reduce
I0313 20:13:57.321034 15508 net.cpp:76] Creating Layer inception_3b/3x3_reduce
I0313 20:13:57.321066 15508 net.cpp:372] inception_3b/3x3_reduce <- inception_3a/output_inception_3a/output_0_split_1
I0313 20:13:57.321099 15508 net.cpp:334] inception_3b/3x3_reduce -> inception_3b/3x3_reduce
I0313 20:13:57.321138 15508 net.cpp:105] Setting up inception_3b/3x3_reduce
I0313 20:13:57.321916 15508 net.cpp:112] Top shape: 32 128 28 28 (3211264)
I0313 20:13:57.321972 15508 layer_factory.hpp:74] Creating layer inception_3b/relu_3x3_reduce
I0313 20:13:57.322007 15508 net.cpp:76] Creating Layer inception_3b/relu_3x3_reduce
I0313 20:13:57.322041 15508 net.cpp:372] inception_3b/relu_3x3_reduce <- inception_3b/3x3_reduce
I0313 20:13:57.322072 15508 net.cpp:323] inception_3b/relu_3x3_reduce -> inception_3b/3x3_reduce (in-place)
I0313 20:13:57.322106 15508 net.cpp:105] Setting up inception_3b/relu_3x3_reduce
I0313 20:13:57.322142 15508 net.cpp:112] Top shape: 32 128 28 28 (3211264)
I0313 20:13:57.322190 15508 layer_factory.hpp:74] Creating layer inception_3b/3x3
I0313 20:13:57.322271 15508 net.cpp:76] Creating Layer inception_3b/3x3
I0313 20:13:57.322319 15508 net.cpp:372] inception_3b/3x3 <- inception_3b/3x3_reduce
I0313 20:13:57.322357 15508 net.cpp:334] inception_3b/3x3 -> inception_3b/3x3
I0313 20:13:57.322399 15508 net.cpp:105] Setting up inception_3b/3x3
I0313 20:13:57.326588 15508 net.cpp:112] Top shape: 32 192 28 28 (4816896)
I0313 20:13:57.326647 15508 layer_factory.hpp:74] Creating layer inception_3b/relu_3x3
I0313 20:13:57.326675 15508 net.cpp:76] Creating Layer inception_3b/relu_3x3
I0313 20:13:57.326692 15508 net.cpp:372] inception_3b/relu_3x3 <- inception_3b/3x3
I0313 20:13:57.326714 15508 net.cpp:323] inception_3b/relu_3x3 -> inception_3b/3x3 (in-place)
I0313 20:13:57.326745 15508 net.cpp:105] Setting up inception_3b/relu_3x3
I0313 20:13:57.326766 15508 net.cpp:112] Top shape: 32 192 28 28 (4816896)
I0313 20:13:57.326791 15508 layer_factory.hpp:74] Creating layer inception_3b/5x5_reduce
I0313 20:13:57.326818 15508 net.cpp:76] Creating Layer inception_3b/5x5_reduce
I0313 20:13:57.326834 15508 net.cpp:372] inception_3b/5x5_reduce <- inception_3a/output_inception_3a/output_0_split_2
I0313 20:13:57.326861 15508 net.cpp:334] inception_3b/5x5_reduce -> inception_3b/5x5_reduce
I0313 20:13:57.326894 15508 net.cpp:105] Setting up inception_3b/5x5_reduce
I0313 20:13:57.327003 15508 net.cpp:112] Top shape: 32 32 28 28 (802816)
I0313 20:13:57.327033 15508 layer_factory.hpp:74] Creating layer inception_3b/relu_5x5_reduce
I0313 20:13:57.327056 15508 net.cpp:76] Creating Layer inception_3b/relu_5x5_reduce
I0313 20:13:57.327081 15508 net.cpp:372] inception_3b/relu_5x5_reduce <- inception_3b/5x5_reduce
I0313 20:13:57.327103 15508 net.cpp:323] inception_3b/relu_5x5_reduce -> inception_3b/5x5_reduce (in-place)
I0313 20:13:57.327133 15508 net.cpp:105] Setting up inception_3b/relu_5x5_reduce
I0313 20:13:57.327160 15508 net.cpp:112] Top shape: 32 32 28 28 (802816)
I0313 20:13:57.327178 15508 layer_factory.hpp:74] Creating layer inception_3b/5x5
I0313 20:13:57.327199 15508 net.cpp:76] Creating Layer inception_3b/5x5
I0313 20:13:57.327224 15508 net.cpp:372] inception_3b/5x5 <- inception_3b/5x5_reduce
I0313 20:13:57.327253 15508 net.cpp:334] inception_3b/5x5 -> inception_3b/5x5
I0313 20:13:57.327294 15508 net.cpp:105] Setting up inception_3b/5x5
I0313 20:13:57.328019 15508 net.cpp:112] Top shape: 32 96 28 28 (2408448)
I0313 20:13:57.328053 15508 layer_factory.hpp:74] Creating layer inception_3b/relu_5x5
I0313 20:13:57.328075 15508 net.cpp:76] Creating Layer inception_3b/relu_5x5
I0313 20:13:57.328093 15508 net.cpp:372] inception_3b/relu_5x5 <- inception_3b/5x5
I0313 20:13:57.328111 15508 net.cpp:323] inception_3b/relu_5x5 -> inception_3b/5x5 (in-place)
I0313 20:13:57.328131 15508 net.cpp:105] Setting up inception_3b/relu_5x5
I0313 20:13:57.328145 15508 net.cpp:112] Top shape: 32 96 28 28 (2408448)
I0313 20:13:57.328161 15508 layer_factory.hpp:74] Creating layer inception_3b/pool
I0313 20:13:57.328186 15508 net.cpp:76] Creating Layer inception_3b/pool
I0313 20:13:57.328212 15508 net.cpp:372] inception_3b/pool <- inception_3a/output_inception_3a/output_0_split_3
I0313 20:13:57.328233 15508 net.cpp:334] inception_3b/pool -> inception_3b/pool
I0313 20:13:57.328269 15508 net.cpp:105] Setting up inception_3b/pool
I0313 20:13:57.328294 15508 net.cpp:112] Top shape: 32 256 28 28 (6422528)
I0313 20:13:57.328318 15508 layer_factory.hpp:74] Creating layer inception_3b/pool_proj
I0313 20:13:57.328346 15508 net.cpp:76] Creating Layer inception_3b/pool_proj
I0313 20:13:57.328372 15508 net.cpp:372] inception_3b/pool_proj <- inception_3b/pool
I0313 20:13:57.328393 15508 net.cpp:334] inception_3b/pool_proj -> inception_3b/pool_proj
I0313 20:13:57.328426 15508 net.cpp:105] Setting up inception_3b/pool_proj
I0313 20:13:57.328619 15508 net.cpp:112] Top shape: 32 64 28 28 (1605632)
I0313 20:13:57.328650 15508 layer_factory.hpp:74] Creating layer inception_3b/relu_pool_proj
I0313 20:13:57.328694 15508 net.cpp:76] Creating Layer inception_3b/relu_pool_proj
I0313 20:13:57.328737 15508 net.cpp:372] inception_3b/relu_pool_proj <- inception_3b/pool_proj
I0313 20:13:57.328763 15508 net.cpp:323] inception_3b/relu_pool_proj -> inception_3b/pool_proj (in-place)
I0313 20:13:57.328793 15508 net.cpp:105] Setting up inception_3b/relu_pool_proj
I0313 20:13:57.328812 15508 net.cpp:112] Top shape: 32 64 28 28 (1605632)
I0313 20:13:57.328829 15508 layer_factory.hpp:74] Creating layer inception_3b/output
I0313 20:13:57.328860 15508 net.cpp:76] Creating Layer inception_3b/output
I0313 20:13:57.328881 15508 net.cpp:372] inception_3b/output <- inception_3b/1x1
I0313 20:13:57.328914 15508 net.cpp:372] inception_3b/output <- inception_3b/3x3
I0313 20:13:57.328948 15508 net.cpp:372] inception_3b/output <- inception_3b/5x5
I0313 20:13:57.328972 15508 net.cpp:372] inception_3b/output <- inception_3b/pool_proj
I0313 20:13:57.329006 15508 net.cpp:334] inception_3b/output -> inception_3b/output
I0313 20:13:57.329030 15508 net.cpp:105] Setting up inception_3b/output
I0313 20:13:57.329057 15508 net.cpp:112] Top shape: 32 480 28 28 (12042240)
I0313 20:13:57.329076 15508 layer_factory.hpp:74] Creating layer pool3/3x3_s2
I0313 20:13:57.329102 15508 net.cpp:76] Creating Layer pool3/3x3_s2
I0313 20:13:57.329125 15508 net.cpp:372] pool3/3x3_s2 <- inception_3b/output
I0313 20:13:57.329150 15508 net.cpp:334] pool3/3x3_s2 -> pool3/3x3_s2
I0313 20:13:57.329185 15508 net.cpp:105] Setting up pool3/3x3_s2
I0313 20:13:57.329208 15508 net.cpp:112] Top shape: 32 480 14 14 (3010560)
I0313 20:13:57.329234 15508 layer_factory.hpp:74] Creating layer pool3/3x3_s2_pool3/3x3_s2_0_split
I0313 20:13:57.329257 15508 net.cpp:76] Creating Layer pool3/3x3_s2_pool3/3x3_s2_0_split
I0313 20:13:57.329285 15508 net.cpp:372] pool3/3x3_s2_pool3/3x3_s2_0_split <- pool3/3x3_s2
I0313 20:13:57.329311 15508 net.cpp:334] pool3/3x3_s2_pool3/3x3_s2_0_split -> pool3/3x3_s2_pool3/3x3_s2_0_split_0
I0313 20:13:57.329347 15508 net.cpp:334] pool3/3x3_s2_pool3/3x3_s2_0_split -> pool3/3x3_s2_pool3/3x3_s2_0_split_1
I0313 20:13:57.329383 15508 net.cpp:334] pool3/3x3_s2_pool3/3x3_s2_0_split -> pool3/3x3_s2_pool3/3x3_s2_0_split_2
I0313 20:13:57.329411 15508 net.cpp:334] pool3/3x3_s2_pool3/3x3_s2_0_split -> pool3/3x3_s2_pool3/3x3_s2_0_split_3
I0313 20:13:57.329439 15508 net.cpp:105] Setting up pool3/3x3_s2_pool3/3x3_s2_0_split
I0313 20:13:57.329458 15508 net.cpp:112] Top shape: 32 480 14 14 (3010560)
I0313 20:13:57.329473 15508 net.cpp:112] Top shape: 32 480 14 14 (3010560)
I0313 20:13:57.329486 15508 net.cpp:112] Top shape: 32 480 14 14 (3010560)
I0313 20:13:57.329499 15508 net.cpp:112] Top shape: 32 480 14 14 (3010560)
I0313 20:13:57.329514 15508 layer_factory.hpp:74] Creating layer inception_4a/1x1
I0313 20:13:57.329537 15508 net.cpp:76] Creating Layer inception_4a/1x1
I0313 20:13:57.329555 15508 net.cpp:372] inception_4a/1x1 <- pool3/3x3_s2_pool3/3x3_s2_0_split_0
I0313 20:13:57.329609 15508 net.cpp:334] inception_4a/1x1 -> inception_4a/1x1
I0313 20:13:57.329638 15508 net.cpp:105] Setting up inception_4a/1x1
I0313 20:13:57.330466 15508 net.cpp:112] Top shape: 32 192 14 14 (1204224)
I0313 20:13:57.330507 15508 layer_factory.hpp:74] Creating layer inception_4a/relu_1x1
I0313 20:13:57.330526 15508 net.cpp:76] Creating Layer inception_4a/relu_1x1
I0313 20:13:57.330541 15508 net.cpp:372] inception_4a/relu_1x1 <- inception_4a/1x1
I0313 20:13:57.330557 15508 net.cpp:323] inception_4a/relu_1x1 -> inception_4a/1x1 (in-place)
I0313 20:13:57.330574 15508 net.cpp:105] Setting up inception_4a/relu_1x1
I0313 20:13:57.330628 15508 net.cpp:112] Top shape: 32 192 14 14 (1204224)
I0313 20:13:57.330648 15508 layer_factory.hpp:74] Creating layer inception_4a/3x3_reduce
I0313 20:13:57.330677 15508 net.cpp:76] Creating Layer inception_4a/3x3_reduce
I0313 20:13:57.330692 15508 net.cpp:372] inception_4a/3x3_reduce <- pool3/3x3_s2_pool3/3x3_s2_0_split_1
I0313 20:13:57.330708 15508 net.cpp:334] inception_4a/3x3_reduce -> inception_4a/3x3_reduce
I0313 20:13:57.330729 15508 net.cpp:105] Setting up inception_4a/3x3_reduce
I0313 20:13:57.331202 15508 net.cpp:112] Top shape: 32 96 14 14 (602112)
I0313 20:13:57.331246 15508 layer_factory.hpp:74] Creating layer inception_4a/relu_3x3_reduce
I0313 20:13:57.331269 15508 net.cpp:76] Creating Layer inception_4a/relu_3x3_reduce
I0313 20:13:57.331286 15508 net.cpp:372] inception_4a/relu_3x3_reduce <- inception_4a/3x3_reduce
I0313 20:13:57.331307 15508 net.cpp:323] inception_4a/relu_3x3_reduce -> inception_4a/3x3_reduce (in-place)
I0313 20:13:57.331338 15508 net.cpp:105] Setting up inception_4a/relu_3x3_reduce
I0313 20:13:57.331377 15508 net.cpp:112] Top shape: 32 96 14 14 (602112)
I0313 20:13:57.331398 15508 layer_factory.hpp:74] Creating layer inception_4a/3x3
I0313 20:13:57.331426 15508 net.cpp:76] Creating Layer inception_4a/3x3
I0313 20:13:57.331452 15508 net.cpp:372] inception_4a/3x3 <- inception_4a/3x3_reduce
I0313 20:13:57.331475 15508 net.cpp:334] inception_4a/3x3 -> inception_4a/3x3
I0313 20:13:57.331497 15508 net.cpp:105] Setting up inception_4a/3x3
I0313 20:13:57.333103 15508 net.cpp:112] Top shape: 32 208 14 14 (1304576)
I0313 20:13:57.333138 15508 layer_factory.hpp:74] Creating layer inception_4a/relu_3x3
I0313 20:13:57.333168 15508 net.cpp:76] Creating Layer inception_4a/relu_3x3
I0313 20:13:57.333186 15508 net.cpp:372] inception_4a/relu_3x3 <- inception_4a/3x3
I0313 20:13:57.333204 15508 net.cpp:323] inception_4a/relu_3x3 -> inception_4a/3x3 (in-place)
I0313 20:13:57.333223 15508 net.cpp:105] Setting up inception_4a/relu_3x3
I0313 20:13:57.333250 15508 net.cpp:112] Top shape: 32 208 14 14 (1304576)
I0313 20:13:57.333267 15508 layer_factory.hpp:74] Creating layer inception_4a/5x5_reduce
I0313 20:13:57.333294 15508 net.cpp:76] Creating Layer inception_4a/5x5_reduce
I0313 20:13:57.333318 15508 net.cpp:372] inception_4a/5x5_reduce <- pool3/3x3_s2_pool3/3x3_s2_0_split_2
I0313 20:13:57.333343 15508 net.cpp:334] inception_4a/5x5_reduce -> inception_4a/5x5_reduce
I0313 20:13:57.333380 15508 net.cpp:105] Setting up inception_4a/5x5_reduce
I0313 20:13:57.333492 15508 net.cpp:112] Top shape: 32 16 14 14 (100352)
I0313 20:13:57.333523 15508 layer_factory.hpp:74] Creating layer inception_4a/relu_5x5_reduce
I0313 20:13:57.333545 15508 net.cpp:76] Creating Layer inception_4a/relu_5x5_reduce
I0313 20:13:57.333572 15508 net.cpp:372] inception_4a/relu_5x5_reduce <- inception_4a/5x5_reduce
I0313 20:13:57.333614 15508 net.cpp:323] inception_4a/relu_5x5_reduce -> inception_4a/5x5_reduce (in-place)
I0313 20:13:57.333642 15508 net.cpp:105] Setting up inception_4a/relu_5x5_reduce
I0313 20:13:57.333660 15508 net.cpp:112] Top shape: 32 16 14 14 (100352)
I0313 20:13:57.333693 15508 layer_factory.hpp:74] Creating layer inception_4a/5x5
I0313 20:13:57.333724 15508 net.cpp:76] Creating Layer inception_4a/5x5
I0313 20:13:57.333748 15508 net.cpp:372] inception_4a/5x5 <- inception_4a/5x5_reduce
I0313 20:13:57.333776 15508 net.cpp:334] inception_4a/5x5 -> inception_4a/5x5
I0313 20:13:57.333808 15508 net.cpp:105] Setting up inception_4a/5x5
I0313 20:13:57.334009 15508 net.cpp:112] Top shape: 32 48 14 14 (301056)
I0313 20:13:57.334040 15508 layer_factory.hpp:74] Creating layer inception_4a/relu_5x5
I0313 20:13:57.334063 15508 net.cpp:76] Creating Layer inception_4a/relu_5x5
I0313 20:13:57.334089 15508 net.cpp:372] inception_4a/relu_5x5 <- inception_4a/5x5
I0313 20:13:57.334111 15508 net.cpp:323] inception_4a/relu_5x5 -> inception_4a/5x5 (in-place)
I0313 20:13:57.334141 15508 net.cpp:105] Setting up inception_4a/relu_5x5
I0313 20:13:57.334159 15508 net.cpp:112] Top shape: 32 48 14 14 (301056)
I0313 20:13:57.334177 15508 layer_factory.hpp:74] Creating layer inception_4a/pool
I0313 20:13:57.334211 15508 net.cpp:76] Creating Layer inception_4a/pool
I0313 20:13:57.334235 15508 net.cpp:372] inception_4a/pool <- pool3/3x3_s2_pool3/3x3_s2_0_split_3
I0313 20:13:57.334269 15508 net.cpp:334] inception_4a/pool -> inception_4a/pool
I0313 20:13:57.334293 15508 net.cpp:105] Setting up inception_4a/pool
I0313 20:13:57.334314 15508 net.cpp:112] Top shape: 32 480 14 14 (3010560)
I0313 20:13:57.334338 15508 layer_factory.hpp:74] Creating layer inception_4a/pool_proj
I0313 20:13:57.334385 15508 net.cpp:76] Creating Layer inception_4a/pool_proj
I0313 20:13:57.334427 15508 net.cpp:372] inception_4a/pool_proj <- inception_4a/pool
I0313 20:13:57.334461 15508 net.cpp:334] inception_4a/pool_proj -> inception_4a/pool_proj
I0313 20:13:57.334486 15508 net.cpp:105] Setting up inception_4a/pool_proj
I0313 20:13:57.334811 15508 net.cpp:112] Top shape: 32 64 14 14 (401408)
I0313 20:13:57.334843 15508 layer_factory.hpp:74] Creating layer inception_4a/relu_pool_proj
I0313 20:13:57.334867 15508 net.cpp:76] Creating Layer inception_4a/relu_pool_proj
I0313 20:13:57.334884 15508 net.cpp:372] inception_4a/relu_pool_proj <- inception_4a/pool_proj
I0313 20:13:57.334918 15508 net.cpp:323] inception_4a/relu_pool_proj -> inception_4a/pool_proj (in-place)
I0313 20:13:57.334952 15508 net.cpp:105] Setting up inception_4a/relu_pool_proj
I0313 20:13:57.334972 15508 net.cpp:112] Top shape: 32 64 14 14 (401408)
I0313 20:13:57.334990 15508 layer_factory.hpp:74] Creating layer inception_4a/output
I0313 20:13:57.335011 15508 net.cpp:76] Creating Layer inception_4a/output
I0313 20:13:57.335036 15508 net.cpp:372] inception_4a/output <- inception_4a/1x1
I0313 20:13:57.335054 15508 net.cpp:372] inception_4a/output <- inception_4a/3x3
I0313 20:13:57.335073 15508 net.cpp:372] inception_4a/output <- inception_4a/5x5
I0313 20:13:57.335100 15508 net.cpp:372] inception_4a/output <- inception_4a/pool_proj
I0313 20:13:57.335124 15508 net.cpp:334] inception_4a/output -> inception_4a/output
I0313 20:13:57.335155 15508 net.cpp:105] Setting up inception_4a/output
I0313 20:13:57.335175 15508 net.cpp:112] Top shape: 32 512 14 14 (3211264)
I0313 20:13:57.335208 15508 layer_factory.hpp:74] Creating layer inception_4a/output_inception_4a/output_0_split
I0313 20:13:57.335242 15508 net.cpp:76] Creating Layer inception_4a/output_inception_4a/output_0_split
I0313 20:13:57.335263 15508 net.cpp:372] inception_4a/output_inception_4a/output_0_split <- inception_4a/output
I0313 20:13:57.335325 15508 net.cpp:334] inception_4a/output_inception_4a/output_0_split -> inception_4a/output_inception_4a/output_0_split_0
I0313 20:13:57.335355 15508 net.cpp:334] inception_4a/output_inception_4a/output_0_split -> inception_4a/output_inception_4a/output_0_split_1
I0313 20:13:57.335388 15508 net.cpp:334] inception_4a/output_inception_4a/output_0_split -> inception_4a/output_inception_4a/output_0_split_2
I0313 20:13:57.335414 15508 net.cpp:334] inception_4a/output_inception_4a/output_0_split -> inception_4a/output_inception_4a/output_0_split_3
I0313 20:13:57.335445 15508 net.cpp:334] inception_4a/output_inception_4a/output_0_split -> inception_4a/output_inception_4a/output_0_split_4
I0313 20:13:57.335474 15508 net.cpp:105] Setting up inception_4a/output_inception_4a/output_0_split
I0313 20:13:57.335494 15508 net.cpp:112] Top shape: 32 512 14 14 (3211264)
I0313 20:13:57.335518 15508 net.cpp:112] Top shape: 32 512 14 14 (3211264)
I0313 20:13:57.335536 15508 net.cpp:112] Top shape: 32 512 14 14 (3211264)
I0313 20:13:57.335549 15508 net.cpp:112] Top shape: 32 512 14 14 (3211264)
I0313 20:13:57.335563 15508 net.cpp:112] Top shape: 32 512 14 14 (3211264)
I0313 20:13:57.335578 15508 layer_factory.hpp:74] Creating layer loss1/ave_pool
I0313 20:13:57.335630 15508 net.cpp:76] Creating Layer loss1/ave_pool
I0313 20:13:57.335654 15508 net.cpp:372] loss1/ave_pool <- inception_4a/output_inception_4a/output_0_split_0
I0313 20:13:57.335675 15508 net.cpp:334] loss1/ave_pool -> loss1/ave_pool
I0313 20:13:57.335696 15508 net.cpp:105] Setting up loss1/ave_pool
I0313 20:13:57.335722 15508 net.cpp:112] Top shape: 32 512 4 4 (262144)
I0313 20:13:57.335741 15508 layer_factory.hpp:74] Creating layer loss1/conv
I0313 20:13:57.335768 15508 net.cpp:76] Creating Layer loss1/conv
I0313 20:13:57.335793 15508 net.cpp:372] loss1/conv <- loss1/ave_pool
I0313 20:13:57.335819 15508 net.cpp:334] loss1/conv -> loss1/conv
I0313 20:13:57.335839 15508 net.cpp:105] Setting up loss1/conv
I0313 20:13:57.336462 15508 net.cpp:112] Top shape: 32 128 4 4 (65536)
I0313 20:13:57.336506 15508 layer_factory.hpp:74] Creating layer loss1/relu_conv
I0313 20:13:57.336544 15508 net.cpp:76] Creating Layer loss1/relu_conv
I0313 20:13:57.336563 15508 net.cpp:372] loss1/relu_conv <- loss1/conv
I0313 20:13:57.336588 15508 net.cpp:323] loss1/relu_conv -> loss1/conv (in-place)
I0313 20:13:57.336632 15508 net.cpp:105] Setting up loss1/relu_conv
I0313 20:13:57.336653 15508 net.cpp:112] Top shape: 32 128 4 4 (65536)
I0313 20:13:57.336670 15508 layer_factory.hpp:74] Creating layer loss1/fc
I0313 20:13:57.336695 15508 net.cpp:76] Creating Layer loss1/fc
I0313 20:13:57.336726 15508 net.cpp:372] loss1/fc <- loss1/conv
I0313 20:13:57.336755 15508 net.cpp:334] loss1/fc -> loss1/fc
I0313 20:13:57.336801 15508 net.cpp:105] Setting up loss1/fc
I0313 20:13:57.355480 15508 net.cpp:112] Top shape: 32 1024 1 1 (32768)
I0313 20:13:57.355567 15508 layer_factory.hpp:74] Creating layer loss1/relu_fc
I0313 20:13:57.355618 15508 net.cpp:76] Creating Layer loss1/relu_fc
I0313 20:13:57.355639 15508 net.cpp:372] loss1/relu_fc <- loss1/fc
I0313 20:13:57.355662 15508 net.cpp:323] loss1/relu_fc -> loss1/fc (in-place)
I0313 20:13:57.355686 15508 net.cpp:105] Setting up loss1/relu_fc
I0313 20:13:57.355701 15508 net.cpp:112] Top shape: 32 1024 1 1 (32768)
I0313 20:13:57.355718 15508 layer_factory.hpp:74] Creating layer loss1/drop_fc
I0313 20:13:57.355765 15508 net.cpp:76] Creating Layer loss1/drop_fc
I0313 20:13:57.355793 15508 net.cpp:372] loss1/drop_fc <- loss1/fc
I0313 20:13:57.355814 15508 net.cpp:323] loss1/drop_fc -> loss1/fc (in-place)
I0313 20:13:57.355839 15508 net.cpp:105] Setting up loss1/drop_fc
I0313 20:13:57.355880 15508 net.cpp:112] Top shape: 32 1024 1 1 (32768)
I0313 20:13:57.355901 15508 layer_factory.hpp:74] Creating layer loss1/classifier
I0313 20:13:57.355926 15508 net.cpp:76] Creating Layer loss1/classifier
I0313 20:13:57.355957 15508 net.cpp:372] loss1/classifier <- loss1/fc
I0313 20:13:57.355984 15508 net.cpp:334] loss1/classifier -> loss1/classifier
I0313 20:13:57.356012 15508 net.cpp:105] Setting up loss1/classifier
I0313 20:13:57.364851 15508 net.cpp:112] Top shape: 32 1000 1 1 (32000)
I0313 20:13:57.364889 15508 layer_factory.hpp:74] Creating layer loss1/loss
I0313 20:13:57.364920 15508 net.cpp:76] Creating Layer loss1/loss
I0313 20:13:57.364940 15508 net.cpp:372] loss1/loss <- loss1/classifier
I0313 20:13:57.364959 15508 net.cpp:372] loss1/loss <- label_data_1_split_0
I0313 20:13:57.364984 15508 net.cpp:334] loss1/loss -> loss1/loss1
I0313 20:13:57.365032 15508 net.cpp:105] Setting up loss1/loss
I0313 20:13:57.365063 15508 layer_factory.hpp:74] Creating layer loss1/loss
I0313 20:13:57.365183 15508 net.cpp:112] Top shape: 1 1 1 1 (1)
I0313 20:13:57.365207 15508 net.cpp:118]     with loss weight 0.3
I0313 20:13:57.365275 15508 layer_factory.hpp:74] Creating layer inception_4b/1x1
I0313 20:13:57.365308 15508 net.cpp:76] Creating Layer inception_4b/1x1
I0313 20:13:57.365345 15508 net.cpp:372] inception_4b/1x1 <- inception_4a/output_inception_4a/output_0_split_1
I0313 20:13:57.365370 15508 net.cpp:334] inception_4b/1x1 -> inception_4b/1x1
I0313 20:13:57.365396 15508 net.cpp:105] Setting up inception_4b/1x1
I0313 20:13:57.366135 15508 net.cpp:112] Top shape: 32 160 14 14 (1003520)
I0313 20:13:57.366173 15508 layer_factory.hpp:74] Creating layer inception_4b/relu_1x1
I0313 20:13:57.366194 15508 net.cpp:76] Creating Layer inception_4b/relu_1x1
I0313 20:13:57.366214 15508 net.cpp:372] inception_4b/relu_1x1 <- inception_4b/1x1
I0313 20:13:57.366235 15508 net.cpp:323] inception_4b/relu_1x1 -> inception_4b/1x1 (in-place)
I0313 20:13:57.366276 15508 net.cpp:105] Setting up inception_4b/relu_1x1
I0313 20:13:57.366296 15508 net.cpp:112] Top shape: 32 160 14 14 (1003520)
I0313 20:13:57.366312 15508 layer_factory.hpp:74] Creating layer inception_4b/3x3_reduce
I0313 20:13:57.366333 15508 net.cpp:76] Creating Layer inception_4b/3x3_reduce
I0313 20:13:57.366348 15508 net.cpp:372] inception_4b/3x3_reduce <- inception_4a/output_inception_4a/output_0_split_2
I0313 20:13:57.366372 15508 net.cpp:334] inception_4b/3x3_reduce -> inception_4b/3x3_reduce
I0313 20:13:57.366431 15508 net.cpp:105] Setting up inception_4b/3x3_reduce
I0313 20:13:57.366973 15508 net.cpp:112] Top shape: 32 112 14 14 (702464)
I0313 20:13:57.367007 15508 layer_factory.hpp:74] Creating layer inception_4b/relu_3x3_reduce
I0313 20:13:57.367029 15508 net.cpp:76] Creating Layer inception_4b/relu_3x3_reduce
I0313 20:13:57.367046 15508 net.cpp:372] inception_4b/relu_3x3_reduce <- inception_4b/3x3_reduce
I0313 20:13:57.367070 15508 net.cpp:323] inception_4b/relu_3x3_reduce -> inception_4b/3x3_reduce (in-place)
I0313 20:13:57.367102 15508 net.cpp:105] Setting up inception_4b/relu_3x3_reduce
I0313 20:13:57.367121 15508 net.cpp:112] Top shape: 32 112 14 14 (702464)
I0313 20:13:57.367139 15508 layer_factory.hpp:74] Creating layer inception_4b/3x3
I0313 20:13:57.367166 15508 net.cpp:76] Creating Layer inception_4b/3x3
I0313 20:13:57.367190 15508 net.cpp:372] inception_4b/3x3 <- inception_4b/3x3_reduce
I0313 20:13:57.367218 15508 net.cpp:334] inception_4b/3x3 -> inception_4b/3x3
I0313 20:13:57.367250 15508 net.cpp:105] Setting up inception_4b/3x3
I0313 20:13:57.369180 15508 net.cpp:112] Top shape: 32 224 14 14 (1404928)
I0313 20:13:57.369217 15508 layer_factory.hpp:74] Creating layer inception_4b/relu_3x3
I0313 20:13:57.369240 15508 net.cpp:76] Creating Layer inception_4b/relu_3x3
I0313 20:13:57.369257 15508 net.cpp:372] inception_4b/relu_3x3 <- inception_4b/3x3
I0313 20:13:57.369273 15508 net.cpp:323] inception_4b/relu_3x3 -> inception_4b/3x3 (in-place)
I0313 20:13:57.369292 15508 net.cpp:105] Setting up inception_4b/relu_3x3
I0313 20:13:57.369309 15508 net.cpp:112] Top shape: 32 224 14 14 (1404928)
I0313 20:13:57.369325 15508 layer_factory.hpp:74] Creating layer inception_4b/5x5_reduce
I0313 20:13:57.369354 15508 net.cpp:76] Creating Layer inception_4b/5x5_reduce
I0313 20:13:57.369381 15508 net.cpp:372] inception_4b/5x5_reduce <- inception_4a/output_inception_4a/output_0_split_3
I0313 20:13:57.369405 15508 net.cpp:334] inception_4b/5x5_reduce -> inception_4b/5x5_reduce
I0313 20:13:57.369446 15508 net.cpp:105] Setting up inception_4b/5x5_reduce
I0313 20:13:57.369581 15508 net.cpp:112] Top shape: 32 24 14 14 (150528)
I0313 20:13:57.369626 15508 layer_factory.hpp:74] Creating layer inception_4b/relu_5x5_reduce
I0313 20:13:57.369650 15508 net.cpp:76] Creating Layer inception_4b/relu_5x5_reduce
I0313 20:13:57.369678 15508 net.cpp:372] inception_4b/relu_5x5_reduce <- inception_4b/5x5_reduce
I0313 20:13:57.369704 15508 net.cpp:323] inception_4b/relu_5x5_reduce -> inception_4b/5x5_reduce (in-place)
I0313 20:13:57.369735 15508 net.cpp:105] Setting up inception_4b/relu_5x5_reduce
I0313 20:13:57.369755 15508 net.cpp:112] Top shape: 32 24 14 14 (150528)
I0313 20:13:57.369774 15508 layer_factory.hpp:74] Creating layer inception_4b/5x5
I0313 20:13:57.369796 15508 net.cpp:76] Creating Layer inception_4b/5x5
I0313 20:13:57.369822 15508 net.cpp:372] inception_4b/5x5 <- inception_4b/5x5_reduce
I0313 20:13:57.369848 15508 net.cpp:334] inception_4b/5x5 -> inception_4b/5x5
I0313 20:13:57.369880 15508 net.cpp:105] Setting up inception_4b/5x5
I0313 20:13:57.370239 15508 net.cpp:112] Top shape: 32 64 14 14 (401408)
I0313 20:13:57.370270 15508 layer_factory.hpp:74] Creating layer inception_4b/relu_5x5
I0313 20:13:57.370291 15508 net.cpp:76] Creating Layer inception_4b/relu_5x5
I0313 20:13:57.370321 15508 net.cpp:372] inception_4b/relu_5x5 <- inception_4b/5x5
I0313 20:13:57.370343 15508 net.cpp:323] inception_4b/relu_5x5 -> inception_4b/5x5 (in-place)
I0313 20:13:57.370374 15508 net.cpp:105] Setting up inception_4b/relu_5x5
I0313 20:13:57.370393 15508 net.cpp:112] Top shape: 32 64 14 14 (401408)
I0313 20:13:57.370410 15508 layer_factory.hpp:74] Creating layer inception_4b/pool
I0313 20:13:57.370446 15508 net.cpp:76] Creating Layer inception_4b/pool
I0313 20:13:57.370465 15508 net.cpp:372] inception_4b/pool <- inception_4a/output_inception_4a/output_0_split_4
I0313 20:13:57.370497 15508 net.cpp:334] inception_4b/pool -> inception_4b/pool
I0313 20:13:57.370543 15508 net.cpp:105] Setting up inception_4b/pool
I0313 20:13:57.370581 15508 net.cpp:112] Top shape: 32 512 14 14 (3211264)
I0313 20:13:57.370637 15508 layer_factory.hpp:74] Creating layer inception_4b/pool_proj
I0313 20:13:57.370663 15508 net.cpp:76] Creating Layer inception_4b/pool_proj
I0313 20:13:57.370689 15508 net.cpp:372] inception_4b/pool_proj <- inception_4b/pool
I0313 20:13:57.370719 15508 net.cpp:334] inception_4b/pool_proj -> inception_4b/pool_proj
I0313 20:13:57.370751 15508 net.cpp:105] Setting up inception_4b/pool_proj
I0313 20:13:57.371350 15508 net.cpp:112] Top shape: 32 64 14 14 (401408)
I0313 20:13:57.371386 15508 layer_factory.hpp:74] Creating layer inception_4b/relu_pool_proj
I0313 20:13:57.371408 15508 net.cpp:76] Creating Layer inception_4b/relu_pool_proj
I0313 20:13:57.371425 15508 net.cpp:372] inception_4b/relu_pool_proj <- inception_4b/pool_proj
I0313 20:13:57.371439 15508 net.cpp:323] inception_4b/relu_pool_proj -> inception_4b/pool_proj (in-place)
I0313 20:13:57.371456 15508 net.cpp:105] Setting up inception_4b/relu_pool_proj
I0313 20:13:57.371470 15508 net.cpp:112] Top shape: 32 64 14 14 (401408)
I0313 20:13:57.371484 15508 layer_factory.hpp:74] Creating layer inception_4b/output
I0313 20:13:57.371505 15508 net.cpp:76] Creating Layer inception_4b/output
I0313 20:13:57.371520 15508 net.cpp:372] inception_4b/output <- inception_4b/1x1
I0313 20:13:57.371536 15508 net.cpp:372] inception_4b/output <- inception_4b/3x3
I0313 20:13:57.371554 15508 net.cpp:372] inception_4b/output <- inception_4b/5x5
I0313 20:13:57.371605 15508 net.cpp:372] inception_4b/output <- inception_4b/pool_proj
I0313 20:13:57.371634 15508 net.cpp:334] inception_4b/output -> inception_4b/output
I0313 20:13:57.371659 15508 net.cpp:105] Setting up inception_4b/output
I0313 20:13:57.371687 15508 net.cpp:112] Top shape: 32 512 14 14 (3211264)
I0313 20:13:57.371706 15508 layer_factory.hpp:74] Creating layer inception_4b/output_inception_4b/output_0_split
I0313 20:13:57.371737 15508 net.cpp:76] Creating Layer inception_4b/output_inception_4b/output_0_split
I0313 20:13:57.371757 15508 net.cpp:372] inception_4b/output_inception_4b/output_0_split <- inception_4b/output
I0313 20:13:57.371795 15508 net.cpp:334] inception_4b/output_inception_4b/output_0_split -> inception_4b/output_inception_4b/output_0_split_0
I0313 20:13:57.371829 15508 net.cpp:334] inception_4b/output_inception_4b/output_0_split -> inception_4b/output_inception_4b/output_0_split_1
I0313 20:13:57.371857 15508 net.cpp:334] inception_4b/output_inception_4b/output_0_split -> inception_4b/output_inception_4b/output_0_split_2
I0313 20:13:57.371889 15508 net.cpp:334] inception_4b/output_inception_4b/output_0_split -> inception_4b/output_inception_4b/output_0_split_3
I0313 20:13:57.371924 15508 net.cpp:105] Setting up inception_4b/output_inception_4b/output_0_split
I0313 20:13:57.371958 15508 net.cpp:112] Top shape: 32 512 14 14 (3211264)
I0313 20:13:57.371976 15508 net.cpp:112] Top shape: 32 512 14 14 (3211264)
I0313 20:13:57.372004 15508 net.cpp:112] Top shape: 32 512 14 14 (3211264)
I0313 20:13:57.372022 15508 net.cpp:112] Top shape: 32 512 14 14 (3211264)
I0313 20:13:57.372038 15508 layer_factory.hpp:74] Creating layer inception_4c/1x1
I0313 20:13:57.372074 15508 net.cpp:76] Creating Layer inception_4c/1x1
I0313 20:13:57.372103 15508 net.cpp:372] inception_4c/1x1 <- inception_4b/output_inception_4b/output_0_split_0
I0313 20:13:57.372126 15508 net.cpp:334] inception_4c/1x1 -> inception_4c/1x1
I0313 20:13:57.372158 15508 net.cpp:105] Setting up inception_4c/1x1
I0313 20:13:57.372789 15508 net.cpp:112] Top shape: 32 128 14 14 (802816)
I0313 20:13:57.372822 15508 layer_factory.hpp:74] Creating layer inception_4c/relu_1x1
I0313 20:13:57.372845 15508 net.cpp:76] Creating Layer inception_4c/relu_1x1
I0313 20:13:57.372863 15508 net.cpp:372] inception_4c/relu_1x1 <- inception_4c/1x1
I0313 20:13:57.372884 15508 net.cpp:323] inception_4c/relu_1x1 -> inception_4c/1x1 (in-place)
I0313 20:13:57.372915 15508 net.cpp:105] Setting up inception_4c/relu_1x1
I0313 20:13:57.372933 15508 net.cpp:112] Top shape: 32 128 14 14 (802816)
I0313 20:13:57.372958 15508 layer_factory.hpp:74] Creating layer inception_4c/3x3_reduce
I0313 20:13:57.372994 15508 net.cpp:76] Creating Layer inception_4c/3x3_reduce
I0313 20:13:57.373023 15508 net.cpp:372] inception_4c/3x3_reduce <- inception_4b/output_inception_4b/output_0_split_1
I0313 20:13:57.373046 15508 net.cpp:334] inception_4c/3x3_reduce -> inception_4c/3x3_reduce
I0313 20:13:57.373081 15508 net.cpp:105] Setting up inception_4c/3x3_reduce
I0313 20:13:57.373723 15508 net.cpp:112] Top shape: 32 128 14 14 (802816)
I0313 20:13:57.373757 15508 layer_factory.hpp:74] Creating layer inception_4c/relu_3x3_reduce
I0313 20:13:57.373777 15508 net.cpp:76] Creating Layer inception_4c/relu_3x3_reduce
I0313 20:13:57.373795 15508 net.cpp:372] inception_4c/relu_3x3_reduce <- inception_4c/3x3_reduce
I0313 20:13:57.373817 15508 net.cpp:323] inception_4c/relu_3x3_reduce -> inception_4c/3x3_reduce (in-place)
I0313 20:13:57.373853 15508 net.cpp:105] Setting up inception_4c/relu_3x3_reduce
I0313 20:13:57.373870 15508 net.cpp:112] Top shape: 32 128 14 14 (802816)
I0313 20:13:57.373888 15508 layer_factory.hpp:74] Creating layer inception_4c/3x3
I0313 20:13:57.373908 15508 net.cpp:76] Creating Layer inception_4c/3x3
I0313 20:13:57.373922 15508 net.cpp:372] inception_4c/3x3 <- inception_4c/3x3_reduce
I0313 20:13:57.373946 15508 net.cpp:334] inception_4c/3x3 -> inception_4c/3x3
I0313 20:13:57.373982 15508 net.cpp:105] Setting up inception_4c/3x3
I0313 20:13:57.376556 15508 net.cpp:112] Top shape: 32 256 14 14 (1605632)
I0313 20:13:57.376631 15508 layer_factory.hpp:74] Creating layer inception_4c/relu_3x3
I0313 20:13:57.376672 15508 net.cpp:76] Creating Layer inception_4c/relu_3x3
I0313 20:13:57.376691 15508 net.cpp:372] inception_4c/relu_3x3 <- inception_4c/3x3
I0313 20:13:57.376713 15508 net.cpp:323] inception_4c/relu_3x3 -> inception_4c/3x3 (in-place)
I0313 20:13:57.376731 15508 net.cpp:105] Setting up inception_4c/relu_3x3
I0313 20:13:57.376745 15508 net.cpp:112] Top shape: 32 256 14 14 (1605632)
I0313 20:13:57.376761 15508 layer_factory.hpp:74] Creating layer inception_4c/5x5_reduce
I0313 20:13:57.376804 15508 net.cpp:76] Creating Layer inception_4c/5x5_reduce
I0313 20:13:57.376824 15508 net.cpp:372] inception_4c/5x5_reduce <- inception_4b/output_inception_4b/output_0_split_2
I0313 20:13:57.376849 15508 net.cpp:334] inception_4c/5x5_reduce -> inception_4c/5x5_reduce
I0313 20:13:57.376883 15508 net.cpp:105] Setting up inception_4c/5x5_reduce
I0313 20:13:57.377023 15508 net.cpp:112] Top shape: 32 24 14 14 (150528)
I0313 20:13:57.377058 15508 layer_factory.hpp:74] Creating layer inception_4c/relu_5x5_reduce
I0313 20:13:57.377077 15508 net.cpp:76] Creating Layer inception_4c/relu_5x5_reduce
I0313 20:13:57.377094 15508 net.cpp:372] inception_4c/relu_5x5_reduce <- inception_4c/5x5_reduce
I0313 20:13:57.377112 15508 net.cpp:323] inception_4c/relu_5x5_reduce -> inception_4c/5x5_reduce (in-place)
I0313 20:13:57.377151 15508 net.cpp:105] Setting up inception_4c/relu_5x5_reduce
I0313 20:13:57.377168 15508 net.cpp:112] Top shape: 32 24 14 14 (150528)
I0313 20:13:57.377184 15508 layer_factory.hpp:74] Creating layer inception_4c/5x5
I0313 20:13:57.377204 15508 net.cpp:76] Creating Layer inception_4c/5x5
I0313 20:13:57.377236 15508 net.cpp:372] inception_4c/5x5 <- inception_4c/5x5_reduce
I0313 20:13:57.377266 15508 net.cpp:334] inception_4c/5x5 -> inception_4c/5x5
I0313 20:13:57.377310 15508 net.cpp:105] Setting up inception_4c/5x5
I0313 20:13:57.377689 15508 net.cpp:112] Top shape: 32 64 14 14 (401408)
I0313 20:13:57.377722 15508 layer_factory.hpp:74] Creating layer inception_4c/relu_5x5
I0313 20:13:57.377743 15508 net.cpp:76] Creating Layer inception_4c/relu_5x5
I0313 20:13:57.377759 15508 net.cpp:372] inception_4c/relu_5x5 <- inception_4c/5x5
I0313 20:13:57.377781 15508 net.cpp:323] inception_4c/relu_5x5 -> inception_4c/5x5 (in-place)
I0313 20:13:57.377820 15508 net.cpp:105] Setting up inception_4c/relu_5x5
I0313 20:13:57.377837 15508 net.cpp:112] Top shape: 32 64 14 14 (401408)
I0313 20:13:57.377853 15508 layer_factory.hpp:74] Creating layer inception_4c/pool
I0313 20:13:57.377903 15508 net.cpp:76] Creating Layer inception_4c/pool
I0313 20:13:57.377954 15508 net.cpp:372] inception_4c/pool <- inception_4b/output_inception_4b/output_0_split_3
I0313 20:13:57.377979 15508 net.cpp:334] inception_4c/pool -> inception_4c/pool
I0313 20:13:57.378000 15508 net.cpp:105] Setting up inception_4c/pool
I0313 20:13:57.378033 15508 net.cpp:112] Top shape: 32 512 14 14 (3211264)
I0313 20:13:57.378051 15508 layer_factory.hpp:74] Creating layer inception_4c/pool_proj
I0313 20:13:57.378077 15508 net.cpp:76] Creating Layer inception_4c/pool_proj
I0313 20:13:57.378114 15508 net.cpp:372] inception_4c/pool_proj <- inception_4c/pool
I0313 20:13:57.378139 15508 net.cpp:334] inception_4c/pool_proj -> inception_4c/pool_proj
I0313 20:13:57.378162 15508 net.cpp:105] Setting up inception_4c/pool_proj
I0313 20:13:57.378494 15508 net.cpp:112] Top shape: 32 64 14 14 (401408)
I0313 20:13:57.378525 15508 layer_factory.hpp:74] Creating layer inception_4c/relu_pool_proj
I0313 20:13:57.378546 15508 net.cpp:76] Creating Layer inception_4c/relu_pool_proj
I0313 20:13:57.378564 15508 net.cpp:372] inception_4c/relu_pool_proj <- inception_4c/pool_proj
I0313 20:13:57.378587 15508 net.cpp:323] inception_4c/relu_pool_proj -> inception_4c/pool_proj (in-place)
I0313 20:13:57.378633 15508 net.cpp:105] Setting up inception_4c/relu_pool_proj
I0313 20:13:57.378653 15508 net.cpp:112] Top shape: 32 64 14 14 (401408)
I0313 20:13:57.378669 15508 layer_factory.hpp:74] Creating layer inception_4c/output
I0313 20:13:57.378687 15508 net.cpp:76] Creating Layer inception_4c/output
I0313 20:13:57.378705 15508 net.cpp:372] inception_4c/output <- inception_4c/1x1
I0313 20:13:57.378746 15508 net.cpp:372] inception_4c/output <- inception_4c/3x3
I0313 20:13:57.378767 15508 net.cpp:372] inception_4c/output <- inception_4c/5x5
I0313 20:13:57.378784 15508 net.cpp:372] inception_4c/output <- inception_4c/pool_proj
I0313 20:13:57.378805 15508 net.cpp:334] inception_4c/output -> inception_4c/output
I0313 20:13:57.378846 15508 net.cpp:105] Setting up inception_4c/output
I0313 20:13:57.378866 15508 net.cpp:112] Top shape: 32 512 14 14 (3211264)
I0313 20:13:57.378882 15508 layer_factory.hpp:74] Creating layer inception_4c/output_inception_4c/output_0_split
I0313 20:13:57.378901 15508 net.cpp:76] Creating Layer inception_4c/output_inception_4c/output_0_split
I0313 20:13:57.378914 15508 net.cpp:372] inception_4c/output_inception_4c/output_0_split <- inception_4c/output
I0313 20:13:57.378928 15508 net.cpp:334] inception_4c/output_inception_4c/output_0_split -> inception_4c/output_inception_4c/output_0_split_0
I0313 20:13:57.378944 15508 net.cpp:334] inception_4c/output_inception_4c/output_0_split -> inception_4c/output_inception_4c/output_0_split_1
I0313 20:13:57.378959 15508 net.cpp:334] inception_4c/output_inception_4c/output_0_split -> inception_4c/output_inception_4c/output_0_split_2
I0313 20:13:57.378974 15508 net.cpp:334] inception_4c/output_inception_4c/output_0_split -> inception_4c/output_inception_4c/output_0_split_3
I0313 20:13:57.378988 15508 net.cpp:105] Setting up inception_4c/output_inception_4c/output_0_split
I0313 20:13:57.378999 15508 net.cpp:112] Top shape: 32 512 14 14 (3211264)
I0313 20:13:57.379009 15508 net.cpp:112] Top shape: 32 512 14 14 (3211264)
I0313 20:13:57.379019 15508 net.cpp:112] Top shape: 32 512 14 14 (3211264)
I0313 20:13:57.379029 15508 net.cpp:112] Top shape: 32 512 14 14 (3211264)
I0313 20:13:57.379039 15508 layer_factory.hpp:74] Creating layer inception_4d/1x1
I0313 20:13:57.379057 15508 net.cpp:76] Creating Layer inception_4d/1x1
I0313 20:13:57.379070 15508 net.cpp:372] inception_4d/1x1 <- inception_4c/output_inception_4c/output_0_split_0
I0313 20:13:57.379086 15508 net.cpp:334] inception_4d/1x1 -> inception_4d/1x1
I0313 20:13:57.379106 15508 net.cpp:105] Setting up inception_4d/1x1
I0313 20:13:57.379647 15508 net.cpp:112] Top shape: 32 112 14 14 (702464)
I0313 20:13:57.379683 15508 layer_factory.hpp:74] Creating layer inception_4d/relu_1x1
I0313 20:13:57.379706 15508 net.cpp:76] Creating Layer inception_4d/relu_1x1
I0313 20:13:57.379734 15508 net.cpp:372] inception_4d/relu_1x1 <- inception_4d/1x1
I0313 20:13:57.379775 15508 net.cpp:323] inception_4d/relu_1x1 -> inception_4d/1x1 (in-place)
I0313 20:13:57.379797 15508 net.cpp:105] Setting up inception_4d/relu_1x1
I0313 20:13:57.379815 15508 net.cpp:112] Top shape: 32 112 14 14 (702464)
I0313 20:13:57.379830 15508 layer_factory.hpp:74] Creating layer inception_4d/3x3_reduce
I0313 20:13:57.379879 15508 net.cpp:76] Creating Layer inception_4d/3x3_reduce
I0313 20:13:57.379900 15508 net.cpp:372] inception_4d/3x3_reduce <- inception_4c/output_inception_4c/output_0_split_1
I0313 20:13:57.379923 15508 net.cpp:334] inception_4d/3x3_reduce -> inception_4d/3x3_reduce
I0313 20:13:57.379966 15508 net.cpp:105] Setting up inception_4d/3x3_reduce
I0313 20:13:57.380642 15508 net.cpp:112] Top shape: 32 144 14 14 (903168)
I0313 20:13:57.380676 15508 layer_factory.hpp:74] Creating layer inception_4d/relu_3x3_reduce
I0313 20:13:57.380702 15508 net.cpp:76] Creating Layer inception_4d/relu_3x3_reduce
I0313 20:13:57.380720 15508 net.cpp:372] inception_4d/relu_3x3_reduce <- inception_4d/3x3_reduce
I0313 20:13:57.380739 15508 net.cpp:323] inception_4d/relu_3x3_reduce -> inception_4d/3x3_reduce (in-place)
I0313 20:13:57.380779 15508 net.cpp:105] Setting up inception_4d/relu_3x3_reduce
I0313 20:13:57.380798 15508 net.cpp:112] Top shape: 32 144 14 14 (903168)
I0313 20:13:57.380815 15508 layer_factory.hpp:74] Creating layer inception_4d/3x3
I0313 20:13:57.380834 15508 net.cpp:76] Creating Layer inception_4d/3x3
I0313 20:13:57.380870 15508 net.cpp:372] inception_4d/3x3 <- inception_4d/3x3_reduce
I0313 20:13:57.380897 15508 net.cpp:334] inception_4d/3x3 -> inception_4d/3x3
I0313 20:13:57.380944 15508 net.cpp:105] Setting up inception_4d/3x3
I0313 20:13:57.384168 15508 net.cpp:112] Top shape: 32 288 14 14 (1806336)
I0313 20:13:57.384203 15508 layer_factory.hpp:74] Creating layer inception_4d/relu_3x3
I0313 20:13:57.384284 15508 net.cpp:76] Creating Layer inception_4d/relu_3x3
I0313 20:13:57.384330 15508 net.cpp:372] inception_4d/relu_3x3 <- inception_4d/3x3
I0313 20:13:57.384353 15508 net.cpp:323] inception_4d/relu_3x3 -> inception_4d/3x3 (in-place)
I0313 20:13:57.384376 15508 net.cpp:105] Setting up inception_4d/relu_3x3
I0313 20:13:57.384413 15508 net.cpp:112] Top shape: 32 288 14 14 (1806336)
I0313 20:13:57.384433 15508 layer_factory.hpp:74] Creating layer inception_4d/5x5_reduce
I0313 20:13:57.384456 15508 net.cpp:76] Creating Layer inception_4d/5x5_reduce
I0313 20:13:57.384470 15508 net.cpp:372] inception_4d/5x5_reduce <- inception_4c/output_inception_4c/output_0_split_2
I0313 20:13:57.384495 15508 net.cpp:334] inception_4d/5x5_reduce -> inception_4d/5x5_reduce
I0313 20:13:57.384533 15508 net.cpp:105] Setting up inception_4d/5x5_reduce
I0313 20:13:57.384726 15508 net.cpp:112] Top shape: 32 32 14 14 (200704)
I0313 20:13:57.384755 15508 layer_factory.hpp:74] Creating layer inception_4d/relu_5x5_reduce
I0313 20:13:57.384776 15508 net.cpp:76] Creating Layer inception_4d/relu_5x5_reduce
I0313 20:13:57.384794 15508 net.cpp:372] inception_4d/relu_5x5_reduce <- inception_4d/5x5_reduce
I0313 20:13:57.384812 15508 net.cpp:323] inception_4d/relu_5x5_reduce -> inception_4d/5x5_reduce (in-place)
I0313 20:13:57.384855 15508 net.cpp:105] Setting up inception_4d/relu_5x5_reduce
I0313 20:13:57.384872 15508 net.cpp:112] Top shape: 32 32 14 14 (200704)
I0313 20:13:57.384888 15508 layer_factory.hpp:74] Creating layer inception_4d/5x5
I0313 20:13:57.384934 15508 net.cpp:76] Creating Layer inception_4d/5x5
I0313 20:13:57.384954 15508 net.cpp:372] inception_4d/5x5 <- inception_4d/5x5_reduce
I0313 20:13:57.384976 15508 net.cpp:334] inception_4d/5x5 -> inception_4d/5x5
I0313 20:13:57.385015 15508 net.cpp:105] Setting up inception_4d/5x5
I0313 20:13:57.385484 15508 net.cpp:112] Top shape: 32 64 14 14 (401408)
I0313 20:13:57.385517 15508 layer_factory.hpp:74] Creating layer inception_4d/relu_5x5
I0313 20:13:57.385537 15508 net.cpp:76] Creating Layer inception_4d/relu_5x5
I0313 20:13:57.385553 15508 net.cpp:372] inception_4d/relu_5x5 <- inception_4d/5x5
I0313 20:13:57.385624 15508 net.cpp:323] inception_4d/relu_5x5 -> inception_4d/5x5 (in-place)
I0313 20:13:57.385651 15508 net.cpp:105] Setting up inception_4d/relu_5x5
I0313 20:13:57.385668 15508 net.cpp:112] Top shape: 32 64 14 14 (401408)
I0313 20:13:57.385684 15508 layer_factory.hpp:74] Creating layer inception_4d/pool
I0313 20:13:57.385725 15508 net.cpp:76] Creating Layer inception_4d/pool
I0313 20:13:57.385745 15508 net.cpp:372] inception_4d/pool <- inception_4c/output_inception_4c/output_0_split_3
I0313 20:13:57.385766 15508 net.cpp:334] inception_4d/pool -> inception_4d/pool
I0313 20:13:57.385809 15508 net.cpp:105] Setting up inception_4d/pool
I0313 20:13:57.385831 15508 net.cpp:112] Top shape: 32 512 14 14 (3211264)
I0313 20:13:57.385869 15508 layer_factory.hpp:74] Creating layer inception_4d/pool_proj
I0313 20:13:57.385898 15508 net.cpp:76] Creating Layer inception_4d/pool_proj
I0313 20:13:57.385937 15508 net.cpp:372] inception_4d/pool_proj <- inception_4d/pool
I0313 20:13:57.385962 15508 net.cpp:334] inception_4d/pool_proj -> inception_4d/pool_proj
I0313 20:13:57.385987 15508 net.cpp:105] Setting up inception_4d/pool_proj
I0313 20:13:57.386322 15508 net.cpp:112] Top shape: 32 64 14 14 (401408)
I0313 20:13:57.386356 15508 layer_factory.hpp:74] Creating layer inception_4d/relu_pool_proj
I0313 20:13:57.386379 15508 net.cpp:76] Creating Layer inception_4d/relu_pool_proj
I0313 20:13:57.386395 15508 net.cpp:372] inception_4d/relu_pool_proj <- inception_4d/pool_proj
I0313 20:13:57.386415 15508 net.cpp:323] inception_4d/relu_pool_proj -> inception_4d/pool_proj (in-place)
I0313 20:13:57.386436 15508 net.cpp:105] Setting up inception_4d/relu_pool_proj
I0313 20:13:57.386471 15508 net.cpp:112] Top shape: 32 64 14 14 (401408)
I0313 20:13:57.386489 15508 layer_factory.hpp:74] Creating layer inception_4d/output
I0313 20:13:57.386509 15508 net.cpp:76] Creating Layer inception_4d/output
I0313 20:13:57.386526 15508 net.cpp:372] inception_4d/output <- inception_4d/1x1
I0313 20:13:57.386581 15508 net.cpp:372] inception_4d/output <- inception_4d/3x3
I0313 20:13:57.386621 15508 net.cpp:372] inception_4d/output <- inception_4d/5x5
I0313 20:13:57.386641 15508 net.cpp:372] inception_4d/output <- inception_4d/pool_proj
I0313 20:13:57.386658 15508 net.cpp:334] inception_4d/output -> inception_4d/output
I0313 20:13:57.386677 15508 net.cpp:105] Setting up inception_4d/output
I0313 20:13:57.386716 15508 net.cpp:112] Top shape: 32 528 14 14 (3311616)
I0313 20:13:57.386735 15508 layer_factory.hpp:74] Creating layer inception_4d/output_inception_4d/output_0_split
I0313 20:13:57.386760 15508 net.cpp:76] Creating Layer inception_4d/output_inception_4d/output_0_split
I0313 20:13:57.386795 15508 net.cpp:372] inception_4d/output_inception_4d/output_0_split <- inception_4d/output
I0313 20:13:57.386816 15508 net.cpp:334] inception_4d/output_inception_4d/output_0_split -> inception_4d/output_inception_4d/output_0_split_0
I0313 20:13:57.386840 15508 net.cpp:334] inception_4d/output_inception_4d/output_0_split -> inception_4d/output_inception_4d/output_0_split_1
I0313 20:13:57.386885 15508 net.cpp:334] inception_4d/output_inception_4d/output_0_split -> inception_4d/output_inception_4d/output_0_split_2
I0313 20:13:57.386914 15508 net.cpp:334] inception_4d/output_inception_4d/output_0_split -> inception_4d/output_inception_4d/output_0_split_3
I0313 20:13:57.386946 15508 net.cpp:334] inception_4d/output_inception_4d/output_0_split -> inception_4d/output_inception_4d/output_0_split_4
I0313 20:13:57.386970 15508 net.cpp:105] Setting up inception_4d/output_inception_4d/output_0_split
I0313 20:13:57.387009 15508 net.cpp:112] Top shape: 32 528 14 14 (3311616)
I0313 20:13:57.387027 15508 net.cpp:112] Top shape: 32 528 14 14 (3311616)
I0313 20:13:57.387042 15508 net.cpp:112] Top shape: 32 528 14 14 (3311616)
I0313 20:13:57.387055 15508 net.cpp:112] Top shape: 32 528 14 14 (3311616)
I0313 20:13:57.387069 15508 net.cpp:112] Top shape: 32 528 14 14 (3311616)
I0313 20:13:57.387106 15508 layer_factory.hpp:74] Creating layer loss2/ave_pool
I0313 20:13:57.387137 15508 net.cpp:76] Creating Layer loss2/ave_pool
I0313 20:13:57.387176 15508 net.cpp:372] loss2/ave_pool <- inception_4d/output_inception_4d/output_0_split_0
I0313 20:13:57.387202 15508 net.cpp:334] loss2/ave_pool -> loss2/ave_pool
I0313 20:13:57.387225 15508 net.cpp:105] Setting up loss2/ave_pool
I0313 20:13:57.387261 15508 net.cpp:112] Top shape: 32 528 4 4 (270336)
I0313 20:13:57.387280 15508 layer_factory.hpp:74] Creating layer loss2/conv
I0313 20:13:57.387301 15508 net.cpp:76] Creating Layer loss2/conv
I0313 20:13:57.387339 15508 net.cpp:372] loss2/conv <- loss2/ave_pool
I0313 20:13:57.387367 15508 net.cpp:334] loss2/conv -> loss2/conv
I0313 20:13:57.387390 15508 net.cpp:105] Setting up loss2/conv
I0313 20:13:57.388074 15508 net.cpp:112] Top shape: 32 128 4 4 (65536)
I0313 20:13:57.388109 15508 layer_factory.hpp:74] Creating layer loss2/relu_conv
I0313 20:13:57.388134 15508 net.cpp:76] Creating Layer loss2/relu_conv
I0313 20:13:57.388150 15508 net.cpp:372] loss2/relu_conv <- loss2/conv
I0313 20:13:57.388169 15508 net.cpp:323] loss2/relu_conv -> loss2/conv (in-place)
I0313 20:13:57.388190 15508 net.cpp:105] Setting up loss2/relu_conv
I0313 20:13:57.388223 15508 net.cpp:112] Top shape: 32 128 4 4 (65536)
I0313 20:13:57.388242 15508 layer_factory.hpp:74] Creating layer loss2/fc
I0313 20:13:57.388264 15508 net.cpp:76] Creating Layer loss2/fc
I0313 20:13:57.388305 15508 net.cpp:372] loss2/fc <- loss2/conv
I0313 20:13:57.388329 15508 net.cpp:334] loss2/fc -> loss2/fc
I0313 20:13:57.388353 15508 net.cpp:105] Setting up loss2/fc
I0313 20:13:57.407006 15508 net.cpp:112] Top shape: 32 1024 1 1 (32768)
I0313 20:13:57.407074 15508 layer_factory.hpp:74] Creating layer loss2/relu_fc
I0313 20:13:57.407104 15508 net.cpp:76] Creating Layer loss2/relu_fc
I0313 20:13:57.407124 15508 net.cpp:372] loss2/relu_fc <- loss2/fc
I0313 20:13:57.407150 15508 net.cpp:323] loss2/relu_fc -> loss2/fc (in-place)
I0313 20:13:57.407176 15508 net.cpp:105] Setting up loss2/relu_fc
I0313 20:13:57.407192 15508 net.cpp:112] Top shape: 32 1024 1 1 (32768)
I0313 20:13:57.407207 15508 layer_factory.hpp:74] Creating layer loss2/drop_fc
I0313 20:13:57.407228 15508 net.cpp:76] Creating Layer loss2/drop_fc
I0313 20:13:57.407265 15508 net.cpp:372] loss2/drop_fc <- loss2/fc
I0313 20:13:57.407291 15508 net.cpp:323] loss2/drop_fc -> loss2/fc (in-place)
I0313 20:13:57.407316 15508 net.cpp:105] Setting up loss2/drop_fc
I0313 20:13:57.407353 15508 net.cpp:112] Top shape: 32 1024 1 1 (32768)
I0313 20:13:57.407373 15508 layer_factory.hpp:74] Creating layer loss2/classifier
I0313 20:13:57.407397 15508 net.cpp:76] Creating Layer loss2/classifier
I0313 20:13:57.407431 15508 net.cpp:372] loss2/classifier <- loss2/fc
I0313 20:13:57.407456 15508 net.cpp:334] loss2/classifier -> loss2/classifier
I0313 20:13:57.407484 15508 net.cpp:105] Setting up loss2/classifier
I0313 20:13:57.417629 15508 net.cpp:112] Top shape: 32 1000 1 1 (32000)
I0313 20:13:57.417701 15508 layer_factory.hpp:74] Creating layer loss2/loss
I0313 20:13:57.417732 15508 net.cpp:76] Creating Layer loss2/loss
I0313 20:13:57.417752 15508 net.cpp:372] loss2/loss <- loss2/classifier
I0313 20:13:57.417770 15508 net.cpp:372] loss2/loss <- label_data_1_split_1
I0313 20:13:57.417789 15508 net.cpp:334] loss2/loss -> loss2/loss1
I0313 20:13:57.417845 15508 net.cpp:105] Setting up loss2/loss
I0313 20:13:57.417870 15508 layer_factory.hpp:74] Creating layer loss2/loss
I0313 20:13:57.418005 15508 net.cpp:112] Top shape: 1 1 1 1 (1)
I0313 20:13:57.418031 15508 net.cpp:118]     with loss weight 0.3
I0313 20:13:57.418071 15508 layer_factory.hpp:74] Creating layer inception_4e/1x1
I0313 20:13:57.418122 15508 net.cpp:76] Creating Layer inception_4e/1x1
I0313 20:13:57.418149 15508 net.cpp:372] inception_4e/1x1 <- inception_4d/output_inception_4d/output_0_split_1
I0313 20:13:57.418198 15508 net.cpp:334] inception_4e/1x1 -> inception_4e/1x1
I0313 20:13:57.418251 15508 net.cpp:105] Setting up inception_4e/1x1
I0313 20:13:57.419715 15508 net.cpp:112] Top shape: 32 256 14 14 (1605632)
I0313 20:13:57.419772 15508 layer_factory.hpp:74] Creating layer inception_4e/relu_1x1
I0313 20:13:57.419816 15508 net.cpp:76] Creating Layer inception_4e/relu_1x1
I0313 20:13:57.419836 15508 net.cpp:372] inception_4e/relu_1x1 <- inception_4e/1x1
I0313 20:13:57.419875 15508 net.cpp:323] inception_4e/relu_1x1 -> inception_4e/1x1 (in-place)
I0313 20:13:57.419914 15508 net.cpp:105] Setting up inception_4e/relu_1x1
I0313 20:13:57.419947 15508 net.cpp:112] Top shape: 32 256 14 14 (1605632)
I0313 20:13:57.419966 15508 layer_factory.hpp:74] Creating layer inception_4e/3x3_reduce
I0313 20:13:57.419986 15508 net.cpp:76] Creating Layer inception_4e/3x3_reduce
I0313 20:13:57.420003 15508 net.cpp:372] inception_4e/3x3_reduce <- inception_4d/output_inception_4d/output_0_split_2
I0313 20:13:57.420028 15508 net.cpp:334] inception_4e/3x3_reduce -> inception_4e/3x3_reduce
I0313 20:13:57.420063 15508 net.cpp:105] Setting up inception_4e/3x3_reduce
I0313 20:13:57.420858 15508 net.cpp:112] Top shape: 32 160 14 14 (1003520)
I0313 20:13:57.420893 15508 layer_factory.hpp:74] Creating layer inception_4e/relu_3x3_reduce
I0313 20:13:57.420915 15508 net.cpp:76] Creating Layer inception_4e/relu_3x3_reduce
I0313 20:13:57.420933 15508 net.cpp:372] inception_4e/relu_3x3_reduce <- inception_4e/3x3_reduce
I0313 20:13:57.420948 15508 net.cpp:323] inception_4e/relu_3x3_reduce -> inception_4e/3x3_reduce (in-place)
I0313 20:13:57.420969 15508 net.cpp:105] Setting up inception_4e/relu_3x3_reduce
I0313 20:13:57.420999 15508 net.cpp:112] Top shape: 32 160 14 14 (1003520)
I0313 20:13:57.421017 15508 layer_factory.hpp:74] Creating layer inception_4e/3x3
I0313 20:13:57.421043 15508 net.cpp:76] Creating Layer inception_4e/3x3
I0313 20:13:57.421068 15508 net.cpp:372] inception_4e/3x3 <- inception_4e/3x3_reduce
I0313 20:13:57.421090 15508 net.cpp:334] inception_4e/3x3 -> inception_4e/3x3
I0313 20:13:57.421115 15508 net.cpp:105] Setting up inception_4e/3x3
I0313 20:13:57.425194 15508 net.cpp:112] Top shape: 32 320 14 14 (2007040)
I0313 20:13:57.425235 15508 layer_factory.hpp:74] Creating layer inception_4e/relu_3x3
I0313 20:13:57.425258 15508 net.cpp:76] Creating Layer inception_4e/relu_3x3
I0313 20:13:57.425276 15508 net.cpp:372] inception_4e/relu_3x3 <- inception_4e/3x3
I0313 20:13:57.425297 15508 net.cpp:323] inception_4e/relu_3x3 -> inception_4e/3x3 (in-place)
I0313 20:13:57.425319 15508 net.cpp:105] Setting up inception_4e/relu_3x3
I0313 20:13:57.425334 15508 net.cpp:112] Top shape: 32 320 14 14 (2007040)
I0313 20:13:57.425348 15508 layer_factory.hpp:74] Creating layer inception_4e/5x5_reduce
I0313 20:13:57.425374 15508 net.cpp:76] Creating Layer inception_4e/5x5_reduce
I0313 20:13:57.425400 15508 net.cpp:372] inception_4e/5x5_reduce <- inception_4d/output_inception_4d/output_0_split_3
I0313 20:13:57.425426 15508 net.cpp:334] inception_4e/5x5_reduce -> inception_4e/5x5_reduce
I0313 20:13:57.425463 15508 net.cpp:105] Setting up inception_4e/5x5_reduce
I0313 20:13:57.425662 15508 net.cpp:112] Top shape: 32 32 14 14 (200704)
I0313 20:13:57.425693 15508 layer_factory.hpp:74] Creating layer inception_4e/relu_5x5_reduce
I0313 20:13:57.425714 15508 net.cpp:76] Creating Layer inception_4e/relu_5x5_reduce
I0313 20:13:57.425745 15508 net.cpp:372] inception_4e/relu_5x5_reduce <- inception_4e/5x5_reduce
I0313 20:13:57.425766 15508 net.cpp:323] inception_4e/relu_5x5_reduce -> inception_4e/5x5_reduce (in-place)
I0313 20:13:57.425791 15508 net.cpp:105] Setting up inception_4e/relu_5x5_reduce
I0313 20:13:57.425817 15508 net.cpp:112] Top shape: 32 32 14 14 (200704)
I0313 20:13:57.425834 15508 layer_factory.hpp:74] Creating layer inception_4e/5x5
I0313 20:13:57.425886 15508 net.cpp:76] Creating Layer inception_4e/5x5
I0313 20:13:57.425910 15508 net.cpp:372] inception_4e/5x5 <- inception_4e/5x5_reduce
I0313 20:13:57.425933 15508 net.cpp:334] inception_4e/5x5 -> inception_4e/5x5
I0313 20:13:57.425958 15508 net.cpp:105] Setting up inception_4e/5x5
I0313 20:13:57.427042 15508 net.cpp:112] Top shape: 32 128 14 14 (802816)
I0313 20:13:57.427081 15508 layer_factory.hpp:74] Creating layer inception_4e/relu_5x5
I0313 20:13:57.427112 15508 net.cpp:76] Creating Layer inception_4e/relu_5x5
I0313 20:13:57.427139 15508 net.cpp:372] inception_4e/relu_5x5 <- inception_4e/5x5
I0313 20:13:57.427157 15508 net.cpp:323] inception_4e/relu_5x5 -> inception_4e/5x5 (in-place)
I0313 20:13:57.427175 15508 net.cpp:105] Setting up inception_4e/relu_5x5
I0313 20:13:57.427192 15508 net.cpp:112] Top shape: 32 128 14 14 (802816)
I0313 20:13:57.427207 15508 layer_factory.hpp:74] Creating layer inception_4e/pool
I0313 20:13:57.427225 15508 net.cpp:76] Creating Layer inception_4e/pool
I0313 20:13:57.427238 15508 net.cpp:372] inception_4e/pool <- inception_4d/output_inception_4d/output_0_split_4
I0313 20:13:57.427254 15508 net.cpp:334] inception_4e/pool -> inception_4e/pool
I0313 20:13:57.427275 15508 net.cpp:105] Setting up inception_4e/pool
I0313 20:13:57.427295 15508 net.cpp:112] Top shape: 32 528 14 14 (3311616)
I0313 20:13:57.427309 15508 layer_factory.hpp:74] Creating layer inception_4e/pool_proj
I0313 20:13:57.427332 15508 net.cpp:76] Creating Layer inception_4e/pool_proj
I0313 20:13:57.427348 15508 net.cpp:372] inception_4e/pool_proj <- inception_4e/pool
I0313 20:13:57.427371 15508 net.cpp:334] inception_4e/pool_proj -> inception_4e/pool_proj
I0313 20:13:57.427398 15508 net.cpp:105] Setting up inception_4e/pool_proj
I0313 20:13:57.428237 15508 net.cpp:112] Top shape: 32 128 14 14 (802816)
I0313 20:13:57.428282 15508 layer_factory.hpp:74] Creating layer inception_4e/relu_pool_proj
I0313 20:13:57.428308 15508 net.cpp:76] Creating Layer inception_4e/relu_pool_proj
I0313 20:13:57.428329 15508 net.cpp:372] inception_4e/relu_pool_proj <- inception_4e/pool_proj
I0313 20:13:57.428349 15508 net.cpp:323] inception_4e/relu_pool_proj -> inception_4e/pool_proj (in-place)
I0313 20:13:57.428372 15508 net.cpp:105] Setting up inception_4e/relu_pool_proj
I0313 20:13:57.428386 15508 net.cpp:112] Top shape: 32 128 14 14 (802816)
I0313 20:13:57.428400 15508 layer_factory.hpp:74] Creating layer inception_4e/output
I0313 20:13:57.428419 15508 net.cpp:76] Creating Layer inception_4e/output
I0313 20:13:57.428438 15508 net.cpp:372] inception_4e/output <- inception_4e/1x1
I0313 20:13:57.428467 15508 net.cpp:372] inception_4e/output <- inception_4e/3x3
I0313 20:13:57.428490 15508 net.cpp:372] inception_4e/output <- inception_4e/5x5
I0313 20:13:57.428508 15508 net.cpp:372] inception_4e/output <- inception_4e/pool_proj
I0313 20:13:57.428524 15508 net.cpp:334] inception_4e/output -> inception_4e/output
I0313 20:13:57.428550 15508 net.cpp:105] Setting up inception_4e/output
I0313 20:13:57.428570 15508 net.cpp:112] Top shape: 32 832 14 14 (5218304)
I0313 20:13:57.428583 15508 layer_factory.hpp:74] Creating layer pool4/3x3_s2
I0313 20:13:57.428596 15508 net.cpp:76] Creating Layer pool4/3x3_s2
I0313 20:13:57.428637 15508 net.cpp:372] pool4/3x3_s2 <- inception_4e/output
I0313 20:13:57.428661 15508 net.cpp:334] pool4/3x3_s2 -> pool4/3x3_s2
I0313 20:13:57.428688 15508 net.cpp:105] Setting up pool4/3x3_s2
I0313 20:13:57.428709 15508 net.cpp:112] Top shape: 32 832 7 7 (1304576)
I0313 20:13:57.428731 15508 layer_factory.hpp:74] Creating layer pool4/3x3_s2_pool4/3x3_s2_0_split
I0313 20:13:57.428748 15508 net.cpp:76] Creating Layer pool4/3x3_s2_pool4/3x3_s2_0_split
I0313 20:13:57.428766 15508 net.cpp:372] pool4/3x3_s2_pool4/3x3_s2_0_split <- pool4/3x3_s2
I0313 20:13:57.428781 15508 net.cpp:334] pool4/3x3_s2_pool4/3x3_s2_0_split -> pool4/3x3_s2_pool4/3x3_s2_0_split_0
I0313 20:13:57.428809 15508 net.cpp:334] pool4/3x3_s2_pool4/3x3_s2_0_split -> pool4/3x3_s2_pool4/3x3_s2_0_split_1
I0313 20:13:57.428834 15508 net.cpp:334] pool4/3x3_s2_pool4/3x3_s2_0_split -> pool4/3x3_s2_pool4/3x3_s2_0_split_2
I0313 20:13:57.428859 15508 net.cpp:334] pool4/3x3_s2_pool4/3x3_s2_0_split -> pool4/3x3_s2_pool4/3x3_s2_0_split_3
I0313 20:13:57.428884 15508 net.cpp:105] Setting up pool4/3x3_s2_pool4/3x3_s2_0_split
I0313 20:13:57.428905 15508 net.cpp:112] Top shape: 32 832 7 7 (1304576)
I0313 20:13:57.428918 15508 net.cpp:112] Top shape: 32 832 7 7 (1304576)
I0313 20:13:57.428930 15508 net.cpp:112] Top shape: 32 832 7 7 (1304576)
I0313 20:13:57.428954 15508 net.cpp:112] Top shape: 32 832 7 7 (1304576)
I0313 20:13:57.428998 15508 layer_factory.hpp:74] Creating layer inception_5a/1x1
I0313 20:13:57.429024 15508 net.cpp:76] Creating Layer inception_5a/1x1
I0313 20:13:57.429038 15508 net.cpp:372] inception_5a/1x1 <- pool4/3x3_s2_pool4/3x3_s2_0_split_0
I0313 20:13:57.429066 15508 net.cpp:334] inception_5a/1x1 -> inception_5a/1x1
I0313 20:13:57.429083 15508 net.cpp:105] Setting up inception_5a/1x1
I0313 20:13:57.431371 15508 net.cpp:112] Top shape: 32 256 7 7 (401408)
I0313 20:13:57.431404 15508 layer_factory.hpp:74] Creating layer inception_5a/relu_1x1
I0313 20:13:57.431417 15508 net.cpp:76] Creating Layer inception_5a/relu_1x1
I0313 20:13:57.431426 15508 net.cpp:372] inception_5a/relu_1x1 <- inception_5a/1x1
I0313 20:13:57.431437 15508 net.cpp:323] inception_5a/relu_1x1 -> inception_5a/1x1 (in-place)
I0313 20:13:57.431447 15508 net.cpp:105] Setting up inception_5a/relu_1x1
I0313 20:13:57.431454 15508 net.cpp:112] Top shape: 32 256 7 7 (401408)
I0313 20:13:57.431462 15508 layer_factory.hpp:74] Creating layer inception_5a/3x3_reduce
I0313 20:13:57.431478 15508 net.cpp:76] Creating Layer inception_5a/3x3_reduce
I0313 20:13:57.431493 15508 net.cpp:372] inception_5a/3x3_reduce <- pool4/3x3_s2_pool4/3x3_s2_0_split_1
I0313 20:13:57.431507 15508 net.cpp:334] inception_5a/3x3_reduce -> inception_5a/3x3_reduce
I0313 20:13:57.431519 15508 net.cpp:105] Setting up inception_5a/3x3_reduce
I0313 20:13:57.432798 15508 net.cpp:112] Top shape: 32 160 7 7 (250880)
I0313 20:13:57.432832 15508 layer_factory.hpp:74] Creating layer inception_5a/relu_3x3_reduce
I0313 20:13:57.432847 15508 net.cpp:76] Creating Layer inception_5a/relu_3x3_reduce
I0313 20:13:57.432857 15508 net.cpp:372] inception_5a/relu_3x3_reduce <- inception_5a/3x3_reduce
I0313 20:13:57.432865 15508 net.cpp:323] inception_5a/relu_3x3_reduce -> inception_5a/3x3_reduce (in-place)
I0313 20:13:57.432875 15508 net.cpp:105] Setting up inception_5a/relu_3x3_reduce
I0313 20:13:57.432883 15508 net.cpp:112] Top shape: 32 160 7 7 (250880)
I0313 20:13:57.432889 15508 layer_factory.hpp:74] Creating layer inception_5a/3x3
I0313 20:13:57.432903 15508 net.cpp:76] Creating Layer inception_5a/3x3
I0313 20:13:57.432909 15508 net.cpp:372] inception_5a/3x3 <- inception_5a/3x3_reduce
I0313 20:13:57.432919 15508 net.cpp:334] inception_5a/3x3 -> inception_5a/3x3
I0313 20:13:57.432929 15508 net.cpp:105] Setting up inception_5a/3x3
I0313 20:13:57.438102 15508 net.cpp:112] Top shape: 32 320 7 7 (501760)
I0313 20:13:57.438143 15508 layer_factory.hpp:74] Creating layer inception_5a/relu_3x3
I0313 20:13:57.438158 15508 net.cpp:76] Creating Layer inception_5a/relu_3x3
I0313 20:13:57.438169 15508 net.cpp:372] inception_5a/relu_3x3 <- inception_5a/3x3
I0313 20:13:57.438181 15508 net.cpp:323] inception_5a/relu_3x3 -> inception_5a/3x3 (in-place)
I0313 20:13:57.438194 15508 net.cpp:105] Setting up inception_5a/relu_3x3
I0313 20:13:57.438200 15508 net.cpp:112] Top shape: 32 320 7 7 (501760)
I0313 20:13:57.438208 15508 layer_factory.hpp:74] Creating layer inception_5a/5x5_reduce
I0313 20:13:57.438220 15508 net.cpp:76] Creating Layer inception_5a/5x5_reduce
I0313 20:13:57.438230 15508 net.cpp:372] inception_5a/5x5_reduce <- pool4/3x3_s2_pool4/3x3_s2_0_split_2
I0313 20:13:57.438242 15508 net.cpp:334] inception_5a/5x5_reduce -> inception_5a/5x5_reduce
I0313 20:13:57.438261 15508 net.cpp:105] Setting up inception_5a/5x5_reduce
I0313 20:13:57.438519 15508 net.cpp:112] Top shape: 32 32 7 7 (50176)
I0313 20:13:57.438546 15508 layer_factory.hpp:74] Creating layer inception_5a/relu_5x5_reduce
I0313 20:13:57.438560 15508 net.cpp:76] Creating Layer inception_5a/relu_5x5_reduce
I0313 20:13:57.438575 15508 net.cpp:372] inception_5a/relu_5x5_reduce <- inception_5a/5x5_reduce
I0313 20:13:57.438585 15508 net.cpp:323] inception_5a/relu_5x5_reduce -> inception_5a/5x5_reduce (in-place)
I0313 20:13:57.438596 15508 net.cpp:105] Setting up inception_5a/relu_5x5_reduce
I0313 20:13:57.438622 15508 net.cpp:112] Top shape: 32 32 7 7 (50176)
I0313 20:13:57.438639 15508 layer_factory.hpp:74] Creating layer inception_5a/5x5
I0313 20:13:57.438665 15508 net.cpp:76] Creating Layer inception_5a/5x5
I0313 20:13:57.438674 15508 net.cpp:372] inception_5a/5x5 <- inception_5a/5x5_reduce
I0313 20:13:57.438693 15508 net.cpp:334] inception_5a/5x5 -> inception_5a/5x5
I0313 20:13:57.438711 15508 net.cpp:105] Setting up inception_5a/5x5
I0313 20:13:57.439685 15508 net.cpp:112] Top shape: 32 128 7 7 (200704)
I0313 20:13:57.439717 15508 layer_factory.hpp:74] Creating layer inception_5a/relu_5x5
I0313 20:13:57.439729 15508 net.cpp:76] Creating Layer inception_5a/relu_5x5
I0313 20:13:57.439738 15508 net.cpp:372] inception_5a/relu_5x5 <- inception_5a/5x5
I0313 20:13:57.439748 15508 net.cpp:323] inception_5a/relu_5x5 -> inception_5a/5x5 (in-place)
I0313 20:13:57.439756 15508 net.cpp:105] Setting up inception_5a/relu_5x5
I0313 20:13:57.439764 15508 net.cpp:112] Top shape: 32 128 7 7 (200704)
I0313 20:13:57.439770 15508 layer_factory.hpp:74] Creating layer inception_5a/pool
I0313 20:13:57.439779 15508 net.cpp:76] Creating Layer inception_5a/pool
I0313 20:13:57.439793 15508 net.cpp:372] inception_5a/pool <- pool4/3x3_s2_pool4/3x3_s2_0_split_3
I0313 20:13:57.439807 15508 net.cpp:334] inception_5a/pool -> inception_5a/pool
I0313 20:13:57.439818 15508 net.cpp:105] Setting up inception_5a/pool
I0313 20:13:57.439834 15508 net.cpp:112] Top shape: 32 832 7 7 (1304576)
I0313 20:13:57.439843 15508 layer_factory.hpp:74] Creating layer inception_5a/pool_proj
I0313 20:13:57.439860 15508 net.cpp:76] Creating Layer inception_5a/pool_proj
I0313 20:13:57.439877 15508 net.cpp:372] inception_5a/pool_proj <- inception_5a/pool
I0313 20:13:57.439888 15508 net.cpp:334] inception_5a/pool_proj -> inception_5a/pool_proj
I0313 20:13:57.439904 15508 net.cpp:105] Setting up inception_5a/pool_proj
I0313 20:13:57.440845 15508 net.cpp:112] Top shape: 32 128 7 7 (200704)
I0313 20:13:57.440871 15508 layer_factory.hpp:74] Creating layer inception_5a/relu_pool_proj
I0313 20:13:57.440886 15508 net.cpp:76] Creating Layer inception_5a/relu_pool_proj
I0313 20:13:57.440893 15508 net.cpp:372] inception_5a/relu_pool_proj <- inception_5a/pool_proj
I0313 20:13:57.440902 15508 net.cpp:323] inception_5a/relu_pool_proj -> inception_5a/pool_proj (in-place)
I0313 20:13:57.440912 15508 net.cpp:105] Setting up inception_5a/relu_pool_proj
I0313 20:13:57.440930 15508 net.cpp:112] Top shape: 32 128 7 7 (200704)
I0313 20:13:57.440939 15508 layer_factory.hpp:74] Creating layer inception_5a/output
I0313 20:13:57.440955 15508 net.cpp:76] Creating Layer inception_5a/output
I0313 20:13:57.440963 15508 net.cpp:372] inception_5a/output <- inception_5a/1x1
I0313 20:13:57.440973 15508 net.cpp:372] inception_5a/output <- inception_5a/3x3
I0313 20:13:57.440987 15508 net.cpp:372] inception_5a/output <- inception_5a/5x5
I0313 20:13:57.440996 15508 net.cpp:372] inception_5a/output <- inception_5a/pool_proj
I0313 20:13:57.441005 15508 net.cpp:334] inception_5a/output -> inception_5a/output
I0313 20:13:57.441021 15508 net.cpp:105] Setting up inception_5a/output
I0313 20:13:57.441030 15508 net.cpp:112] Top shape: 32 832 7 7 (1304576)
I0313 20:13:57.441045 15508 layer_factory.hpp:74] Creating layer inception_5a/output_inception_5a/output_0_split
I0313 20:13:57.441056 15508 net.cpp:76] Creating Layer inception_5a/output_inception_5a/output_0_split
I0313 20:13:57.441071 15508 net.cpp:372] inception_5a/output_inception_5a/output_0_split <- inception_5a/output
I0313 20:13:57.441081 15508 net.cpp:334] inception_5a/output_inception_5a/output_0_split -> inception_5a/output_inception_5a/output_0_split_0
I0313 20:13:57.441100 15508 net.cpp:334] inception_5a/output_inception_5a/output_0_split -> inception_5a/output_inception_5a/output_0_split_1
I0313 20:13:57.441118 15508 net.cpp:334] inception_5a/output_inception_5a/output_0_split -> inception_5a/output_inception_5a/output_0_split_2
I0313 20:13:57.441129 15508 net.cpp:334] inception_5a/output_inception_5a/output_0_split -> inception_5a/output_inception_5a/output_0_split_3
I0313 20:13:57.441143 15508 net.cpp:105] Setting up inception_5a/output_inception_5a/output_0_split
I0313 20:13:57.441170 15508 net.cpp:112] Top shape: 32 832 7 7 (1304576)
I0313 20:13:57.441179 15508 net.cpp:112] Top shape: 32 832 7 7 (1304576)
I0313 20:13:57.441184 15508 net.cpp:112] Top shape: 32 832 7 7 (1304576)
I0313 20:13:57.441197 15508 net.cpp:112] Top shape: 32 832 7 7 (1304576)
I0313 20:13:57.441205 15508 layer_factory.hpp:74] Creating layer inception_5b/1x1
I0313 20:13:57.441220 15508 net.cpp:76] Creating Layer inception_5b/1x1
I0313 20:13:57.441234 15508 net.cpp:372] inception_5b/1x1 <- inception_5a/output_inception_5a/output_0_split_0
I0313 20:13:57.441246 15508 net.cpp:334] inception_5b/1x1 -> inception_5b/1x1
I0313 20:13:57.441257 15508 net.cpp:105] Setting up inception_5b/1x1
I0313 20:13:57.444038 15508 net.cpp:112] Top shape: 32 384 7 7 (602112)
I0313 20:13:57.444072 15508 layer_factory.hpp:74] Creating layer inception_5b/relu_1x1
I0313 20:13:57.444087 15508 net.cpp:76] Creating Layer inception_5b/relu_1x1
I0313 20:13:57.444095 15508 net.cpp:372] inception_5b/relu_1x1 <- inception_5b/1x1
I0313 20:13:57.444104 15508 net.cpp:323] inception_5b/relu_1x1 -> inception_5b/1x1 (in-place)
I0313 20:13:57.444113 15508 net.cpp:105] Setting up inception_5b/relu_1x1
I0313 20:13:57.444126 15508 net.cpp:112] Top shape: 32 384 7 7 (602112)
I0313 20:13:57.444135 15508 layer_factory.hpp:74] Creating layer inception_5b/3x3_reduce
I0313 20:13:57.444145 15508 net.cpp:76] Creating Layer inception_5b/3x3_reduce
I0313 20:13:57.444154 15508 net.cpp:372] inception_5b/3x3_reduce <- inception_5a/output_inception_5a/output_0_split_1
I0313 20:13:57.444165 15508 net.cpp:334] inception_5b/3x3_reduce -> inception_5b/3x3_reduce
I0313 20:13:57.444176 15508 net.cpp:105] Setting up inception_5b/3x3_reduce
I0313 20:13:57.445683 15508 net.cpp:112] Top shape: 32 192 7 7 (301056)
I0313 20:13:57.445721 15508 layer_factory.hpp:74] Creating layer inception_5b/relu_3x3_reduce
I0313 20:13:57.445739 15508 net.cpp:76] Creating Layer inception_5b/relu_3x3_reduce
I0313 20:13:57.445752 15508 net.cpp:372] inception_5b/relu_3x3_reduce <- inception_5b/3x3_reduce
I0313 20:13:57.445773 15508 net.cpp:323] inception_5b/relu_3x3_reduce -> inception_5b/3x3_reduce (in-place)
I0313 20:13:57.445791 15508 net.cpp:105] Setting up inception_5b/relu_3x3_reduce
I0313 20:13:57.445803 15508 net.cpp:112] Top shape: 32 192 7 7 (301056)
I0313 20:13:57.445823 15508 layer_factory.hpp:74] Creating layer inception_5b/3x3
I0313 20:13:57.445853 15508 net.cpp:76] Creating Layer inception_5b/3x3
I0313 20:13:57.445875 15508 net.cpp:372] inception_5b/3x3 <- inception_5b/3x3_reduce
I0313 20:13:57.445904 15508 net.cpp:334] inception_5b/3x3 -> inception_5b/3x3
I0313 20:13:57.445960 15508 net.cpp:105] Setting up inception_5b/3x3
I0313 20:13:57.452656 15508 net.cpp:112] Top shape: 32 384 7 7 (602112)
I0313 20:13:57.452724 15508 layer_factory.hpp:74] Creating layer inception_5b/relu_3x3
I0313 20:13:57.452757 15508 net.cpp:76] Creating Layer inception_5b/relu_3x3
I0313 20:13:57.452779 15508 net.cpp:372] inception_5b/relu_3x3 <- inception_5b/3x3
I0313 20:13:57.452797 15508 net.cpp:323] inception_5b/relu_3x3 -> inception_5b/3x3 (in-place)
I0313 20:13:57.452819 15508 net.cpp:105] Setting up inception_5b/relu_3x3
I0313 20:13:57.452836 15508 net.cpp:112] Top shape: 32 384 7 7 (602112)
I0313 20:13:57.452848 15508 layer_factory.hpp:74] Creating layer inception_5b/5x5_reduce
I0313 20:13:57.452872 15508 net.cpp:76] Creating Layer inception_5b/5x5_reduce
I0313 20:13:57.452889 15508 net.cpp:372] inception_5b/5x5_reduce <- inception_5a/output_inception_5a/output_0_split_2
I0313 20:13:57.452908 15508 net.cpp:334] inception_5b/5x5_reduce -> inception_5b/5x5_reduce
I0313 20:13:57.452930 15508 net.cpp:105] Setting up inception_5b/5x5_reduce
I0313 20:13:57.453454 15508 net.cpp:112] Top shape: 32 48 7 7 (75264)
I0313 20:13:57.453496 15508 layer_factory.hpp:74] Creating layer inception_5b/relu_5x5_reduce
I0313 20:13:57.453521 15508 net.cpp:76] Creating Layer inception_5b/relu_5x5_reduce
I0313 20:13:57.453537 15508 net.cpp:372] inception_5b/relu_5x5_reduce <- inception_5b/5x5_reduce
I0313 20:13:57.453565 15508 net.cpp:323] inception_5b/relu_5x5_reduce -> inception_5b/5x5_reduce (in-place)
I0313 20:13:57.453605 15508 net.cpp:105] Setting up inception_5b/relu_5x5_reduce
I0313 20:13:57.453621 15508 net.cpp:112] Top shape: 32 48 7 7 (75264)
I0313 20:13:57.453636 15508 layer_factory.hpp:74] Creating layer inception_5b/5x5
I0313 20:13:57.453660 15508 net.cpp:76] Creating Layer inception_5b/5x5
I0313 20:13:57.453675 15508 net.cpp:372] inception_5b/5x5 <- inception_5b/5x5_reduce
I0313 20:13:57.453693 15508 net.cpp:334] inception_5b/5x5 -> inception_5b/5x5
I0313 20:13:57.453714 15508 net.cpp:105] Setting up inception_5b/5x5
I0313 20:13:57.455183 15508 net.cpp:112] Top shape: 32 128 7 7 (200704)
I0313 20:13:57.455219 15508 layer_factory.hpp:74] Creating layer inception_5b/relu_5x5
I0313 20:13:57.455241 15508 net.cpp:76] Creating Layer inception_5b/relu_5x5
I0313 20:13:57.455260 15508 net.cpp:372] inception_5b/relu_5x5 <- inception_5b/5x5
I0313 20:13:57.455284 15508 net.cpp:323] inception_5b/relu_5x5 -> inception_5b/5x5 (in-place)
I0313 20:13:57.455308 15508 net.cpp:105] Setting up inception_5b/relu_5x5
I0313 20:13:57.455325 15508 net.cpp:112] Top shape: 32 128 7 7 (200704)
I0313 20:13:57.455343 15508 layer_factory.hpp:74] Creating layer inception_5b/pool
I0313 20:13:57.455415 15508 net.cpp:76] Creating Layer inception_5b/pool
I0313 20:13:57.455459 15508 net.cpp:372] inception_5b/pool <- inception_5a/output_inception_5a/output_0_split_3
I0313 20:13:57.455494 15508 net.cpp:334] inception_5b/pool -> inception_5b/pool
I0313 20:13:57.455520 15508 net.cpp:105] Setting up inception_5b/pool
I0313 20:13:57.455551 15508 net.cpp:112] Top shape: 32 832 7 7 (1304576)
I0313 20:13:57.455569 15508 layer_factory.hpp:74] Creating layer inception_5b/pool_proj
I0313 20:13:57.455595 15508 net.cpp:76] Creating Layer inception_5b/pool_proj
I0313 20:13:57.455621 15508 net.cpp:372] inception_5b/pool_proj <- inception_5b/pool
I0313 20:13:57.455644 15508 net.cpp:334] inception_5b/pool_proj -> inception_5b/pool_proj
I0313 20:13:57.455672 15508 net.cpp:105] Setting up inception_5b/pool_proj
I0313 20:13:57.456655 15508 net.cpp:112] Top shape: 32 128 7 7 (200704)
I0313 20:13:57.456688 15508 layer_factory.hpp:74] Creating layer inception_5b/relu_pool_proj
I0313 20:13:57.456711 15508 net.cpp:76] Creating Layer inception_5b/relu_pool_proj
I0313 20:13:57.456728 15508 net.cpp:372] inception_5b/relu_pool_proj <- inception_5b/pool_proj
I0313 20:13:57.456765 15508 net.cpp:323] inception_5b/relu_pool_proj -> inception_5b/pool_proj (in-place)
I0313 20:13:57.456806 15508 net.cpp:105] Setting up inception_5b/relu_pool_proj
I0313 20:13:57.456827 15508 net.cpp:112] Top shape: 32 128 7 7 (200704)
I0313 20:13:57.456845 15508 layer_factory.hpp:74] Creating layer inception_5b/output
I0313 20:13:57.456866 15508 net.cpp:76] Creating Layer inception_5b/output
I0313 20:13:57.456892 15508 net.cpp:372] inception_5b/output <- inception_5b/1x1
I0313 20:13:57.456912 15508 net.cpp:372] inception_5b/output <- inception_5b/3x3
I0313 20:13:57.456931 15508 net.cpp:372] inception_5b/output <- inception_5b/5x5
I0313 20:13:57.456949 15508 net.cpp:372] inception_5b/output <- inception_5b/pool_proj
I0313 20:13:57.456969 15508 net.cpp:334] inception_5b/output -> inception_5b/output
I0313 20:13:57.456990 15508 net.cpp:105] Setting up inception_5b/output
I0313 20:13:57.457015 15508 net.cpp:112] Top shape: 32 1024 7 7 (1605632)
I0313 20:13:57.457031 15508 layer_factory.hpp:74] Creating layer pool5/7x7_s1
I0313 20:13:57.457054 15508 net.cpp:76] Creating Layer pool5/7x7_s1
I0313 20:13:57.457082 15508 net.cpp:372] pool5/7x7_s1 <- inception_5b/output
I0313 20:13:57.457106 15508 net.cpp:334] pool5/7x7_s1 -> pool5/7x7_s1
I0313 20:13:57.457129 15508 net.cpp:105] Setting up pool5/7x7_s1
I0313 20:13:57.457157 15508 net.cpp:112] Top shape: 32 1024 1 1 (32768)
I0313 20:13:57.457177 15508 layer_factory.hpp:74] Creating layer pool5/drop_7x7_s1
I0313 20:13:57.457197 15508 net.cpp:76] Creating Layer pool5/drop_7x7_s1
I0313 20:13:57.457222 15508 net.cpp:372] pool5/drop_7x7_s1 <- pool5/7x7_s1
I0313 20:13:57.457252 15508 net.cpp:323] pool5/drop_7x7_s1 -> pool5/7x7_s1 (in-place)
I0313 20:13:57.457294 15508 net.cpp:105] Setting up pool5/drop_7x7_s1
I0313 20:13:57.457316 15508 net.cpp:112] Top shape: 32 1024 1 1 (32768)
I0313 20:13:57.457337 15508 layer_factory.hpp:74] Creating layer loss3/classifier-11
I0313 20:13:57.457365 15508 net.cpp:76] Creating Layer loss3/classifier-11
I0313 20:13:57.457391 15508 net.cpp:372] loss3/classifier-11 <- pool5/7x7_s1
I0313 20:13:57.457419 15508 net.cpp:334] loss3/classifier-11 -> loss3/classifier-11
I0313 20:13:57.457471 15508 net.cpp:105] Setting up loss3/classifier-11
I0313 20:13:57.457615 15508 net.cpp:112] Top shape: 32 11 1 1 (352)
I0313 20:13:57.457648 15508 layer_factory.hpp:74] Creating layer loss3/loss3
I0313 20:13:57.457670 15508 net.cpp:76] Creating Layer loss3/loss3
I0313 20:13:57.457695 15508 net.cpp:372] loss3/loss3 <- loss3/classifier-11
I0313 20:13:57.457717 15508 net.cpp:372] loss3/loss3 <- label_data_1_split_2
I0313 20:13:57.457747 15508 net.cpp:334] loss3/loss3 -> loss3/loss3
I0313 20:13:57.457775 15508 net.cpp:105] Setting up loss3/loss3
I0313 20:13:57.457801 15508 layer_factory.hpp:74] Creating layer loss3/loss3
I0313 20:13:57.457834 15508 net.cpp:112] Top shape: 1 1 1 1 (1)
I0313 20:13:57.457857 15508 net.cpp:118]     with loss weight 1
I0313 20:13:57.457905 15508 net.cpp:163] loss3/loss3 needs backward computation.
I0313 20:13:57.457923 15508 net.cpp:163] loss3/classifier-11 needs backward computation.
I0313 20:13:57.457939 15508 net.cpp:165] pool5/drop_7x7_s1 does not need backward computation.
I0313 20:13:57.457953 15508 net.cpp:165] pool5/7x7_s1 does not need backward computation.
…
I0313 20:13:57.465185 15508 net.cpp:253] The NetState phase (1) differed from the phase (0) specified by a rule in layer data
I0313 20:13:57.466302 15508 net.cpp:42] Initializing net from parameters: 
name: "GoogleNet-11"
state {
  phase: TEST
}
layer {
  name: "data"
  type: "Data"
  top: "data"
  top: "label"
  include {
    phase: TEST
  }
  transform_param {
    mirror: false
    crop_size: 224
    mean_file: "/root/cs231n-project/data/image_means/ilsvrc12/imagenet_mean.binaryproto"
  }
  data_param {
    source: "/root/cs231n-project/data/images/val/instagram/227/val_lmdb"
    batch_size: 32
    backend: LMDB
  }
}
layer {
  name: "conv1/7x7_s2"
  type: "Convolution"
  bottom: "data"
  top: "conv1/7x7_s2"
  param {
    lr_mult: 0
    decay_mult: 0
  }
  param {
    lr_mult: 0
    decay_mult: 0
  }
  convolution_param {
    num_output: 64
    pad: 3
    kernel_size: 7
    stride: 2
    weight_filler {
      type: "xavier"
      std: 0.1
    }
    bias_filler {
      type: "constant"
      value: 0.2
    }
  }
}
layer {
  name: "conv1/relu_7x7"
  type: "ReLU"
  bottom: "conv1/7x7_s2"
  top: "conv1/7x7_s2"
}
layer {
  name: "pool1/3x3_s2"
  type: "Pooling"
  bottom: "conv1/7x7_s2"
  top: "pool1/3x3_s2"
  pooling_param {
    pool: MAX
    kernel_size: 3
    stride: 2
  }
}
layer {
  name: "pool1/norm1"
  type: "LRN"
  bottom: "pool1/3x3_s2"
  top: "pool1/norm1"
  lrn_param {
    local_size: 5
    alpha: 0.0001
    beta: 0.75
  }
}
layer {
  name: "conv2/3x3_reduce"
  type: "Convolution"
  bottom: "pool1/norm1"
  top: "conv2/3x3_reduce"
  param {
    lr_mult: 0
    decay_mult: 0
  }
  param {
    lr_mult: 0
    decay_mult: 0
  }
  convolution_param {
    num_output: 64
    kernel_size: 1
    weight_filler {
      type: "xavier"
      std: 0.1
    }
    bias_filler {
      type: "constant"
      value: 0.2
    }
  }
}
layer {
  name: "conv2/relu_3x3_reduce"
  type: "ReLU"
  bottom: "conv2/3x3_reduce"
  top: "conv2/3x3_reduce"
}
layer {
  name: "conv2/3x3"
  type: "Convolution"
  bottom: "conv2/3x3_reduce"
  top: "conv2/3x3"
  param {
    lr_mult: 0
    decay_mult: 0
  }
  param {
    lr_mult: 0
    decay_mult: 0
  }
  convolution_param {
    num_output: 192
    pad: 1
    kernel_size: 3
    weight_filler {
      type: "xavier"
      std: 0.03
    }
    bias_filler {
      type: "constant"
      value: 0.2
    }
  }
}
layer {
  name: "conv2/relu_3x3"
  type: "ReLU"
  bottom: "conv2/3x3"
  top: "conv2/3x3"
}
layer {
  name: "conv2/norm2"
  type: "LRN"
  bottom: "conv2/3x3"
  top: "conv2/norm2"
  lrn_param {
    local_size: 5
    alpha: 0.0001
    beta: 0.75
  }
}
layer {
  name: "pool2/3x3_s2"
  type: "Pooling"
  bottom: "conv2/norm2"
  top: "pool2/3x3_s2"
  pooling_param {
    pool: MAX
    kernel_size: 3
    stride: 2
  }
}
layer {
  name: "inception_3a/1x1"
  type: "Convolution"
  bottom: "pool2/3x3_s2"
  top: "inception_3a/1x1"
  param {
    lr_mult: 0
    decay_mult: 0
  }
  param {
    lr_mult: 0
    decay_mult: 0
  }
  convolution_param {
    num_output: 64
    kernel_size: 1
    weight_filler {
      type: "xavier"
      std: 0.03
    }
    bias_filler {
      type: "constant"
      value: 0.2
    }
  }
}
layer {
  name: "inception_3a/relu_1x1"
  type: "ReLU"
  bottom: "inception_3a/1x1"
  top: "inception_3a/1x1"
}
layer {
  name: "inception_3a/3x3_reduce"
  type: "Convolution"
  bottom: "pool2/3x3_s2"
  top: "inception_3a/3x3_reduce"
  param {
    lr_mult: 0
    decay_mult: 0
  }
  param {
    lr_mult: 0
    decay_mult: 0
  }
  convolution_param {
    num_output: 96
    kernel_size: 1
    weight_filler {
      type: "xavier"
      std: 0.09
    }
    bias_filler {
      type: "constant"
      value: 0.2
    }
  }
}
layer {
  name: "inception_3a/relu_3x3_reduce"
  type: "ReLU"
  bottom: "inception_3a/3x3_reduce"
  top: "inception_3a/3x3_reduce"
}
layer {
  name: "inception_3a/3x3"
  type: "Convolution"
  bottom: "inception_3a/3x3_reduce"
  top: "inception_3a/3x3"
  param {
    lr_mult: 0
    decay_mult: 0
  }
  param {
    lr_mult: 0
    decay_mult: 0
  }
  convolution_param {
    num_output: 128
    pad: 1
    kernel_size: 3
    weight_filler {
      type: "xavier"
      std: 0.03
    }
    bias_filler {
      type: "constant"
      value: 0.2
    }
  }
}
layer {
  name: "inception_3a/relu_3x3"
  type: "ReLU"
  bottom: "inception_3a/3x3"
  top: "inception_3a/3x3"
}
layer {
  name: "inception_3a/5x5_reduce"
  type: "Convolution"
  bottom: "pool2/3x3_s2"
  top: "inception_3a/5x5_reduce"
  param {
    lr_mult: 0
    decay_mult: 0
  }
  param {
    lr_mult: 0
    decay_mult: 0
  }
  convolution_param {
    num_output: 16
    kernel_size: 1
    weight_filler {
      type: "xavier"
      std: 0.2
    }
    bias_filler {
      type: "constant"
      value: 0.2
    }
  }
}
layer {
  name: "inception_3a/relu_5x5_reduce"
  type: "ReLU"
  bottom: "inception_3a/5x5_reduce"
  top: "inception_3a/5x5_reduce"
}
layer {
  name: "inception_3a/5x5"
  type: "Convolution"
  bottom: "inception_3a/5x5_reduce"
  top: "inception_3a/5x5"
  param {
    lr_mult: 0
    decay_mult: 0
  }
  param {
    lr_mult: 0
    decay_mult: 0
  }
  convolution_param {
    num_output: 32
    pad: 2
    kernel_size: 5
    weight_filler {
      type: "xavier"
      std: 0.03
    }
    bias_filler {
      type: "constant"
      value: 0.2
    }
  }
}
layer {
  name: "inception_3a/relu_5x5"
  type: "ReLU"
  bottom: "inception_3a/5x5"
  top: "inception_3a/5x5"
}
layer {
  name: "inception_3a/pool"
  type: "Pooling"
  bottom: "pool2/3x3_s2"
  top: "inception_3a/pool"
  pooling_param {
    pool: MAX
    kernel_size: 3
    stride: 1
    pad: 1
  }
}
layer {
  name: "inception_3a/pool_proj"
  type: "Convolution"
  bottom: "inception_3a/pool"
  top: "inception_3a/pool_proj"
  param {
    lr_mult: 0
    decay_mult: 0
  }
  param {
    lr_mult: 0
    decay_mult: 0
  }
  convolution_param {
    num_output: 32
    kernel_size: 1
    weight_filler {
      type: "xavier"
      std: 0.1
    }
    bias_filler {
      type: "constant"
      value: 0.2
    }
  }
}
layer {
  name: "inception_3a/relu_pool_proj"
  type: "ReLU"
  bottom: "inception_3a/pool_proj"
  top: "inception_3a/pool_proj"
}
layer {
  name: "inception_3a/output"
  type: "Concat"
  bottom: "inception_3a/1x1"
  bottom: "inception_3a/3x3"
  bottom: "inception_3a/5x5"
  bottom: "inception_3a/pool_proj"
  top: "inception_3a/output"
}
layer {
  name: "inception_3b/1x1"
  type: "Convolution"
  bottom: "inception_3a/output"
  top: "inception_3b/1x1"
  param {
    lr_mult: 0
    decay_mult: 0
  }
  param {
    lr_mult: 0
    decay_mult: 0
  }
  convolution_param {
    num_output: 128
    kernel_size: 1
    weight_filler {
      type: "xavier"
      std: 0.03
    }
    bias_filler {
      type: "constant"
      value: 0.2
    }
  }
}
layer {
  name: "inception_3b/relu_1x1"
  type: "ReLU"
  bottom: "inception_3b/1x1"
  top: "inception_3b/1x1"
}
layer {
  name: "inception_3b/3x3_reduce"
  type: "Convolution"
  bottom: "inception_3a/output"
  top: "inception_3b/3x3_reduce"
  param {
    lr_mult: 0
    decay_mult: 0
  }
  param {
    lr_mult: 0
    decay_mult: 0
  }
  convolution_param {
    num_output: 128
    kernel_size: 1
    weight_filler {
      type: "xavier"
      std: 0.09
    }
    bias_filler {
      type: "constant"
      value: 0.2
    }
  }
}
layer {
  name: "inception_3b/relu_3x3_reduce"
  type: "ReLU"
  bottom: "inception_3b/3x3_reduce"
  top: "inception_3b/3x3_reduce"
}
layer {
  name: "inception_3b/3x3"
  type: "Convolution"
  bottom: "inception_3b/3x3_reduce"
  top: "inception_3b/3x3"
  param {
    lr_mult: 0
    decay_mult: 0
  }
  param {
    lr_mult: 0
    decay_mult: 0
  }
  convolution_param {
    num_output: 192
    pad: 1
    kernel_size: 3
    weight_filler {
      type: "xavier"
      std: 0.03
    }
    bias_filler {
      type: "constant"
      value: 0.2
    }
  }
}
layer {
  name: "inception_3b/relu_3x3"
  type: "ReLU"
  bottom: "inception_3b/3x3"
  top: "inception_3b/3x3"
}
layer {
  name: "inception_3b/5x5_reduce"
  type: "Convolution"
  bottom: "inception_3a/output"
  top: "inception_3b/5x5_reduce"
  param {
    lr_mult: 0
    decay_mult: 0
  }
  param {
    lr_mult: 0
    decay_mult: 0
  }
  convolution_param {
    num_output: 32
    kernel_size: 1
    weight_filler {
      type: "xavier"
      std: 0.2
    }
    bias_filler {
      type: "constant"
      value: 0.2
    }
  }
}
layer {
  name: "inception_3b/relu_5x5_reduce"
  type: "ReLU"
  bottom: "inception_3b/5x5_reduce"
  top: "inception_3b/5x5_reduce"
}
layer {
  name: "inception_3b/5x5"
  type: "Convolution"
  bottom: "inception_3b/5x5_reduce"
  top: "inception_3b/5x5"
  param {
    lr_mult: 0
    decay_mult: 0
  }
  param {
    lr_mult: 0
    decay_mult: 0
  }
  convolution_param {
    num_output: 96
    pad: 2
    kernel_size: 5
    weight_filler {
      type: "xavier"
      std: 0.03
    }
    bias_filler {
      type: "constant"
      value: 0.2
    }
  }
}
layer {
  name: "inception_3b/relu_5x5"
  type: "ReLU"
  bottom: "inception_3b/5x5"
  top: "inception_3b/5x5"
}
layer {
  name: "inception_3b/pool"
  type: "Pooling"
  bottom: "inception_3a/output"
  top: "inception_3b/pool"
  pooling_param {
    pool: MAX
    kernel_size: 3
    stride: 1
    pad: 1
  }
}
layer {
  name: "inception_3b/pool_proj"
  type: "Convolution"
  bottom: "inception_3b/pool"
  top: "inception_3b/pool_proj"
  param {
    lr_mult: 0
    decay_mult: 0
  }
  param {
    lr_mult: 0
    decay_mult: 0
  }
  convolution_param {
    num_output: 64
    kernel_size: 1
    weight_filler {
      type: "xavier"
      std: 0.1
    }
    bias_filler {
      type: "constant"
      value: 0.2
    }
  }
}
layer {
  name: "inception_3b/relu_pool_proj"
  type: "ReLU"
  bottom: "inception_3b/pool_proj"
  top: "inception_3b/pool_proj"
}
layer {
  name: "inception_3b/output"
  type: "Concat"
  bottom: "inception_3b/1x1"
  bottom: "inception_3b/3x3"
  bottom: "inception_3b/5x5"
  bottom: "inception_3b/pool_proj"
  top: "inception_3b/output"
}
layer {
  name: "pool3/3x3_s2"
  type: "Pooling"
  bottom: "inception_3b/output"
  top: "pool3/3x3_s2"
  pooling_param {
    pool: MAX
    kernel_size: 3
    stride: 2
  }
}
layer {
  name: "inception_4a/1x1"
  type: "Convolution"
  bottom: "pool3/3x3_s2"
  top: "inception_4a/1x1"
  param {
    lr_mult: 0
    decay_mult: 0
  }
  param {
    lr_mult: 0
    decay_mult: 0
  }
  convolution_param {
    num_output: 192
    kernel_size: 1
    weight_filler {
      type: "xavier"
      std: 0.03
    }
    bias_filler {
      type: "constant"
      value: 0.2
    }
  }
}
layer {
  name: "inception_4a/relu_1x1"
  type: "ReLU"
  bottom: "inception_4a/1x1"
  top: "inception_4a/1x1"
}
layer {
  name: "inception_4a/3x3_reduce"
  type: "Convolution"
  bottom: "pool3/3x3_s2"
  top: "inception_4a/3x3_reduce"
  param {
    lr_mult: 0
    decay_mult: 0
  }
  param {
    lr_mult: 0
    decay_mult: 0
  }
  convolution_param {
    num_output: 96
    kernel_size: 1
    weight_filler {
      type: "xavier"
      std: 0.09
    }
    bias_filler {
      type: "constant"
      value: 0.2
    }
  }
}
layer {
  name: "inception_4a/relu_3x3_reduce"
  type: "ReLU"
  bottom: "inception_4a/3x3_reduce"
  top: "inception_4a/3x3_reduce"
}
layer {
  name: "inception_4a/3x3"
  type: "Convolution"
  bottom: "inception_4a/3x3_reduce"
  top: "inception_4a/3x3"
  param {
    lr_mult: 0
    decay_mult: 0
  }
  param {
    lr_mult: 0
    decay_mult: 0
  }
  convolution_param {
    num_output: 208
    pad: 1
    kernel_size: 3
    weight_filler {
      type: "xavier"
      std: 0.03
    }
    bias_filler {
      type: "constant"
      value: 0.2
    }
  }
}
layer {
  name: "inception_4a/relu_3x3"
  type: "ReLU"
  bottom: "inception_4a/3x3"
  top: "inception_4a/3x3"
}
layer {
  name: "inception_4a/5x5_reduce"
  type: "Convolution"
  bottom: "pool3/3x3_s2"
  top: "inception_4a/5x5_reduce"
  param {
    lr_mult: 0
    decay_mult: 0
  }
  param {
    lr_mult: 0
    decay_mult: 0
  }
  convolution_param {
    num_output: 16
    kernel_size: 1
    weight_filler {
      type: "xavier"
      std: 0.2
    }
    bias_filler {
      type: "constant"
      value: 0.2
    }
  }
}
layer {
  name: "inception_4a/relu_5x5_reduce"
  type: "ReLU"
  bottom: "inception_4a/5x5_reduce"
  top: "inception_4a/5x5_reduce"
}
layer {
  name: "inception_4a/5x5"
  type: "Convolution"
  bottom: "inception_4a/5x5_reduce"
  top: "inception_4a/5x5"
  param {
    lr_mult: 0
    decay_mult: 0
  }
  param {
    lr_mult: 0
    decay_mult: 0
  }
  convolution_param {
    num_output: 48
    pad: 2
    kernel_size: 5
    weight_filler {
      type: "xavier"
      std: 0.03
    }
    bias_filler {
      type: "constant"
      value: 0.2
    }
  }
}
layer {
  name: "inception_4a/relu_5x5"
  type: "ReLU"
  bottom: "inception_4a/5x5"
  top: "inception_4a/5x5"
}
layer {
  name: "inception_4a/pool"
  type: "Pooling"
  bottom: "pool3/3x3_s2"
  top: "inception_4a/pool"
  pooling_param {
    pool: MAX
    kernel_size: 3
    stride: 1
    pad: 1
  }
}
layer {
  name: "inception_4a/pool_proj"
  type: "Convolution"
  bottom: "inception_4a/pool"
  top: "inception_4a/pool_proj"
  param {
    lr_mult: 0
    decay_mult: 0
  }
  param {
    lr_mult: 0
    decay_mult: 0
  }
  convolution_param {
    num_output: 64
    kernel_size: 1
    weight_filler {
      type: "xavier"
      std: 0.1
    }
    bias_filler {
      type: "constant"
      value: 0.2
    }
  }
}
layer {
  name: "inception_4a/relu_pool_proj"
  type: "ReLU"
  bottom: "inception_4a/pool_proj"
  top: "inception_4a/pool_proj"
}
layer {
  name: "inception_4a/output"
  type: "Concat"
  bottom: "inception_4a/1x1"
  bottom: "inception_4a/3x3"
  bottom: "inception_4a/5x5"
  bottom: "inception_4a/pool_proj"
  top: "inception_4a/output"
}
layer {
  name: "loss1/ave_pool"
  type: "Pooling"
  bottom: "inception_4a/output"
  top: "loss1/ave_pool"
  pooling_param {
    pool: AVE
    kernel_size: 5
    stride: 3
  }
}
layer {
  name: "loss1/conv"
  type: "Convolution"
  bottom: "loss1/ave_pool"
  top: "loss1/conv"
  param {
    lr_mult: 0
    decay_mult: 0
  }
  param {
    lr_mult: 0
    decay_mult: 0
  }
  convolution_param {
    num_output: 128
    kernel_size: 1
    weight_filler {
      type: "xavier"
      std: 0.08
    }
    bias_filler {
      type: "constant"
      value: 0.2
    }
  }
}
layer {
  name: "loss1/relu_conv"
  type: "ReLU"
  bottom: "loss1/conv"
  top: "loss1/conv"
}
layer {
  name: "loss1/fc"
  type: "InnerProduct"
  bottom: "loss1/conv"
  top: "loss1/fc"
  param {
    lr_mult: 0
    decay_mult: 0
  }
  param {
    lr_mult: 0
    decay_mult: 0
  }
  inner_product_param {
    num_output: 1024
    weight_filler {
      type: "xavier"
      std: 0.02
    }
    bias_filler {
      type: "constant"
      value: 0.2
    }
  }
}
layer {
  name: "loss1/relu_fc"
  type: "ReLU"
  bottom: "loss1/fc"
  top: "loss1/fc"
}
layer {
  name: "loss1/drop_fc"
  type: "Dropout"
  bottom: "loss1/fc"
  top: "loss1/fc"
  dropout_param {
    dropout_ratio: 0.7
  }
}
layer {
  name: "loss1/classifier"
  type: "InnerProduct"
  bottom: "loss1/fc"
  top: "loss1/classifier"
  param {
    lr_mult: 0
    decay_mult: 0
  }
  param {
    lr_mult: 0
    decay_mult: 0
  }
  inner_product_param {
    num_output: 1000
    weight_filler {
      type: "xavier"
      std: 0.0009765625
    }
    bias_filler {
      type: "constant"
      value: 0
    }
  }
}
layer {
  name: "loss1/loss"
  type: "SoftmaxWithLoss"
  bottom: "loss1/classifier"
  bottom: "label"
  top: "loss1/loss1"
  loss_weight: 0.3
}
layer {
  name: "loss1/top-1"
  type: "Accuracy"
  bottom: "loss1/classifier"
  bottom: "label"
  top: "loss1/top-1"
  include {
    phase: TEST
  }
}
layer {
  name: "loss1/top-5"
  type: "Accuracy"
  bottom: "loss1/classifier"
  bottom: "label"
  top: "loss1/top-5"
  include {
    phase: TEST
  }
  accuracy_param {
    top_k: 5
  }
}
layer {
  name: "inception_4b/1x1"
  type: "Convolution"
  bottom: "inception_4a/output"
  top: "inception_4b/1x1"
  param {
    lr_mult: 0
    decay_mult: 0
  }
  param {
    lr_mult: 0
    decay_mult: 0
  }
  convolution_param {
    num_output: 160
    kernel_size: 1
    weight_filler {
      type: "xavier"
      std: 0.03
    }
    bias_filler {
      type: "constant"
      value: 0.2
    }
  }
}
layer {
  name: "inception_4b/relu_1x1"
  type: "ReLU"
  bottom: "inception_4b/1x1"
  top: "inception_4b/1x1"
}
layer {
  name: "inception_4b/3x3_reduce"
  type: "Convolution"
  bottom: "inception_4a/output"
  top: "inception_4b/3x3_reduce"
  param {
    lr_mult: 0
    decay_mult: 0
  }
  param {
    lr_mult: 0
    decay_mult: 0
  }
  convolution_param {
    num_output: 112
    kernel_size: 1
    weight_filler {
      type: "xavier"
      std: 0.09
    }
    bias_filler {
      type: "constant"
      value: 0.2
    }
  }
}
layer {
  name: "inception_4b/relu_3x3_reduce"
  type: "ReLU"
  bottom: "inception_4b/3x3_reduce"
  top: "inception_4b/3x3_reduce"
}
layer {
  name: "inception_4b/3x3"
  type: "Convolution"
  bottom: "inception_4b/3x3_reduce"
  top: "inception_4b/3x3"
  param {
    lr_mult: 0
    decay_mult: 0
  }
  param {
    lr_mult: 0
    decay_mult: 0
  }
  convolution_param {
    num_output: 224
    pad: 1
    kernel_size: 3
    weight_filler {
      type: "xavier"
      std: 0.03
    }
    bias_filler {
      type: "constant"
      value: 0.2
    }
  }
}
layer {
  name: "inception_4b/relu_3x3"
  type: "ReLU"
  bottom: "inception_4b/3x3"
  top: "inception_4b/3x3"
}
layer {
  name: "inception_4b/5x5_reduce"
  type: "Convolution"
  bottom: "inception_4a/output"
  top: "inception_4b/5x5_reduce"
  param {
    lr_mult: 0
    decay_mult: 0
  }
  param {
    lr_mult: 0
    decay_mult: 0
  }
  convolution_param {
    num_output: 24
    kernel_size: 1
    weight_filler {
      type: "xavier"
      std: 0.2
    }
    bias_filler {
      type: "constant"
      value: 0.2
    }
  }
}
layer {
  name: "inception_4b/relu_5x5_reduce"
  type: "ReLU"
  bottom: "inception_4b/5x5_reduce"
  top: "inception_4b/5x5_reduce"
}
layer {
  name: "inception_4b/5x5"
  type: "Convolution"
  bottom: "inception_4b/5x5_reduce"
  top: "inception_4b/5x5"
  param {
    lr_mult: 0
    decay_mult: 0
  }
  param {
    lr_mult: 0
    decay_mult: 0
  }
  convolution_param {
    num_output: 64
    pad: 2
    kernel_size: 5
    weight_filler {
      type: "xavier"
      std: 0.03
    }
    bias_filler {
      type: "constant"
      value: 0.2
    }
  }
}
layer {
  name: "inception_4b/relu_5x5"
  type: "ReLU"
  bottom: "inception_4b/5x5"
  top: "inception_4b/5x5"
}
layer {
  name: "inception_4b/pool"
  type: "Pooling"
  bottom: "inception_4a/output"
  top: "inception_4b/pool"
  pooling_param {
    pool: MAX
    kernel_size: 3
    stride: 1
    pad: 1
  }
}
layer {
  name: "inception_4b/pool_proj"
  type: "Convolution"
  bottom: "inception_4b/pool"
  top: "inception_4b/pool_proj"
  param {
    lr_mult: 0
    decay_mult: 0
  }
  param {
    lr_mult: 0
    decay_mult: 0
  }
  convolution_param {
    num_output: 64
    kernel_size: 1
    weight_filler {
      type: "xavier"
      std: 0.1
    }
    bias_filler {
      type: "constant"
      value: 0.2
    }
  }
}
layer {
  name: "inception_4b/relu_pool_proj"
  type: "ReLU"
  bottom: "inception_4b/pool_proj"
  top: "inception_4b/pool_proj"
}
layer {
  name: "inception_4b/output"
  type: "Concat"
  bottom: "inception_4b/1x1"
  bottom: "inception_4b/3x3"
  bottom: "inception_4b/5x5"
  bottom: "inception_4b/pool_proj"
  top: "inception_4b/output"
}
layer {
  name: "inception_4c/1x1"
  type: "Convolution"
  bottom: "inception_4b/output"
  top: "inception_4c/1x1"
  param {
    lr_mult: 0
    decay_mult: 0
  }
  param {
    lr_mult: 0
    decay_mult: 0
  }
  convolution_param {
    num_output: 128
    kernel_size: 1
    weight_filler {
      type: "xavier"
      std: 0.03
    }
    bias_filler {
      type: "constant"
      value: 0.2
    }
  }
}
layer {
  name: "inception_4c/relu_1x1"
  type: "ReLU"
  bottom: "inception_4c/1x1"
  top: "inception_4c/1x1"
}
layer {
  name: "inception_4c/3x3_reduce"
  type: "Convolution"
  bottom: "inception_4b/output"
  top: "inception_4c/3x3_reduce"
  param {
    lr_mult: 0
    decay_mult: 0
  }
  param {
    lr_mult: 0
    decay_mult: 0
  }
  convolution_param {
    num_output: 128
    kernel_size: 1
    weight_filler {
      type: "xavier"
      std: 0.09
    }
    bias_filler {
      type: "constant"
      value: 0.2
    }
  }
}
layer {
  name: "inception_4c/relu_3x3_reduce"
  type: "ReLU"
  bottom: "inception_4c/3x3_reduce"
  top: "inception_4c/3x3_reduce"
}
layer {
  name: "inception_4c/3x3"
  type: "Convolution"
  bottom: "inception_4c/3x3_reduce"
  top: "inception_4c/3x3"
  param {
    lr_mult: 0
    decay_mult: 0
  }
  param {
    lr_mult: 0
    decay_mult: 0
  }
  convolution_param {
    num_output: 256
    pad: 1
    kernel_size: 3
    weight_filler {
      type: "xavier"
      std: 0.03
    }
    bias_filler {
      type: "constant"
      value: 0.2
    }
  }
}
layer {
  name: "inception_4c/relu_3x3"
  type: "ReLU"
  bottom: "inception_4c/3x3"
  top: "inception_4c/3x3"
}
layer {
  name: "inception_4c/5x5_reduce"
  type: "Convolution"
  bottom: "inception_4b/output"
  top: "inception_4c/5x5_reduce"
  param {
    lr_mult: 0
    decay_mult: 0
  }
  param {
    lr_mult: 0
    decay_mult: 0
  }
  convolution_param {
    num_output: 24
    kernel_size: 1
    weight_filler {
      type: "xavier"
      std: 0.2
    }
    bias_filler {
      type: "constant"
      value: 0.2
    }
  }
}
layer {
  name: "inception_4c/relu_5x5_reduce"
  type: "ReLU"
  bottom: "inception_4c/5x5_reduce"
  top: "inception_4c/5x5_reduce"
}
layer {
  name: "inception_4c/5x5"
  type: "Convolution"
  bottom: "inception_4c/5x5_reduce"
  top: "inception_4c/5x5"
  param {
    lr_mult: 0
    decay_mult: 0
  }
  param {
    lr_mult: 0
    decay_mult: 0
  }
  convolution_param {
    num_output: 64
    pad: 2
    kernel_size: 5
    weight_filler {
      type: "xavier"
      std: 0.03
    }
    bias_filler {
      type: "constant"
      value: 0.2
    }
  }
}
layer {
  name: "inception_4c/relu_5x5"
  type: "ReLU"
  bottom: "inception_4c/5x5"
  top: "inception_4c/5x5"
}
layer {
  name: "inception_4c/pool"
  type: "Pooling"
  bottom: "inception_4b/output"
  top: "inception_4c/pool"
  pooling_param {
    pool: MAX
    kernel_size: 3
    stride: 1
    pad: 1
  }
}
layer {
  name: "inception_4c/pool_proj"
  type: "Convolution"
  bottom: "inception_4c/pool"
  top: "inception_4c/pool_proj"
  param {
    lr_mult: 0
    decay_mult: 0
  }
  param {
    lr_mult: 0
    decay_mult: 0
  }
  convolution_param {
    num_output: 64
    kernel_size: 1
    weight_filler {
      type: "xavier"
      std: 0.1
    }
    bias_filler {
      type: "constant"
      value: 0.2
    }
  }
}
layer {
  name: "inception_4c/relu_pool_proj"
  type: "ReLU"
  bottom: "inception_4c/pool_proj"
  top: "inception_4c/pool_proj"
}
layer {
  name: "inception_4c/output"
  type: "Concat"
  bottom: "inception_4c/1x1"
  bottom: "inception_4c/3x3"
  bottom: "inception_4c/5x5"
  bottom: "inception_4c/pool_proj"
  top: "inception_4c/output"
}
layer {
  name: "inception_4d/1x1"
  type: "Convolution"
  bottom: "inception_4c/output"
  top: "inception_4d/1x1"
  param {
    lr_mult: 0
    decay_mult: 0
  }
  param {
    lr_mult: 0
    decay_mult: 0
  }
  convolution_param {
    num_output: 112
    kernel_size: 1
    weight_filler {
      type: "xavier"
      std: 0.03
    }
    bias_filler {
      type: "constant"
      value: 0.2
    }
  }
}
layer {
  name: "inception_4d/relu_1x1"
  type: "ReLU"
  bottom: "inception_4d/1x1"
  top: "inception_4d/1x1"
}
layer {
  name: "inception_4d/3x3_reduce"
  type: "Convolution"
  bottom: "inception_4c/output"
  top: "inception_4d/3x3_reduce"
  param {
    lr_mult: 0
    decay_mult: 0
  }
  param {
    lr_mult: 0
    decay_mult: 0
  }
  convolution_param {
    num_output: 144
    kernel_size: 1
    weight_filler {
      type: "xavier"
      std: 0.09
    }
    bias_filler {
      type: "constant"
      value: 0.2
    }
  }
}
layer {
  name: "inception_4d/relu_3x3_reduce"
  type: "ReLU"
  bottom: "inception_4d/3x3_reduce"
  top: "inception_4d/3x3_reduce"
}
layer {
  name: "inception_4d/3x3"
  type: "Convolution"
  bottom: "inception_4d/3x3_reduce"
  top: "inception_4d/3x3"
  param {
    lr_mult: 0
    decay_mult: 0
  }
  param {
    lr_mult: 0
    decay_mult: 0
  }
  convolution_param {
    num_output: 288
    pad: 1
    kernel_size: 3
    weight_filler {
      type: "xavier"
      std: 0.03
    }
    bias_filler {
      type: "constant"
      value: 0.2
    }
  }
}
layer {
  name: "inception_4d/relu_3x3"
  type: "ReLU"
  bottom: "inception_4d/3x3"
  top: "inception_4d/3x3"
}
layer {
  name: "inception_4d/5x5_reduce"
  type: "Convolution"
  bottom: "inception_4c/output"
  top: "inception_4d/5x5_reduce"
  param {
    lr_mult: 0
    decay_mult: 0
  }
  param {
    lr_mult: 0
    decay_mult: 0
  }
  convolution_param {
    num_output: 32
    kernel_size: 1
    weight_filler {
      type: "xavier"
      std: 0.2
    }
    bias_filler {
      type: "constant"
      value: 0.2
    }
  }
}
layer {
  name: "inception_4d/relu_5x5_reduce"
  type: "ReLU"
  bottom: "inception_4d/5x5_reduce"
  top: "inception_4d/5x5_reduce"
}
layer {
  name: "inception_4d/5x5"
  type: "Convolution"
  bottom: "inception_4d/5x5_reduce"
  top: "inception_4d/5x5"
  param {
    lr_mult: 0
    decay_mult: 0
  }
  param {
    lr_mult: 0
    decay_mult: 0
  }
  convolution_param {
    num_output: 64
    pad: 2
    kernel_size: 5
    weight_filler {
      type: "xavier"
      std: 0.03
    }
    bias_filler {
      type: "constant"
      value: 0.2
    }
  }
}
layer {
  name: "inception_4d/relu_5x5"
  type: "ReLU"
  bottom: "inception_4d/5x5"
  top: "inception_4d/5x5"
}
layer {
  name: "inception_4d/pool"
  type: "Pooling"
  bottom: "inception_4c/output"
  top: "inception_4d/pool"
  pooling_param {
    pool: MAX
    kernel_size: 3
    stride: 1
    pad: 1
  }
}
layer {
  name: "inception_4d/pool_proj"
  type: "Convolution"
  bottom: "inception_4d/pool"
  top: "inception_4d/pool_proj"
  param {
    lr_mult: 0
    decay_mult: 0
  }
  param {
    lr_mult: 0
    decay_mult: 0
  }
  convolution_param {
    num_output: 64
    kernel_size: 1
    weight_filler {
      type: "xavier"
      std: 0.1
    }
    bias_filler {
      type: "constant"
      value: 0.2
    }
  }
}
layer {
  name: "inception_4d/relu_pool_proj"
  type: "ReLU"
  bottom: "inception_4d/pool_proj"
  top: "inception_4d/pool_proj"
}
layer {
  name: "inception_4d/output"
  type: "Concat"
  bottom: "inception_4d/1x1"
  bottom: "inception_4d/3x3"
  bottom: "inception_4d/5x5"
  bottom: "inception_4d/pool_proj"
  top: "inception_4d/output"
}
layer {
  name: "loss2/ave_pool"
  type: "Pooling"
  bottom: "inception_4d/output"
  top: "loss2/ave_pool"
  pooling_param {
    pool: AVE
    kernel_size: 5
    stride: 3
  }
}
layer {
  name: "loss2/conv"
  type: "Convolution"
  bottom: "loss2/ave_pool"
  top: "loss2/conv"
  param {
…
I0313 20:13:57.529013 15508 net.cpp:112] Top shape: 32 128 14 14 (802816)
I0313 20:13:57.529021 15508 layer_factory.hpp:74] Creating layer inception_4c/3x3
I0313 20:13:57.529032 15508 net.cpp:76] Creating Layer inception_4c/3x3
I0313 20:13:57.529044 15508 net.cpp:372] inception_4c/3x3 <- inception_4c/3x3_reduce
I0313 20:13:57.529054 15508 net.cpp:334] inception_4c/3x3 -> inception_4c/3x3
I0313 20:13:57.529065 15508 net.cpp:105] Setting up inception_4c/3x3
I0313 20:13:57.531635 15508 net.cpp:112] Top shape: 32 256 14 14 (1605632)
I0313 20:13:57.531678 15508 layer_factory.hpp:74] Creating layer inception_4c/relu_3x3
I0313 20:13:57.531711 15508 net.cpp:76] Creating Layer inception_4c/relu_3x3
I0313 20:13:57.531738 15508 net.cpp:372] inception_4c/relu_3x3 <- inception_4c/3x3
I0313 20:13:57.531757 15508 net.cpp:323] inception_4c/relu_3x3 -> inception_4c/3x3 (in-place)
I0313 20:13:57.531776 15508 net.cpp:105] Setting up inception_4c/relu_3x3
I0313 20:13:57.531788 15508 net.cpp:112] Top shape: 32 256 14 14 (1605632)
I0313 20:13:57.531803 15508 layer_factory.hpp:74] Creating layer inception_4c/5x5_reduce
I0313 20:13:57.531816 15508 net.cpp:76] Creating Layer inception_4c/5x5_reduce
I0313 20:13:57.531828 15508 net.cpp:372] inception_4c/5x5_reduce <- inception_4b/output_inception_4b/output_0_split_2
I0313 20:13:57.531841 15508 net.cpp:334] inception_4c/5x5_reduce -> inception_4c/5x5_reduce
I0313 20:13:57.531859 15508 net.cpp:105] Setting up inception_4c/5x5_reduce
I0313 20:13:57.531983 15508 net.cpp:112] Top shape: 32 24 14 14 (150528)
I0313 20:13:57.532003 15508 layer_factory.hpp:74] Creating layer inception_4c/relu_5x5_reduce
I0313 20:13:57.532023 15508 net.cpp:76] Creating Layer inception_4c/relu_5x5_reduce
I0313 20:13:57.532042 15508 net.cpp:372] inception_4c/relu_5x5_reduce <- inception_4c/5x5_reduce
I0313 20:13:57.532053 15508 net.cpp:323] inception_4c/relu_5x5_reduce -> inception_4c/5x5_reduce (in-place)
I0313 20:13:57.532069 15508 net.cpp:105] Setting up inception_4c/relu_5x5_reduce
I0313 20:13:57.532078 15508 net.cpp:112] Top shape: 32 24 14 14 (150528)
I0313 20:13:57.532094 15508 layer_factory.hpp:74] Creating layer inception_4c/5x5
I0313 20:13:57.532105 15508 net.cpp:76] Creating Layer inception_4c/5x5
I0313 20:13:57.532119 15508 net.cpp:372] inception_4c/5x5 <- inception_4c/5x5_reduce
I0313 20:13:57.532131 15508 net.cpp:334] inception_4c/5x5 -> inception_4c/5x5
I0313 20:13:57.532147 15508 net.cpp:105] Setting up inception_4c/5x5
I0313 20:13:57.532508 15508 net.cpp:112] Top shape: 32 64 14 14 (401408)
I0313 20:13:57.532532 15508 layer_factory.hpp:74] Creating layer inception_4c/relu_5x5
I0313 20:13:57.532546 15508 net.cpp:76] Creating Layer inception_4c/relu_5x5
I0313 20:13:57.532559 15508 net.cpp:372] inception_4c/relu_5x5 <- inception_4c/5x5
I0313 20:13:57.532568 15508 net.cpp:323] inception_4c/relu_5x5 -> inception_4c/5x5 (in-place)
I0313 20:13:57.532577 15508 net.cpp:105] Setting up inception_4c/relu_5x5
I0313 20:13:57.532590 15508 net.cpp:112] Top shape: 32 64 14 14 (401408)
I0313 20:13:57.532598 15508 layer_factory.hpp:74] Creating layer inception_4c/pool
I0313 20:13:57.532611 15508 net.cpp:76] Creating Layer inception_4c/pool
I0313 20:13:57.532627 15508 net.cpp:372] inception_4c/pool <- inception_4b/output_inception_4b/output_0_split_3
I0313 20:13:57.532639 15508 net.cpp:334] inception_4c/pool -> inception_4c/pool
I0313 20:13:57.532649 15508 net.cpp:105] Setting up inception_4c/pool
I0313 20:13:57.532662 15508 net.cpp:112] Top shape: 32 512 14 14 (3211264)
I0313 20:13:57.532682 15508 layer_factory.hpp:74] Creating layer inception_4c/pool_proj
I0313 20:13:57.532707 15508 net.cpp:76] Creating Layer inception_4c/pool_proj
I0313 20:13:57.532716 15508 net.cpp:372] inception_4c/pool_proj <- inception_4c/pool
I0313 20:13:57.532734 15508 net.cpp:334] inception_4c/pool_proj -> inception_4c/pool_proj
I0313 20:13:57.532752 15508 net.cpp:105] Setting up inception_4c/pool_proj
I0313 20:13:57.533061 15508 net.cpp:112] Top shape: 32 64 14 14 (401408)
I0313 20:13:57.533087 15508 layer_factory.hpp:74] Creating layer inception_4c/relu_pool_proj
I0313 20:13:57.533102 15508 net.cpp:76] Creating Layer inception_4c/relu_pool_proj
I0313 20:13:57.533126 15508 net.cpp:372] inception_4c/relu_pool_proj <- inception_4c/pool_proj
I0313 20:13:57.533145 15508 net.cpp:323] inception_4c/relu_pool_proj -> inception_4c/pool_proj (in-place)
I0313 20:13:57.533170 15508 net.cpp:105] Setting up inception_4c/relu_pool_proj
I0313 20:13:57.533185 15508 net.cpp:112] Top shape: 32 64 14 14 (401408)
I0313 20:13:57.533205 15508 layer_factory.hpp:74] Creating layer inception_4c/output
I0313 20:13:57.533228 15508 net.cpp:76] Creating Layer inception_4c/output
I0313 20:13:57.533244 15508 net.cpp:372] inception_4c/output <- inception_4c/1x1
I0313 20:13:57.533265 15508 net.cpp:372] inception_4c/output <- inception_4c/3x3
I0313 20:13:57.533277 15508 net.cpp:372] inception_4c/output <- inception_4c/5x5
I0313 20:13:57.533290 15508 net.cpp:372] inception_4c/output <- inception_4c/pool_proj
I0313 20:13:57.533300 15508 net.cpp:334] inception_4c/output -> inception_4c/output
I0313 20:13:57.533319 15508 net.cpp:105] Setting up inception_4c/output
I0313 20:13:57.533329 15508 net.cpp:112] Top shape: 32 512 14 14 (3211264)
I0313 20:13:57.533336 15508 layer_factory.hpp:74] Creating layer inception_4c/output_inception_4c/output_0_split
I0313 20:13:57.533352 15508 net.cpp:76] Creating Layer inception_4c/output_inception_4c/output_0_split
I0313 20:13:57.533367 15508 net.cpp:372] inception_4c/output_inception_4c/output_0_split <- inception_4c/output
I0313 20:13:57.533377 15508 net.cpp:334] inception_4c/output_inception_4c/output_0_split -> inception_4c/output_inception_4c/output_0_split_0
I0313 20:13:57.533387 15508 net.cpp:334] inception_4c/output_inception_4c/output_0_split -> inception_4c/output_inception_4c/output_0_split_1
I0313 20:13:57.533403 15508 net.cpp:334] inception_4c/output_inception_4c/output_0_split -> inception_4c/output_inception_4c/output_0_split_2
I0313 20:13:57.533414 15508 net.cpp:334] inception_4c/output_inception_4c/output_0_split -> inception_4c/output_inception_4c/output_0_split_3
I0313 20:13:57.533442 15508 net.cpp:105] Setting up inception_4c/output_inception_4c/output_0_split
I0313 20:13:57.533454 15508 net.cpp:112] Top shape: 32 512 14 14 (3211264)
I0313 20:13:57.533463 15508 net.cpp:112] Top shape: 32 512 14 14 (3211264)
I0313 20:13:57.533469 15508 net.cpp:112] Top shape: 32 512 14 14 (3211264)
I0313 20:13:57.533475 15508 net.cpp:112] Top shape: 32 512 14 14 (3211264)
I0313 20:13:57.533481 15508 layer_factory.hpp:74] Creating layer inception_4d/1x1
I0313 20:13:57.533495 15508 net.cpp:76] Creating Layer inception_4d/1x1
I0313 20:13:57.533512 15508 net.cpp:372] inception_4d/1x1 <- inception_4c/output_inception_4c/output_0_split_0
I0313 20:13:57.533525 15508 net.cpp:334] inception_4d/1x1 -> inception_4d/1x1
I0313 20:13:57.533548 15508 net.cpp:105] Setting up inception_4d/1x1
I0313 20:13:57.534052 15508 net.cpp:112] Top shape: 32 112 14 14 (702464)
I0313 20:13:57.534076 15508 layer_factory.hpp:74] Creating layer inception_4d/relu_1x1
I0313 20:13:57.534090 15508 net.cpp:76] Creating Layer inception_4d/relu_1x1
I0313 20:13:57.534097 15508 net.cpp:372] inception_4d/relu_1x1 <- inception_4d/1x1
I0313 20:13:57.534121 15508 net.cpp:323] inception_4d/relu_1x1 -> inception_4d/1x1 (in-place)
I0313 20:13:57.534132 15508 net.cpp:105] Setting up inception_4d/relu_1x1
I0313 20:13:57.534138 15508 net.cpp:112] Top shape: 32 112 14 14 (702464)
I0313 20:13:57.534144 15508 layer_factory.hpp:74] Creating layer inception_4d/3x3_reduce
I0313 20:13:57.534173 15508 net.cpp:76] Creating Layer inception_4d/3x3_reduce
I0313 20:13:57.534198 15508 net.cpp:372] inception_4d/3x3_reduce <- inception_4c/output_inception_4c/output_0_split_1
I0313 20:13:57.534209 15508 net.cpp:334] inception_4d/3x3_reduce -> inception_4d/3x3_reduce
I0313 20:13:57.534234 15508 net.cpp:105] Setting up inception_4d/3x3_reduce
I0313 20:13:57.534898 15508 net.cpp:112] Top shape: 32 144 14 14 (903168)
I0313 20:13:57.534925 15508 layer_factory.hpp:74] Creating layer inception_4d/relu_3x3_reduce
I0313 20:13:57.534937 15508 net.cpp:76] Creating Layer inception_4d/relu_3x3_reduce
I0313 20:13:57.534951 15508 net.cpp:372] inception_4d/relu_3x3_reduce <- inception_4d/3x3_reduce
I0313 20:13:57.534970 15508 net.cpp:323] inception_4d/relu_3x3_reduce -> inception_4d/3x3_reduce (in-place)
I0313 20:13:57.534997 15508 net.cpp:105] Setting up inception_4d/relu_3x3_reduce
I0313 20:13:57.535008 15508 net.cpp:112] Top shape: 32 144 14 14 (903168)
I0313 20:13:57.535017 15508 layer_factory.hpp:74] Creating layer inception_4d/3x3
I0313 20:13:57.535042 15508 net.cpp:76] Creating Layer inception_4d/3x3
I0313 20:13:57.535049 15508 net.cpp:372] inception_4d/3x3 <- inception_4d/3x3_reduce
I0313 20:13:57.535063 15508 net.cpp:334] inception_4d/3x3 -> inception_4d/3x3
I0313 20:13:57.535075 15508 net.cpp:105] Setting up inception_4d/3x3
I0313 20:13:57.538317 15508 net.cpp:112] Top shape: 32 288 14 14 (1806336)
I0313 20:13:57.538347 15508 layer_factory.hpp:74] Creating layer inception_4d/relu_3x3
I0313 20:13:57.538363 15508 net.cpp:76] Creating Layer inception_4d/relu_3x3
I0313 20:13:57.538384 15508 net.cpp:372] inception_4d/relu_3x3 <- inception_4d/3x3
I0313 20:13:57.538399 15508 net.cpp:323] inception_4d/relu_3x3 -> inception_4d/3x3 (in-place)
I0313 20:13:57.538409 15508 net.cpp:105] Setting up inception_4d/relu_3x3
I0313 20:13:57.538421 15508 net.cpp:112] Top shape: 32 288 14 14 (1806336)
I0313 20:13:57.538445 15508 layer_factory.hpp:74] Creating layer inception_4d/5x5_reduce
I0313 20:13:57.538458 15508 net.cpp:76] Creating Layer inception_4d/5x5_reduce
I0313 20:13:57.538466 15508 net.cpp:372] inception_4d/5x5_reduce <- inception_4c/output_inception_4c/output_0_split_2
I0313 20:13:57.538478 15508 net.cpp:334] inception_4d/5x5_reduce -> inception_4d/5x5_reduce
I0313 20:13:57.538491 15508 net.cpp:105] Setting up inception_4d/5x5_reduce
I0313 20:13:57.538650 15508 net.cpp:112] Top shape: 32 32 14 14 (200704)
I0313 20:13:57.538677 15508 layer_factory.hpp:74] Creating layer inception_4d/relu_5x5_reduce
I0313 20:13:57.538688 15508 net.cpp:76] Creating Layer inception_4d/relu_5x5_reduce
I0313 20:13:57.538702 15508 net.cpp:372] inception_4d/relu_5x5_reduce <- inception_4d/5x5_reduce
I0313 20:13:57.538712 15508 net.cpp:323] inception_4d/relu_5x5_reduce -> inception_4d/5x5_reduce (in-place)
I0313 20:13:57.538722 15508 net.cpp:105] Setting up inception_4d/relu_5x5_reduce
I0313 20:13:57.538736 15508 net.cpp:112] Top shape: 32 32 14 14 (200704)
I0313 20:13:57.538744 15508 layer_factory.hpp:74] Creating layer inception_4d/5x5
I0313 20:13:57.538755 15508 net.cpp:76] Creating Layer inception_4d/5x5
I0313 20:13:57.538769 15508 net.cpp:372] inception_4d/5x5 <- inception_4d/5x5_reduce
I0313 20:13:57.538781 15508 net.cpp:334] inception_4d/5x5 -> inception_4d/5x5
I0313 20:13:57.538796 15508 net.cpp:105] Setting up inception_4d/5x5
I0313 20:13:57.539253 15508 net.cpp:112] Top shape: 32 64 14 14 (401408)
I0313 20:13:57.539278 15508 layer_factory.hpp:74] Creating layer inception_4d/relu_5x5
I0313 20:13:57.539295 15508 net.cpp:76] Creating Layer inception_4d/relu_5x5
I0313 20:13:57.539304 15508 net.cpp:372] inception_4d/relu_5x5 <- inception_4d/5x5
I0313 20:13:57.539314 15508 net.cpp:323] inception_4d/relu_5x5 -> inception_4d/5x5 (in-place)
I0313 20:13:57.539327 15508 net.cpp:105] Setting up inception_4d/relu_5x5
I0313 20:13:57.539335 15508 net.cpp:112] Top shape: 32 64 14 14 (401408)
I0313 20:13:57.539343 15508 layer_factory.hpp:74] Creating layer inception_4d/pool
I0313 20:13:57.539361 15508 net.cpp:76] Creating Layer inception_4d/pool
I0313 20:13:57.539382 15508 net.cpp:372] inception_4d/pool <- inception_4c/output_inception_4c/output_0_split_3
I0313 20:13:57.539436 15508 net.cpp:334] inception_4d/pool -> inception_4d/pool
I0313 20:13:57.539464 15508 net.cpp:105] Setting up inception_4d/pool
I0313 20:13:57.539482 15508 net.cpp:112] Top shape: 32 512 14 14 (3211264)
I0313 20:13:57.539497 15508 layer_factory.hpp:74] Creating layer inception_4d/pool_proj
I0313 20:13:57.539520 15508 net.cpp:76] Creating Layer inception_4d/pool_proj
I0313 20:13:57.539535 15508 net.cpp:372] inception_4d/pool_proj <- inception_4d/pool
I0313 20:13:57.539546 15508 net.cpp:334] inception_4d/pool_proj -> inception_4d/pool_proj
I0313 20:13:57.539561 15508 net.cpp:105] Setting up inception_4d/pool_proj
I0313 20:13:57.539870 15508 net.cpp:112] Top shape: 32 64 14 14 (401408)
I0313 20:13:57.539894 15508 layer_factory.hpp:74] Creating layer inception_4d/relu_pool_proj
I0313 20:13:57.539907 15508 net.cpp:76] Creating Layer inception_4d/relu_pool_proj
I0313 20:13:57.539921 15508 net.cpp:372] inception_4d/relu_pool_proj <- inception_4d/pool_proj
I0313 20:13:57.539932 15508 net.cpp:323] inception_4d/relu_pool_proj -> inception_4d/pool_proj (in-place)
I0313 20:13:57.539947 15508 net.cpp:105] Setting up inception_4d/relu_pool_proj
I0313 20:13:57.539955 15508 net.cpp:112] Top shape: 32 64 14 14 (401408)
I0313 20:13:57.539968 15508 layer_factory.hpp:74] Creating layer inception_4d/output
I0313 20:13:57.539978 15508 net.cpp:76] Creating Layer inception_4d/output
I0313 20:13:57.539985 15508 net.cpp:372] inception_4d/output <- inception_4d/1x1
I0313 20:13:57.539999 15508 net.cpp:372] inception_4d/output <- inception_4d/3x3
I0313 20:13:57.540009 15508 net.cpp:372] inception_4d/output <- inception_4d/5x5
I0313 20:13:57.540022 15508 net.cpp:372] inception_4d/output <- inception_4d/pool_proj
I0313 20:13:57.540032 15508 net.cpp:334] inception_4d/output -> inception_4d/output
I0313 20:13:57.540041 15508 net.cpp:105] Setting up inception_4d/output
I0313 20:13:57.540055 15508 net.cpp:112] Top shape: 32 528 14 14 (3311616)
I0313 20:13:57.540062 15508 layer_factory.hpp:74] Creating layer inception_4d/output_inception_4d/output_0_split
I0313 20:13:57.540076 15508 net.cpp:76] Creating Layer inception_4d/output_inception_4d/output_0_split
I0313 20:13:57.540089 15508 net.cpp:372] inception_4d/output_inception_4d/output_0_split <- inception_4d/output
I0313 20:13:57.540099 15508 net.cpp:334] inception_4d/output_inception_4d/output_0_split -> inception_4d/output_inception_4d/output_0_split_0
I0313 20:13:57.540109 15508 net.cpp:334] inception_4d/output_inception_4d/output_0_split -> inception_4d/output_inception_4d/output_0_split_1
I0313 20:13:57.540125 15508 net.cpp:334] inception_4d/output_inception_4d/output_0_split -> inception_4d/output_inception_4d/output_0_split_2
I0313 20:13:57.540139 15508 net.cpp:334] inception_4d/output_inception_4d/output_0_split -> inception_4d/output_inception_4d/output_0_split_3
I0313 20:13:57.540155 15508 net.cpp:334] inception_4d/output_inception_4d/output_0_split -> inception_4d/output_inception_4d/output_0_split_4
I0313 20:13:57.540166 15508 net.cpp:105] Setting up inception_4d/output_inception_4d/output_0_split
I0313 20:13:57.540179 15508 net.cpp:112] Top shape: 32 528 14 14 (3311616)
I0313 20:13:57.540187 15508 net.cpp:112] Top shape: 32 528 14 14 (3311616)
I0313 20:13:57.540194 15508 net.cpp:112] Top shape: 32 528 14 14 (3311616)
I0313 20:13:57.540200 15508 net.cpp:112] Top shape: 32 528 14 14 (3311616)
I0313 20:13:57.540211 15508 net.cpp:112] Top shape: 32 528 14 14 (3311616)
I0313 20:13:57.540220 15508 layer_factory.hpp:74] Creating layer loss2/ave_pool
I0313 20:13:57.540228 15508 net.cpp:76] Creating Layer loss2/ave_pool
I0313 20:13:57.540241 15508 net.cpp:372] loss2/ave_pool <- inception_4d/output_inception_4d/output_0_split_0
I0313 20:13:57.540251 15508 net.cpp:334] loss2/ave_pool -> loss2/ave_pool
I0313 20:13:57.540261 15508 net.cpp:105] Setting up loss2/ave_pool
I0313 20:13:57.540277 15508 net.cpp:112] Top shape: 32 528 4 4 (270336)
I0313 20:13:57.540289 15508 layer_factory.hpp:74] Creating layer loss2/conv
I0313 20:13:57.540324 15508 net.cpp:76] Creating Layer loss2/conv
I0313 20:13:57.540339 15508 net.cpp:372] loss2/conv <- loss2/ave_pool
I0313 20:13:57.540354 15508 net.cpp:334] loss2/conv -> loss2/conv
I0313 20:13:57.540369 15508 net.cpp:105] Setting up loss2/conv
I0313 20:13:57.540985 15508 net.cpp:112] Top shape: 32 128 4 4 (65536)
I0313 20:13:57.541014 15508 layer_factory.hpp:74] Creating layer loss2/relu_conv
I0313 20:13:57.541028 15508 net.cpp:76] Creating Layer loss2/relu_conv
I0313 20:13:57.541049 15508 net.cpp:372] loss2/relu_conv <- loss2/conv
I0313 20:13:57.541067 15508 net.cpp:323] loss2/relu_conv -> loss2/conv (in-place)
I0313 20:13:57.541084 15508 net.cpp:105] Setting up loss2/relu_conv
I0313 20:13:57.541097 15508 net.cpp:112] Top shape: 32 128 4 4 (65536)
I0313 20:13:57.541105 15508 layer_factory.hpp:74] Creating layer loss2/fc
I0313 20:13:57.541117 15508 net.cpp:76] Creating Layer loss2/fc
I0313 20:13:57.541131 15508 net.cpp:372] loss2/fc <- loss2/conv
I0313 20:13:57.541143 15508 net.cpp:334] loss2/fc -> loss2/fc
I0313 20:13:57.541160 15508 net.cpp:105] Setting up loss2/fc
I0313 20:13:57.559177 15508 net.cpp:112] Top shape: 32 1024 1 1 (32768)
I0313 20:13:57.559242 15508 layer_factory.hpp:74] Creating layer loss2/relu_fc
I0313 20:13:57.559257 15508 net.cpp:76] Creating Layer loss2/relu_fc
I0313 20:13:57.559273 15508 net.cpp:372] loss2/relu_fc <- loss2/fc
I0313 20:13:57.559294 15508 net.cpp:323] loss2/relu_fc -> loss2/fc (in-place)
I0313 20:13:57.559329 15508 net.cpp:105] Setting up loss2/relu_fc
I0313 20:13:57.559340 15508 net.cpp:112] Top shape: 32 1024 1 1 (32768)
I0313 20:13:57.559348 15508 layer_factory.hpp:74] Creating layer loss2/drop_fc
I0313 20:13:57.559360 15508 net.cpp:76] Creating Layer loss2/drop_fc
I0313 20:13:57.559370 15508 net.cpp:372] loss2/drop_fc <- loss2/fc
I0313 20:13:57.559381 15508 net.cpp:323] loss2/drop_fc -> loss2/fc (in-place)
I0313 20:13:57.559422 15508 net.cpp:105] Setting up loss2/drop_fc
I0313 20:13:57.559437 15508 net.cpp:112] Top shape: 32 1024 1 1 (32768)
I0313 20:13:57.559445 15508 layer_factory.hpp:74] Creating layer loss2/classifier
I0313 20:13:57.559461 15508 net.cpp:76] Creating Layer loss2/classifier
I0313 20:13:57.559480 15508 net.cpp:372] loss2/classifier <- loss2/fc
I0313 20:13:57.559492 15508 net.cpp:334] loss2/classifier -> loss2/classifier
I0313 20:13:57.559504 15508 net.cpp:105] Setting up loss2/classifier
I0313 20:13:57.568302 15508 net.cpp:112] Top shape: 32 1000 1 1 (32000)
I0313 20:13:57.568333 15508 layer_factory.hpp:74] Creating layer loss2/classifier_loss2/classifier_0_split
I0313 20:13:57.568348 15508 net.cpp:76] Creating Layer loss2/classifier_loss2/classifier_0_split
I0313 20:13:57.568359 15508 net.cpp:372] loss2/classifier_loss2/classifier_0_split <- loss2/classifier
I0313 20:13:57.568379 15508 net.cpp:334] loss2/classifier_loss2/classifier_0_split -> loss2/classifier_loss2/classifier_0_split_0
I0313 20:13:57.568408 15508 net.cpp:334] loss2/classifier_loss2/classifier_0_split -> loss2/classifier_loss2/classifier_0_split_1
I0313 20:13:57.568449 15508 net.cpp:334] loss2/classifier_loss2/classifier_0_split -> loss2/classifier_loss2/classifier_0_split_2
I0313 20:13:57.568471 15508 net.cpp:105] Setting up loss2/classifier_loss2/classifier_0_split
I0313 20:13:57.568492 15508 net.cpp:112] Top shape: 32 1000 1 1 (32000)
I0313 20:13:57.568500 15508 net.cpp:112] Top shape: 32 1000 1 1 (32000)
I0313 20:13:57.568507 15508 net.cpp:112] Top shape: 32 1000 1 1 (32000)
I0313 20:13:57.568514 15508 layer_factory.hpp:74] Creating layer loss2/loss
I0313 20:13:57.568526 15508 net.cpp:76] Creating Layer loss2/loss
I0313 20:13:57.568534 15508 net.cpp:372] loss2/loss <- loss2/classifier_loss2/classifier_0_split_0
I0313 20:13:57.568545 15508 net.cpp:372] loss2/loss <- label_data_1_split_3
I0313 20:13:57.568559 15508 net.cpp:334] loss2/loss -> loss2/loss1
I0313 20:13:57.568572 15508 net.cpp:105] Setting up loss2/loss
I0313 20:13:57.568591 15508 layer_factory.hpp:74] Creating layer loss2/loss
I0313 20:13:57.568681 15508 net.cpp:112] Top shape: 1 1 1 1 (1)
I0313 20:13:57.568709 15508 net.cpp:118]     with loss weight 0.3
I0313 20:13:57.568752 15508 layer_factory.hpp:74] Creating layer loss2/top-1
I0313 20:13:57.568765 15508 net.cpp:76] Creating Layer loss2/top-1
I0313 20:13:57.568773 15508 net.cpp:372] loss2/top-1 <- loss2/classifier_loss2/classifier_0_split_1
I0313 20:13:57.568794 15508 net.cpp:372] loss2/top-1 <- label_data_1_split_4
I0313 20:13:57.568805 15508 net.cpp:334] loss2/top-1 -> loss2/top-1
I0313 20:13:57.568816 15508 net.cpp:105] Setting up loss2/top-1
I0313 20:13:57.568833 15508 net.cpp:112] Top shape: 1 1 1 1 (1)
I0313 20:13:57.568842 15508 layer_factory.hpp:74] Creating layer loss2/top-5
I0313 20:13:57.568856 15508 net.cpp:76] Creating Layer loss2/top-5
I0313 20:13:57.568871 15508 net.cpp:372] loss2/top-5 <- loss2/classifier_loss2/classifier_0_split_2
I0313 20:13:57.568881 15508 net.cpp:372] loss2/top-5 <- label_data_1_split_5
I0313 20:13:57.568891 15508 net.cpp:334] loss2/top-5 -> loss2/top-5
I0313 20:13:57.568912 15508 net.cpp:105] Setting up loss2/top-5
I0313 20:13:57.568922 15508 net.cpp:112] Top shape: 1 1 1 1 (1)
I0313 20:13:57.568928 15508 layer_factory.hpp:74] Creating layer inception_4e/1x1
I0313 20:13:57.568943 15508 net.cpp:76] Creating Layer inception_4e/1x1
I0313 20:13:57.568958 15508 net.cpp:372] inception_4e/1x1 <- inception_4d/output_inception_4d/output_0_split_1
I0313 20:13:57.568970 15508 net.cpp:334] inception_4e/1x1 -> inception_4e/1x1
I0313 20:13:57.568994 15508 net.cpp:105] Setting up inception_4e/1x1
I0313 20:13:57.570186 15508 net.cpp:112] Top shape: 32 256 14 14 (1605632)
I0313 20:13:57.570219 15508 layer_factory.hpp:74] Creating layer inception_4e/relu_1x1
I0313 20:13:57.570232 15508 net.cpp:76] Creating Layer inception_4e/relu_1x1
I0313 20:13:57.570261 15508 net.cpp:372] inception_4e/relu_1x1 <- inception_4e/1x1
I0313 20:13:57.570277 15508 net.cpp:323] inception_4e/relu_1x1 -> inception_4e/1x1 (in-place)
I0313 20:13:57.570296 15508 net.cpp:105] Setting up inception_4e/relu_1x1
I0313 20:13:57.570310 15508 net.cpp:112] Top shape: 32 256 14 14 (1605632)
I0313 20:13:57.570324 15508 layer_factory.hpp:74] Creating layer inception_4e/3x3_reduce
I0313 20:13:57.570390 15508 net.cpp:76] Creating Layer inception_4e/3x3_reduce
I0313 20:13:57.570415 15508 net.cpp:372] inception_4e/3x3_reduce <- inception_4d/output_inception_4d/output_0_split_2
I0313 20:13:57.570446 15508 net.cpp:334] inception_4e/3x3_reduce -> inception_4e/3x3_reduce
I0313 20:13:57.570474 15508 net.cpp:105] Setting up inception_4e/3x3_reduce
I0313 20:13:57.571221 15508 net.cpp:112] Top shape: 32 160 14 14 (1003520)
I0313 20:13:57.571249 15508 layer_factory.hpp:74] Creating layer inception_4e/relu_3x3_reduce
I0313 20:13:57.571264 15508 net.cpp:76] Creating Layer inception_4e/relu_3x3_reduce
I0313 20:13:57.571285 15508 net.cpp:372] inception_4e/relu_3x3_reduce <- inception_4e/3x3_reduce
I0313 20:13:57.571296 15508 net.cpp:323] inception_4e/relu_3x3_reduce -> inception_4e/3x3_reduce (in-place)
I0313 20:13:57.571305 15508 net.cpp:105] Setting up inception_4e/relu_3x3_reduce
I0313 20:13:57.571322 15508 net.cpp:112] Top shape: 32 160 14 14 (1003520)
I0313 20:13:57.571331 15508 layer_factory.hpp:74] Creating layer inception_4e/3x3
I0313 20:13:57.571344 15508 net.cpp:76] Creating Layer inception_4e/3x3
I0313 20:13:57.571363 15508 net.cpp:372] inception_4e/3x3 <- inception_4e/3x3_reduce
I0313 20:13:57.571374 15508 net.cpp:334] inception_4e/3x3 -> inception_4e/3x3
I0313 20:13:57.571385 15508 net.cpp:105] Setting up inception_4e/3x3
I0313 20:13:57.575393 15508 net.cpp:112] Top shape: 32 320 14 14 (2007040)
I0313 20:13:57.575424 15508 layer_factory.hpp:74] Creating layer inception_4e/relu_3x3
I0313 20:13:57.575475 15508 net.cpp:76] Creating Layer inception_4e/relu_3x3
I0313 20:13:57.575491 15508 net.cpp:372] inception_4e/relu_3x3 <- inception_4e/3x3
I0313 20:13:57.575508 15508 net.cpp:323] inception_4e/relu_3x3 -> inception_4e/3x3 (in-place)
I0313 20:13:57.575526 15508 net.cpp:105] Setting up inception_4e/relu_3x3
I0313 20:13:57.575547 15508 net.cpp:112] Top shape: 32 320 14 14 (2007040)
I0313 20:13:57.575562 15508 layer_factory.hpp:74] Creating layer inception_4e/5x5_reduce
I0313 20:13:57.575592 15508 net.cpp:76] Creating Layer inception_4e/5x5_reduce
I0313 20:13:57.575602 15508 net.cpp:372] inception_4e/5x5_reduce <- inception_4d/output_inception_4d/output_0_split_3
I0313 20:13:57.575613 15508 net.cpp:334] inception_4e/5x5_reduce -> inception_4e/5x5_reduce
I0313 20:13:57.575634 15508 net.cpp:105] Setting up inception_4e/5x5_reduce
I0313 20:13:57.575793 15508 net.cpp:112] Top shape: 32 32 14 14 (200704)
I0313 20:13:57.575812 15508 layer_factory.hpp:74] Creating layer inception_4e/relu_5x5_reduce
I0313 20:13:57.575824 15508 net.cpp:76] Creating Layer inception_4e/relu_5x5_reduce
I0313 20:13:57.575831 15508 net.cpp:372] inception_4e/relu_5x5_reduce <- inception_4e/5x5_reduce
I0313 20:13:57.575855 15508 net.cpp:323] inception_4e/relu_5x5_reduce -> inception_4e/5x5_reduce (in-place)
I0313 20:13:57.575865 15508 net.cpp:105] Setting up inception_4e/relu_5x5_reduce
I0313 20:13:57.575873 15508 net.cpp:112] Top shape: 32 32 14 14 (200704)
I0313 20:13:57.575892 15508 layer_factory.hpp:74] Creating layer inception_4e/5x5
I0313 20:13:57.575904 15508 net.cpp:76] Creating Layer inception_4e/5x5
I0313 20:13:57.575911 15508 net.cpp:372] inception_4e/5x5 <- inception_4e/5x5_reduce
I0313 20:13:57.575935 15508 net.cpp:334] inception_4e/5x5 -> inception_4e/5x5
I0313 20:13:57.575947 15508 net.cpp:105] Setting up inception_4e/5x5
I0313 20:13:57.576874 15508 net.cpp:112] Top shape: 32 128 14 14 (802816)
I0313 20:13:57.576902 15508 layer_factory.hpp:74] Creating layer inception_4e/relu_5x5
I0313 20:13:57.576915 15508 net.cpp:76] Creating Layer inception_4e/relu_5x5
I0313 20:13:57.576930 15508 net.cpp:372] inception_4e/relu_5x5 <- inception_4e/5x5
I0313 20:13:57.576954 15508 net.cpp:323] inception_4e/relu_5x5 -> inception_4e/5x5 (in-place)
I0313 20:13:57.576971 15508 net.cpp:105] Setting up inception_4e/relu_5x5
I0313 20:13:57.576997 15508 net.cpp:112] Top shape: 32 128 14 14 (802816)
I0313 20:13:57.577010 15508 layer_factory.hpp:74] Creating layer inception_4e/pool
I0313 20:13:57.577028 15508 net.cpp:76] Creating Layer inception_4e/pool
I0313 20:13:57.577044 15508 net.cpp:372] inception_4e/pool <- inception_4d/output_inception_4d/output_0_split_4
I0313 20:13:57.577075 15508 net.cpp:334] inception_4e/pool -> inception_4e/pool
I0313 20:13:57.577087 15508 net.cpp:105] Setting up inception_4e/pool
I0313 20:13:57.577107 15508 net.cpp:112] Top shape: 32 528 14 14 (3311616)
I0313 20:13:57.577116 15508 layer_factory.hpp:74] Creating layer inception_4e/pool_proj
I0313 20:13:57.577129 15508 net.cpp:76] Creating Layer inception_4e/pool_proj
I0313 20:13:57.577138 15508 net.cpp:372] inception_4e/pool_proj <- inception_4e/pool
I0313 20:13:57.577153 15508 net.cpp:334] inception_4e/pool_proj -> inception_4e/pool_proj
I0313 20:13:57.577175 15508 net.cpp:105] Setting up inception_4e/pool_proj
I0313 20:13:57.577782 15508 net.cpp:112] Top shape: 32 128 14 14 (802816)
I0313 20:13:57.577807 15508 layer_factory.hpp:74] Creating layer inception_4e/relu_pool_proj
I0313 20:13:57.577818 15508 net.cpp:76] Creating Layer inception_4e/relu_pool_proj
I0313 20:13:57.577827 15508 net.cpp:372] inception_4e/relu_pool_proj <- inception_4e/pool_proj
I0313 20:13:57.577838 15508 net.cpp:323] inception_4e/relu_pool_proj -> inception_4e/pool_proj (in-place)
I0313 20:13:57.577855 15508 net.cpp:105] Setting up inception_4e/relu_pool_proj
I0313 20:13:57.577864 15508 net.cpp:112] Top shape: 32 128 14 14 (802816)
I0313 20:13:57.577872 15508 layer_factory.hpp:74] Creating layer inception_4e/output
I0313 20:13:57.577893 15508 net.cpp:76] Creating Layer inception_4e/output
I0313 20:13:57.577901 15508 net.cpp:372] inception_4e/output <- inception_4e/1x1
I0313 20:13:57.577909 15508 net.cpp:372] inception_4e/output <- inception_4e/3x3
I0313 20:13:57.577918 15508 net.cpp:372] inception_4e/output <- inception_4e/5x5
I0313 20:13:57.577937 15508 net.cpp:372] inception_4e/output <- inception_4e/pool_proj
I0313 20:13:57.577947 15508 net.cpp:334] inception_4e/output -> inception_4e/output
I0313 20:13:57.577970 15508 net.cpp:105] Setting up inception_4e/output
I0313 20:13:57.578001 15508 net.cpp:112] Top shape: 32 832 14 14 (5218304)
I0313 20:13:57.578009 15508 layer_factory.hpp:74] Creating layer pool4/3x3_s2
I0313 20:13:57.578019 15508 net.cpp:76] Creating Layer pool4/3x3_s2
I0313 20:13:57.578027 15508 net.cpp:372] pool4/3x3_s2 <- inception_4e/output
I0313 20:13:57.578038 15508 net.cpp:334] pool4/3x3_s2 -> pool4/3x3_s2
I0313 20:13:57.578054 15508 net.cpp:105] Setting up pool4/3x3_s2
I0313 20:13:57.578071 15508 net.cpp:112] Top shape: 32 832 7 7 (1304576)
I0313 20:13:57.578086 15508 layer_factory.hpp:74] Creating layer pool4/3x3_s2_pool4/3x3_s2_0_split
I0313 20:13:57.578101 15508 net.cpp:76] Creating Layer pool4/3x3_s2_pool4/3x3_s2_0_split
I0313 20:13:57.578112 15508 net.cpp:372] pool4/3x3_s2_pool4/3x3_s2_0_split <- pool4/3x3_s2
I0313 20:13:57.578125 15508 net.cpp:334] pool4/3x3_s2_pool4/3x3_s2_0_split -> pool4/3x3_s2_pool4/3x3_s2_0_split_0
I0313 20:13:57.578136 15508 net.cpp:334] pool4/3x3_s2_pool4/3x3_s2_0_split -> pool4/3x3_s2_pool4/3x3_s2_0_split_1
I0313 20:13:57.578146 15508 net.cpp:334] pool4/3x3_s2_pool4/3x3_s2_0_split -> pool4/3x3_s2_pool4/3x3_s2_0_split_2
I0313 20:13:57.578176 15508 net.cpp:334] pool4/3x3_s2_pool4/3x3_s2_0_split -> pool4/3x3_s2_pool4/3x3_s2_0_split_3
I0313 20:13:57.578196 15508 net.cpp:105] Setting up pool4/3x3_s2_pool4/3x3_s2_0_split
I0313 20:13:57.578220 15508 net.cpp:112] Top shape: 32 832 7 7 (1304576)
I0313 20:13:57.578230 15508 net.cpp:112] Top shape: 32 832 7 7 (1304576)
I0313 20:13:57.578240 15508 net.cpp:112] Top shape: 32 832 7 7 (1304576)
I0313 20:13:57.578265 15508 net.cpp:112] Top shape: 32 832 7 7 (1304576)
I0313 20:13:57.578277 15508 layer_factory.hpp:74] Creating layer inception_5a/1x1
I0313 20:13:57.578295 15508 net.cpp:76] Creating Layer inception_5a/1x1
I0313 20:13:57.578310 15508 net.cpp:372] inception_5a/1x1 <- pool4/3x3_s2_pool4/3x3_s2_0_split_0
I0313 20:13:57.578341 15508 net.cpp:334] inception_5a/1x1 -> inception_5a/1x1
I0313 20:13:57.578354 15508 net.cpp:105] Setting up inception_5a/1x1
I0313 20:13:57.580217 15508 net.cpp:112] Top shape: 32 256 7 7 (401408)
I0313 20:13:57.580247 15508 layer_factory.hpp:74] Creating layer inception_5a/relu_1x1
I0313 20:13:57.580260 15508 net.cpp:76] Creating Layer inception_5a/relu_1x1
I0313 20:13:57.580274 15508 net.cpp:372] inception_5a/relu_1x1 <- inception_5a/1x1
I0313 20:13:57.580296 15508 net.cpp:323] inception_5a/relu_1x1 -> inception_5a/1x1 (in-place)
I0313 20:13:57.580319 15508 net.cpp:105] Setting up inception_5a/relu_1x1
I0313 20:13:57.580328 15508 net.cpp:112] Top shape: 32 256 7 7 (401408)
I0313 20:13:57.580337 15508 layer_factory.hpp:74] Creating layer inception_5a/3x3_reduce
I0313 20:13:57.580360 15508 net.cpp:76] Creating Layer inception_5a/3x3_reduce
I0313 20:13:57.580370 15508 net.cpp:372] inception_5a/3x3_reduce <- pool4/3x3_s2_pool4/3x3_s2_0_split_1
I0313 20:13:57.580382 15508 net.cpp:334] inception_5a/3x3_reduce -> inception_5a/3x3_reduce
I0313 20:13:57.580399 15508 net.cpp:105] Setting up inception_5a/3x3_reduce
I0313 20:13:57.581580 15508 net.cpp:112] Top shape: 32 160 7 7 (250880)
I0313 20:13:57.581609 15508 layer_factory.hpp:74] Creating layer inception_5a/relu_3x3_reduce
I0313 20:13:57.581627 15508 net.cpp:76] Creating Layer inception_5a/relu_3x3_reduce
I0313 20:13:57.581655 15508 net.cpp:372] inception_5a/relu_3x3_reduce <- inception_5a/3x3_reduce
I0313 20:13:57.581672 15508 net.cpp:323] inception_5a/relu_3x3_reduce -> inception_5a/3x3_reduce (in-place)
I0313 20:13:57.581691 15508 net.cpp:105] Setting up inception_5a/relu_3x3_reduce
I0313 20:13:57.581706 15508 net.cpp:112] Top shape: 32 160 7 7 (250880)
I0313 20:13:57.581727 15508 layer_factory.hpp:74] Creating layer inception_5a/3x3
I0313 20:13:57.581743 15508 net.cpp:76] Creating Layer inception_5a/3x3
I0313 20:13:57.581760 15508 net.cpp:372] inception_5a/3x3 <- inception_5a/3x3_reduce
I0313 20:13:57.581773 15508 net.cpp:334] inception_5a/3x3 -> inception_5a/3x3
I0313 20:13:57.581794 15508 net.cpp:105] Setting up inception_5a/3x3
I0313 20:13:57.585774 15508 net.cpp:112] Top shape: 32 320 7 7 (501760)
I0313 20:13:57.585813 15508 layer_factory.hpp:74] Creating layer inception_5a/relu_3x3
I0313 20:13:57.585826 15508 net.cpp:76] Creating Layer inception_5a/relu_3x3
I0313 20:13:57.585842 15508 net.cpp:372] inception_5a/relu_3x3 <- inception_5a/3x3
I0313 20:13:57.585860 15508 net.cpp:323] inception_5a/relu_3x3 -> inception_5a/3x3 (in-place)
I0313 20:13:57.585880 15508 net.cpp:105] Setting up inception_5a/relu_3x3
I0313 20:13:57.585889 15508 net.cpp:112] Top shape: 32 320 7 7 (501760)
I0313 20:13:57.585897 15508 layer_factory.hpp:74] Creating layer inception_5a/5x5_reduce
I0313 20:13:57.585908 15508 net.cpp:76] Creating Layer inception_5a/5x5_reduce
I0313 20:13:57.585928 15508 net.cpp:372] inception_5a/5x5_reduce <- pool4/3x3_s2_pool4/3x3_s2_0_split_2
I0313 20:13:57.585942 15508 net.cpp:334] inception_5a/5x5_reduce -> inception_5a/5x5_reduce
I0313 20:13:57.585957 15508 net.cpp:105] Setting up inception_5a/5x5_reduce
I0313 20:13:57.586204 15508 net.cpp:112] Top shape: 32 32 7 7 (50176)
I0313 20:13:57.586225 15508 layer_factory.hpp:74] Creating layer inception_5a/relu_5x5_reduce
I0313 20:13:57.586238 15508 net.cpp:76] Creating Layer inception_5a/relu_5x5_reduce
I0313 20:13:57.586259 15508 net.cpp:372] inception_5a/relu_5x5_reduce <- inception_5a/5x5_reduce
I0313 20:13:57.586271 15508 net.cpp:323] inception_5a/relu_5x5_reduce -> inception_5a/5x5_reduce (in-place)
I0313 20:13:57.586279 15508 net.cpp:105] Setting up inception_5a/relu_5x5_reduce
I0313 20:13:57.586300 15508 net.cpp:112] Top shape: 32 32 7 7 (50176)
I0313 20:13:57.586308 15508 layer_factory.hpp:74] Creating layer inception_5a/5x5
I0313 20:13:57.586318 15508 net.cpp:76] Creating Layer inception_5a/5x5
I0313 20:13:57.586338 15508 net.cpp:372] inception_5a/5x5 <- inception_5a/5x5_reduce
I0313 20:13:57.586354 15508 net.cpp:334] inception_5a/5x5 -> inception_5a/5x5
I0313 20:13:57.586391 15508 net.cpp:105] Setting up inception_5a/5x5
I0313 20:13:57.587306 15508 net.cpp:112] Top shape: 32 128 7 7 (200704)
I0313 20:13:57.587332 15508 layer_factory.hpp:74] Creating layer inception_5a/relu_5x5
I0313 20:13:57.587344 15508 net.cpp:76] Creating Layer inception_5a/relu_5x5
I0313 20:13:57.587359 15508 net.cpp:372] inception_5a/relu_5x5 <- inception_5a/5x5
I0313 20:13:57.587378 15508 net.cpp:323] inception_5a/relu_5x5 -> inception_5a/5x5 (in-place)
I0313 20:13:57.587404 15508 net.cpp:105] Setting up inception_5a/relu_5x5
I0313 20:13:57.587430 15508 net.cpp:112] Top shape: 32 128 7 7 (200704)
I0313 20:13:57.587445 15508 layer_factory.hpp:74] Creating layer inception_5a/pool
I0313 20:13:57.587456 15508 net.cpp:76] Creating Layer inception_5a/pool
I0313 20:13:57.587463 15508 net.cpp:372] inception_5a/pool <- pool4/3x3_s2_pool4/3x3_s2_0_split_3
I0313 20:13:57.587489 15508 net.cpp:334] inception_5a/pool -> inception_5a/pool
I0313 20:13:57.587502 15508 net.cpp:105] Setting up inception_5a/pool
I0313 20:13:57.587510 15508 net.cpp:112] Top shape: 32 832 7 7 (1304576)
I0313 20:13:57.587522 15508 layer_factory.hpp:74] Creating layer inception_5a/pool_proj
I0313 20:13:57.587551 15508 net.cpp:76] Creating Layer inception_5a/pool_proj
I0313 20:13:57.587560 15508 net.cpp:372] inception_5a/pool_proj <- inception_5a/pool
I0313 20:13:57.587573 15508 net.cpp:334] inception_5a/pool_proj -> inception_5a/pool_proj
I0313 20:13:57.587594 15508 net.cpp:105] Setting up inception_5a/pool_proj
I0313 20:13:57.588541 15508 net.cpp:112] Top shape: 32 128 7 7 (200704)
I0313 20:13:57.588568 15508 layer_factory.hpp:74] Creating layer inception_5a/relu_pool_proj
I0313 20:13:57.588582 15508 net.cpp:76] Creating Layer inception_5a/relu_pool_proj
I0313 20:13:57.588596 15508 net.cpp:372] inception_5a/relu_pool_proj <- inception_5a/pool_proj
I0313 20:13:57.588613 15508 net.cpp:323] inception_5a/relu_pool_proj -> inception_5a/pool_proj (in-place)
I0313 20:13:57.588639 15508 net.cpp:105] Setting up inception_5a/relu_pool_proj
I0313 20:13:57.588649 15508 net.cpp:112] Top shape: 32 128 7 7 (200704)
I0313 20:13:57.588655 15508 layer_factory.hpp:74] Creating layer inception_5a/output
I0313 20:13:57.588690 15508 net.cpp:76] Creating Layer inception_5a/output
I0313 20:13:57.588699 15508 net.cpp:372] inception_5a/output <- inception_5a/1x1
I0313 20:13:57.588707 15508 net.cpp:372] inception_5a/output <- inception_5a/3x3
I0313 20:13:57.588719 15508 net.cpp:372] inception_5a/output <- inception_5a/5x5
I0313 20:13:57.588731 15508 net.cpp:372] inception_5a/output <- inception_5a/pool_proj
I0313 20:13:57.588739 15508 net.cpp:334] inception_5a/output -> inception_5a/output
I0313 20:13:57.588760 15508 net.cpp:105] Setting up inception_5a/output
I0313 20:13:57.588769 15508 net.cpp:112] Top shape: 32 832 7 7 (1304576)
I0313 20:13:57.588778 15508 layer_factory.hpp:74] Creating layer inception_5a/output_inception_5a/output_0_split
I0313 20:13:57.588786 15508 net.cpp:76] Creating Layer inception_5a/output_inception_5a/output_0_split
I0313 20:13:57.588806 15508 net.cpp:372] inception_5a/output_inception_5a/output_0_split <- inception_5a/output
I0313 20:13:57.588816 15508 net.cpp:334] inception_5a/output_inception_5a/output_0_split -> inception_5a/output_inception_5a/output_0_split_0
I0313 20:13:57.588829 15508 net.cpp:334] inception_5a/output_inception_5a/output_0_split -> inception_5a/output_inception_5a/output_0_split_1
I0313 20:13:57.588847 15508 net.cpp:334] inception_5a/output_inception_5a/output_0_split -> inception_5a/output_inception_5a/output_0_split_2
I0313 20:13:57.588858 15508 net.cpp:334] inception_5a/output_inception_5a/output_0_split -> inception_5a/output_inception_5a/output_0_split_3
I0313 20:13:57.588867 15508 net.cpp:105] Setting up inception_5a/output_inception_5a/output_0_split
I0313 20:13:57.588888 15508 net.cpp:112] Top shape: 32 832 7 7 (1304576)
I0313 20:13:57.588896 15508 net.cpp:112] Top shape: 32 832 7 7 (1304576)
I0313 20:13:57.588902 15508 net.cpp:112] Top shape: 32 832 7 7 (1304576)
I0313 20:13:57.588908 15508 net.cpp:112] Top shape: 32 832 7 7 (1304576)
I0313 20:13:57.588914 15508 layer_factory.hpp:74] Creating layer inception_5b/1x1
I0313 20:13:57.588939 15508 net.cpp:76] Creating Layer inception_5b/1x1
I0313 20:13:57.588949 15508 net.cpp:372] inception_5b/1x1 <- inception_5a/output_inception_5a/output_0_split_0
I0313 20:13:57.588958 15508 net.cpp:334] inception_5b/1x1 -> inception_5b/1x1
I0313 20:13:57.588979 15508 net.cpp:105] Setting up inception_5b/1x1
I0313 20:13:57.591783 15508 net.cpp:112] Top shape: 32 384 7 7 (602112)
I0313 20:13:57.591816 15508 layer_factory.hpp:74] Creating layer inception_5b/relu_1x1
I0313 20:13:57.591828 15508 net.cpp:76] Creating Layer inception_5b/relu_1x1
I0313 20:13:57.591838 15508 net.cpp:372] inception_5b/relu_1x1 <- inception_5b/1x1
I0313 20:13:57.591848 15508 net.cpp:323] inception_5b/relu_1x1 -> inception_5b/1x1 (in-place)
I0313 20:13:57.591864 15508 net.cpp:105] Setting up inception_5b/relu_1x1
I0313 20:13:57.591872 15508 net.cpp:112] Top shape: 32 384 7 7 (602112)
I0313 20:13:57.591881 15508 layer_factory.hpp:74] Creating layer inception_5b/3x3_reduce
I0313 20:13:57.591898 15508 net.cpp:76] Creating Layer inception_5b/3x3_reduce
I0313 20:13:57.591907 15508 net.cpp:372] inception_5b/3x3_reduce <- inception_5a/output_inception_5a/output_0_split_1
I0313 20:13:57.591925 15508 net.cpp:334] inception_5b/3x3_reduce -> inception_5b/3x3_reduce
I0313 20:13:57.591944 15508 net.cpp:105] Setting up inception_5b/3x3_reduce
I0313 20:13:57.593343 15508 net.cpp:112] Top shape: 32 192 7 7 (301056)
I0313 20:13:57.593371 15508 layer_factory.hpp:74] Creating layer inception_5b/relu_3x3_reduce
I0313 20:13:57.593385 15508 net.cpp:76] Creating Layer inception_5b/relu_3x3_reduce
I0313 20:13:57.593401 15508 net.cpp:372] inception_5b/relu_3x3_reduce <- inception_5b/3x3_reduce
I0313 20:13:57.593418 15508 net.cpp:323] inception_5b/relu_3x3_reduce -> inception_5b/3x3_reduce (in-place)
I0313 20:13:57.593453 15508 net.cpp:105] Setting up inception_5b/relu_3x3_reduce
I0313 20:13:57.593464 15508 net.cpp:112] Top shape: 32 192 7 7 (301056)
I0313 20:13:57.593472 15508 layer_factory.hpp:74] Creating layer inception_5b/3x3
I0313 20:13:57.593497 15508 net.cpp:76] Creating Layer inception_5b/3x3
I0313 20:13:57.593523 15508 net.cpp:372] inception_5b/3x3 <- inception_5b/3x3_reduce
I0313 20:13:57.593538 15508 net.cpp:334] inception_5b/3x3 -> inception_5b/3x3
I0313 20:13:57.593549 15508 net.cpp:105] Setting up inception_5b/3x3
I0313 20:13:57.599258 15508 net.cpp:112] Top shape: 32 384 7 7 (602112)
I0313 20:13:57.599289 15508 layer_factory.hpp:74] Creating layer inception_5b/relu_3x3
I0313 20:13:57.599309 15508 net.cpp:76] Creating Layer inception_5b/relu_3x3
I0313 20:13:57.599328 15508 net.cpp:372] inception_5b/relu_3x3 <- inception_5b/3x3
I0313 20:13:57.599349 15508 net.cpp:323] inception_5b/relu_3x3 -> inception_5b/3x3 (in-place)
I0313 20:13:57.599378 15508 net.cpp:105] Setting up inception_5b/relu_3x3
I0313 20:13:57.599390 15508 net.cpp:112] Top shape: 32 384 7 7 (602112)
I0313 20:13:57.599402 15508 layer_factory.hpp:74] Creating layer inception_5b/5x5_reduce
I0313 20:13:57.599424 15508 net.cpp:76] Creating Layer inception_5b/5x5_reduce
I0313 20:13:57.599448 15508 net.cpp:372] inception_5b/5x5_reduce <- inception_5a/output_inception_5a/output_0_split_2
I0313 20:13:57.599460 15508 net.cpp:334] inception_5b/5x5_reduce -> inception_5b/5x5_reduce
I0313 20:13:57.599470 15508 net.cpp:105] Setting up inception_5b/5x5_reduce
I0313 20:13:57.599830 15508 net.cpp:112] Top shape: 32 48 7 7 (75264)
I0313 20:13:57.599856 15508 layer_factory.hpp:74] Creating layer inception_5b/relu_5x5_reduce
I0313 20:13:57.599867 15508 net.cpp:76] Creating Layer inception_5b/relu_5x5_reduce
I0313 20:13:57.599875 15508 net.cpp:372] inception_5b/relu_5x5_reduce <- inception_5b/5x5_reduce
I0313 20:13:57.599884 15508 net.cpp:323] inception_5b/relu_5x5_reduce -> inception_5b/5x5_reduce (in-place)
I0313 20:13:57.599910 15508 net.cpp:105] Setting up inception_5b/relu_5x5_reduce
I0313 20:13:57.599917 15508 net.cpp:112] Top shape: 32 48 7 7 (75264)
I0313 20:13:57.599925 15508 layer_factory.hpp:74] Creating layer inception_5b/5x5
I0313 20:13:57.599936 15508 net.cpp:76] Creating Layer inception_5b/5x5
I0313 20:13:57.599952 15508 net.cpp:372] inception_5b/5x5 <- inception_5b/5x5_reduce
I0313 20:13:57.599963 15508 net.cpp:334] inception_5b/5x5 -> inception_5b/5x5
I0313 20:13:57.599974 15508 net.cpp:105] Setting up inception_5b/5x5
I0313 20:13:57.601325 15508 net.cpp:112] Top shape: 32 128 7 7 (200704)
I0313 20:13:57.601353 15508 layer_factory.hpp:74] Creating layer inception_5b/relu_5x5
I0313 20:13:57.601366 15508 net.cpp:76] Creating Layer inception_5b/relu_5x5
I0313 20:13:57.601379 15508 net.cpp:372] inception_5b/relu_5x5 <- inception_5b/5x5
I0313 20:13:57.601399 15508 net.cpp:323] inception_5b/relu_5x5 -> inception_5b/5x5 (in-place)
I0313 20:13:57.601441 15508 net.cpp:105] Setting up inception_5b/relu_5x5
I0313 20:13:57.601459 15508 net.cpp:112] Top shape: 32 128 7 7 (200704)
I0313 20:13:57.601466 15508 layer_factory.hpp:74] Creating layer inception_5b/pool
I0313 20:13:57.601476 15508 net.cpp:76] Creating Layer inception_5b/pool
I0313 20:13:57.601495 15508 net.cpp:372] inception_5b/pool <- inception_5a/output_inception_5a/output_0_split_3
I0313 20:13:57.601506 15508 net.cpp:334] inception_5b/pool -> inception_5b/pool
I0313 20:13:57.601528 15508 net.cpp:105] Setting up inception_5b/pool
I0313 20:13:57.601538 15508 net.cpp:112] Top shape: 32 832 7 7 (1304576)
I0313 20:13:57.601547 15508 layer_factory.hpp:74] Creating layer inception_5b/pool_proj
I0313 20:13:57.601563 15508 net.cpp:76] Creating Layer inception_5b/pool_proj
I0313 20:13:57.601585 15508 net.cpp:372] inception_5b/pool_proj <- inception_5b/pool
I0313 20:13:57.601599 15508 net.cpp:334] inception_5b/pool_proj -> inception_5b/pool_proj
I0313 20:13:57.601619 15508 net.cpp:105] Setting up inception_5b/pool_proj
I0313 20:13:57.602562 15508 net.cpp:112] Top shape: 32 128 7 7 (200704)
I0313 20:13:57.602591 15508 layer_factory.hpp:74] Creating layer inception_5b/relu_pool_proj
I0313 20:13:57.602602 15508 net.cpp:76] Creating Layer inception_5b/relu_pool_proj
I0313 20:13:57.602617 15508 net.cpp:372] inception_5b/relu_pool_proj <- inception_5b/pool_proj
I0313 20:13:57.602646 15508 net.cpp:323] inception_5b/relu_pool_proj -> inception_5b/pool_proj (in-place)
I0313 20:13:57.602677 15508 net.cpp:105] Setting up inception_5b/relu_pool_proj
I0313 20:13:57.602686 15508 net.cpp:112] Top shape: 32 128 7 7 (200704)
I0313 20:13:57.602694 15508 layer_factory.hpp:74] Creating layer inception_5b/output
I0313 20:13:57.602705 15508 net.cpp:76] Creating Layer inception_5b/output
I0313 20:13:57.602721 15508 net.cpp:372] inception_5b/output <- inception_5b/1x1
I0313 20:13:57.602731 15508 net.cpp:372] inception_5b/output <- inception_5b/3x3
I0313 20:13:57.602741 15508 net.cpp:372] inception_5b/output <- inception_5b/5x5
I0313 20:13:57.602757 15508 net.cpp:372] inception_5b/output <- inception_5b/pool_proj
I0313 20:13:57.602771 15508 net.cpp:334] inception_5b/output -> inception_5b/output
I0313 20:13:57.602790 15508 net.cpp:105] Setting up inception_5b/output
I0313 20:13:57.602799 15508 net.cpp:112] Top shape: 32 1024 7 7 (1605632)
I0313 20:13:57.602807 15508 layer_factory.hpp:74] Creating layer pool5/7x7_s1
I0313 20:13:57.602818 15508 net.cpp:76] Creating Layer pool5/7x7_s1
I0313 20:13:57.602836 15508 net.cpp:372] pool5/7x7_s1 <- inception_5b/output
I0313 20:13:57.602846 15508 net.cpp:334] pool5/7x7_s1 -> pool5/7x7_s1
I0313 20:13:57.602856 15508 net.cpp:105] Setting up pool5/7x7_s1
I0313 20:13:57.602874 15508 net.cpp:112] Top shape: 32 1024 1 1 (32768)
I0313 20:13:57.602881 15508 layer_factory.hpp:74] Creating layer pool5/drop_7x7_s1
I0313 20:13:57.602891 15508 net.cpp:76] Creating Layer pool5/drop_7x7_s1
I0313 20:13:57.602911 15508 net.cpp:372] pool5/drop_7x7_s1 <- pool5/7x7_s1
I0313 20:13:57.602923 15508 net.cpp:323] pool5/drop_7x7_s1 -> pool5/7x7_s1 (in-place)
I0313 20:13:57.602946 15508 net.cpp:105] Setting up pool5/drop_7x7_s1
I0313 20:13:57.602954 15508 net.cpp:112] Top shape: 32 1024 1 1 (32768)
I0313 20:13:57.602962 15508 layer_factory.hpp:74] Creating layer loss3/classifier-11
I0313 20:13:57.602984 15508 net.cpp:76] Creating Layer loss3/classifier-11
I0313 20:13:57.602993 15508 net.cpp:372] loss3/classifier-11 <- pool5/7x7_s1
I0313 20:13:57.603005 15508 net.cpp:334] loss3/classifier-11 -> loss3/classifier-11
I0313 20:13:57.603025 15508 net.cpp:105] Setting up loss3/classifier-11
I0313 20:13:57.603135 15508 net.cpp:112] Top shape: 32 11 1 1 (352)
I0313 20:13:57.603155 15508 layer_factory.hpp:74] Creating layer loss3/classifier-11_loss3/classifier-11_0_split
I0313 20:13:57.603165 15508 net.cpp:76] Creating Layer loss3/classifier-11_loss3/classifier-11_0_split
I0313 20:13:57.603173 15508 net.cpp:372] loss3/classifier-11_loss3/classifier-11_0_split <- loss3/classifier-11
I0313 20:13:57.603196 15508 net.cpp:334] loss3/classifier-11_loss3/classifier-11_0_split -> loss3/classifier-11_loss3/classifier-11_0_split_0
I0313 20:13:57.603209 15508 net.cpp:334] loss3/classifier-11_loss3/classifier-11_0_split -> loss3/classifier-11_loss3/classifier-11_0_split_1
I0313 20:13:57.603231 15508 net.cpp:334] loss3/classifier-11_loss3/classifier-11_0_split -> loss3/classifier-11_loss3/classifier-11_0_split_2
I0313 20:13:57.603242 15508 net.cpp:105] Setting up loss3/classifier-11_loss3/classifier-11_0_split
I0313 20:13:57.603250 15508 net.cpp:112] Top shape: 32 11 1 1 (352)
I0313 20:13:57.603258 15508 net.cpp:112] Top shape: 32 11 1 1 (352)
I0313 20:13:57.603265 15508 net.cpp:112] Top shape: 32 11 1 1 (352)
I0313 20:13:57.603286 15508 layer_factory.hpp:74] Creating layer loss3/loss3
I0313 20:13:57.603298 15508 net.cpp:76] Creating Layer loss3/loss3
I0313 20:13:57.603317 15508 net.cpp:372] loss3/loss3 <- loss3/classifier-11_loss3/classifier-11_0_split_0
I0313 20:13:57.603327 15508 net.cpp:372] loss3/loss3 <- label_data_1_split_6
I0313 20:13:57.603337 15508 net.cpp:334] loss3/loss3 -> loss3/loss3
I0313 20:13:57.603361 15508 net.cpp:105] Setting up loss3/loss3
I0313 20:13:57.603373 15508 layer_factory.hpp:74] Creating layer loss3/loss3
I0313 20:13:57.603389 15508 net.cpp:112] Top shape: 1 1 1 1 (1)
I0313 20:13:57.603416 15508 net.cpp:118]     with loss weight 1
I0313 20:13:57.603443 15508 layer_factory.hpp:74] Creating layer loss3/top-1
I0313 20:13:57.603461 15508 net.cpp:76] Creating Layer loss3/top-1
I0313 20:13:57.603483 15508 net.cpp:372] loss3/top-1 <- loss3/classifier-11_loss3/classifier-11_0_split_1
I0313 20:13:57.603493 15508 net.cpp:372] loss3/top-1 <- label_data_1_split_7
I0313 20:13:57.603504 15508 net.cpp:334] loss3/top-1 -> loss3/top-1
I0313 20:13:57.603526 15508 net.cpp:105] Setting up loss3/top-1
I0313 20:13:57.603536 15508 net.cpp:112] Top shape: 1 1 1 1 (1)
I0313 20:13:57.603543 15508 layer_factory.hpp:74] Creating layer loss3/top-5
I0313 20:13:57.603552 15508 net.cpp:76] Creating Layer loss3/top-5
I0313 20:13:57.603570 15508 net.cpp:372] loss3/top-5 <- loss3/classifier-11_loss3/classifier-11_0_split_2
I0313 20:13:57.603580 15508 net.cpp:372] loss3/top-5 <- label_data_1_split_8
I0313 20:13:57.603592 15508 net.cpp:334] loss3/top-5 -> loss3/top-5
I0313 20:13:57.603611 15508 net.cpp:105] Setting up loss3/top-5
I0313 20:13:57.603621 15508 net.cpp:112] Top shape: 1 1 1 1 (1)
I0313 20:13:57.603627 15508 net.cpp:165] loss3/top-5 does not need backward computation.
I0313 20:13:57.603638 15508 net.cpp:165] loss3/top-1 does not need backward computation.
I0313 20:13:57.603660 15508 net.cpp:163] loss3/loss3 needs backward computation.
I0313 20:13:57.603677 15508 net.cpp:163] loss3/classifier-11_loss3/classifier-11_0_split needs backward computation.
I0313 20:13:57.603691 15508 net.cpp:163] loss3/classifier-11 needs backward computation.
…
